{"format": "graph-model", "generatedBy": "2.2.0", "convertedBy": "TensorFlow.js Converter v2.0.1.post1", "userDefinedMetadata": {"signature": {"outputs": {"480": {"name": "480"}}}}, "modelTopology": {"node": [{"name": "BatchNormalization_250/mul", "op": "Const", "attr": {"dtype": {"type": "DT_FLOAT"}, "value": {"tensor": {"dtype": "DT_FLOAT", "tensorShape": {"dim": [{"size": "1"}, {"size": "1"}, {"size": "1"}, {"size": "1"}]}}}}}, {"name": "BatchNormalization_220/mul", "op": "Const", "attr": {"value": {"tensor": {"dtype": "DT_FLOAT", "tensorShape": {"dim": [{"size": "1"}, {"size": "16"}, {"size": "1"}, {"size": "1"}]}}}, "dtype": {"type": "DT_FLOAT"}}}, {"name": "BatchNormalization_217/mul", "op": "Const", "attr": {"value": {"tensor": {"dtype": "DT_FLOAT", "tensorShape": {"dim": [{"size": "1"}, {"size": "56"}, {"size": "1"}, {"size": "1"}]}}}, "dtype": {"type": "DT_FLOAT"}}}, {"name": "ConstantFolding/split_70-folded-0", "op": "Const", "attr": {"value": {"tensor": {"dtype": "DT_FLOAT", "tensorShape": {"dim": [{"size": "5"}, {"size": "5"}, {"size": "1"}, {"size": "1"}]}}}, "dtype": {"type": "DT_FLOAT"}}}, {"name": "ConstantFolding/split_70-folded-1", "op": "Const", "attr": {"value": {"tensor": {"dtype": "DT_FLOAT", "tensorShape": {"dim": [{"size": "5"}, {"size": "5"}, {"size": "1"}, {"size": "1"}]}}}, "dtype": {"type": "DT_FLOAT"}}}, {"name": "ConstantFolding/split_70-folded-2", "op": "Const", "attr": {"value": {"tensor": {"dtype": "DT_FLOAT", "tensorShape": {"dim": [{"size": "5"}, {"size": "5"}, {"size": "1"}, {"size": "1"}]}}}, "dtype": {"type": "DT_FLOAT"}}}, {"name": "ConstantFolding/split_70-folded-3", "op": "Const", "attr": {"dtype": {"type": "DT_FLOAT"}, "value": {"tensor": {"dtype": "DT_FLOAT", "tensorShape": {"dim": [{"size": "5"}, {"size": "5"}, {"size": "1"}, {"size": "1"}]}}}}}, {"name": "ConstantFolding/split_70-folded-4", "op": "Const", "attr": {"value": {"tensor": {"dtype": "DT_FLOAT", "tensorShape": {"dim": [{"size": "5"}, {"size": "5"}, {"size": "1"}, {"size": "1"}]}}}, "dtype": {"type": "DT_FLOAT"}}}, {"name": "ConstantFolding/split_70-folded-5", "op": "Const", "attr": {"dtype": {"type": "DT_FLOAT"}, "value": {"tensor": {"dtype": "DT_FLOAT", "tensorShape": {"dim": [{"size": "5"}, {"size": "5"}, {"size": "1"}, {"size": "1"}]}}}}}, {"name": "ConstantFolding/split_70-folded-6", "op": "Const", "attr": {"value": {"tensor": {"dtype": "DT_FLOAT", "tensorShape": {"dim": [{"size": "5"}, {"size": "5"}, {"size": "1"}, {"size": "1"}]}}}, "dtype": {"type": "DT_FLOAT"}}}, {"name": "ConstantFolding/split_70-folded-7", "op": "Const", "attr": {"dtype": {"type": "DT_FLOAT"}, "value": {"tensor": {"dtype": "DT_FLOAT", "tensorShape": {"dim": [{"size": "5"}, {"size": "5"}, {"size": "1"}, {"size": "1"}]}}}}}, {"name": "ConstantFolding/split_70-folded-8", "op": "Const", "attr": {"dtype": {"type": "DT_FLOAT"}, "value": {"tensor": {"dtype": "DT_FLOAT", "tensorShape": {"dim": [{"size": "5"}, {"size": "5"}, {"size": "1"}, {"size": "1"}]}}}}}, {"name": "ConstantFolding/split_70-folded-9", "op": "Const", "attr": {"value": {"tensor": {"dtype": "DT_FLOAT", "tensorShape": {"dim": [{"size": "5"}, {"size": "5"}, {"size": "1"}, {"size": "1"}]}}}, "dtype": {"type": "DT_FLOAT"}}}, {"name": "ConstantFolding/split_70-folded-10", "op": "Const", "attr": {"dtype": {"type": "DT_FLOAT"}, "value": {"tensor": {"dtype": "DT_FLOAT", "tensorShape": {"dim": [{"size": "5"}, {"size": "5"}, {"size": "1"}, {"size": "1"}]}}}}}, {"name": "ConstantFolding/split_70-folded-11", "op": "Const", "attr": {"value": {"tensor": {"dtype": "DT_FLOAT", "tensorShape": {"dim": [{"size": "5"}, {"size": "5"}, {"size": "1"}, {"size": "1"}]}}}, "dtype": {"type": "DT_FLOAT"}}}, {"name": "ConstantFolding/split_70-folded-12", "op": "Const", "attr": {"value": {"tensor": {"dtype": "DT_FLOAT", "tensorShape": {"dim": [{"size": "5"}, {"size": "5"}, {"size": "1"}, {"size": "1"}]}}}, "dtype": {"type": "DT_FLOAT"}}}, {"name": "ConstantFolding/split_70-folded-13", "op": "Const", "attr": {"value": {"tensor": {"dtype": "DT_FLOAT", "tensorShape": {"dim": [{"size": "5"}, {"size": "5"}, {"size": "1"}, {"size": "1"}]}}}, "dtype": {"type": "DT_FLOAT"}}}, {"name": "ConstantFolding/split_70-folded-14", "op": "Const", "attr": {"dtype": {"type": "DT_FLOAT"}, "value": {"tensor": {"dtype": "DT_FLOAT", "tensorShape": {"dim": [{"size": "5"}, {"size": "5"}, {"size": "1"}, {"size": "1"}]}}}}}, {"name": "ConstantFolding/split_70-folded-15", "op": "Const", "attr": {"dtype": {"type": "DT_FLOAT"}, "value": {"tensor": {"dtype": "DT_FLOAT", "tensorShape": {"dim": [{"size": "5"}, {"size": "5"}, {"size": "1"}, {"size": "1"}]}}}}}, {"name": "ConstantFolding/split_70-folded-16", "op": "Const", "attr": {"value": {"tensor": {"dtype": "DT_FLOAT", "tensorShape": {"dim": [{"size": "5"}, {"size": "5"}, {"size": "1"}, {"size": "1"}]}}}, "dtype": {"type": "DT_FLOAT"}}}, {"name": "ConstantFolding/split_70-folded-17", "op": "Const", "attr": {"value": {"tensor": {"dtype": "DT_FLOAT", "tensorShape": {"dim": [{"size": "5"}, {"size": "5"}, {"size": "1"}, {"size": "1"}]}}}, "dtype": {"type": "DT_FLOAT"}}}, {"name": "ConstantFolding/split_70-folded-18", "op": "Const", "attr": {"value": {"tensor": {"dtype": "DT_FLOAT", "tensorShape": {"dim": [{"size": "5"}, {"size": "5"}, {"size": "1"}, {"size": "1"}]}}}, "dtype": {"type": "DT_FLOAT"}}}, {"name": "ConstantFolding/split_70-folded-19", "op": "Const", "attr": {"value": {"tensor": {"dtype": "DT_FLOAT", "tensorShape": {"dim": [{"size": "5"}, {"size": "5"}, {"size": "1"}, {"size": "1"}]}}}, "dtype": {"type": "DT_FLOAT"}}}, {"name": "ConstantFolding/split_70-folded-20", "op": "Const", "attr": {"dtype": {"type": "DT_FLOAT"}, "value": {"tensor": {"dtype": "DT_FLOAT", "tensorShape": {"dim": [{"size": "5"}, {"size": "5"}, {"size": "1"}, {"size": "1"}]}}}}}, {"name": "ConstantFolding/split_70-folded-21", "op": "Const", "attr": {"dtype": {"type": "DT_FLOAT"}, "value": {"tensor": {"dtype": "DT_FLOAT", "tensorShape": {"dim": [{"size": "5"}, {"size": "5"}, {"size": "1"}, {"size": "1"}]}}}}}, {"name": "ConstantFolding/split_70-folded-22", "op": "Const", "attr": {"value": {"tensor": {"dtype": "DT_FLOAT", "tensorShape": {"dim": [{"size": "5"}, {"size": "5"}, {"size": "1"}, {"size": "1"}]}}}, "dtype": {"type": "DT_FLOAT"}}}, {"name": "ConstantFolding/split_70-folded-23", "op": "Const", "attr": {"dtype": {"type": "DT_FLOAT"}, "value": {"tensor": {"dtype": "DT_FLOAT", "tensorShape": {"dim": [{"size": "5"}, {"size": "5"}, {"size": "1"}, {"size": "1"}]}}}}}, {"name": "ConstantFolding/split_70-folded-24", "op": "Const", "attr": {"value": {"tensor": {"dtype": "DT_FLOAT", "tensorShape": {"dim": [{"size": "5"}, {"size": "5"}, {"size": "1"}, {"size": "1"}]}}}, "dtype": {"type": "DT_FLOAT"}}}, {"name": "ConstantFolding/split_70-folded-25", "op": "Const", "attr": {"value": {"tensor": {"dtype": "DT_FLOAT", "tensorShape": {"dim": [{"size": "5"}, {"size": "5"}, {"size": "1"}, {"size": "1"}]}}}, "dtype": {"type": "DT_FLOAT"}}}, {"name": "ConstantFolding/split_70-folded-26", "op": "Const", "attr": {"dtype": {"type": "DT_FLOAT"}, "value": {"tensor": {"dtype": "DT_FLOAT", "tensorShape": {"dim": [{"size": "5"}, {"size": "5"}, {"size": "1"}, {"size": "1"}]}}}}}, {"name": "ConstantFolding/split_70-folded-27", "op": "Const", "attr": {"dtype": {"type": "DT_FLOAT"}, "value": {"tensor": {"dtype": "DT_FLOAT", "tensorShape": {"dim": [{"size": "5"}, {"size": "5"}, {"size": "1"}, {"size": "1"}]}}}}}, {"name": "ConstantFolding/split_70-folded-28", "op": "Const", "attr": {"dtype": {"type": "DT_FLOAT"}, "value": {"tensor": {"dtype": "DT_FLOAT", "tensorShape": {"dim": [{"size": "5"}, {"size": "5"}, {"size": "1"}, {"size": "1"}]}}}}}, {"name": "ConstantFolding/split_70-folded-29", "op": "Const", "attr": {"value": {"tensor": {"dtype": "DT_FLOAT", "tensorShape": {"dim": [{"size": "5"}, {"size": "5"}, {"size": "1"}, {"size": "1"}]}}}, "dtype": {"type": "DT_FLOAT"}}}, {"name": "ConstantFolding/split_70-folded-30", "op": "Const", "attr": {"value": {"tensor": {"dtype": "DT_FLOAT", "tensorShape": {"dim": [{"size": "5"}, {"size": "5"}, {"size": "1"}, {"size": "1"}]}}}, "dtype": {"type": "DT_FLOAT"}}}, {"name": "ConstantFolding/split_70-folded-31", "op": "Const", "attr": {"value": {"tensor": {"dtype": "DT_FLOAT", "tensorShape": {"dim": [{"size": "5"}, {"size": "5"}, {"size": "1"}, {"size": "1"}]}}}, "dtype": {"type": "DT_FLOAT"}}}, {"name": "ConstantFolding/split_70-folded-32", "op": "Const", "attr": {"dtype": {"type": "DT_FLOAT"}, "value": {"tensor": {"dtype": "DT_FLOAT", "tensorShape": {"dim": [{"size": "5"}, {"size": "5"}, {"size": "1"}, {"size": "1"}]}}}}}, {"name": "ConstantFolding/split_70-folded-33", "op": "Const", "attr": {"value": {"tensor": {"dtype": "DT_FLOAT", "tensorShape": {"dim": [{"size": "5"}, {"size": "5"}, {"size": "1"}, {"size": "1"}]}}}, "dtype": {"type": "DT_FLOAT"}}}, {"name": "ConstantFolding/split_70-folded-34", "op": "Const", "attr": {"dtype": {"type": "DT_FLOAT"}, "value": {"tensor": {"dtype": "DT_FLOAT", "tensorShape": {"dim": [{"size": "5"}, {"size": "5"}, {"size": "1"}, {"size": "1"}]}}}}}, {"name": "ConstantFolding/split_70-folded-35", "op": "Const", "attr": {"value": {"tensor": {"dtype": "DT_FLOAT", "tensorShape": {"dim": [{"size": "5"}, {"size": "5"}, {"size": "1"}, {"size": "1"}]}}}, "dtype": {"type": "DT_FLOAT"}}}, {"name": "ConstantFolding/split_70-folded-36", "op": "Const", "attr": {"dtype": {"type": "DT_FLOAT"}, "value": {"tensor": {"dtype": "DT_FLOAT", "tensorShape": {"dim": [{"size": "5"}, {"size": "5"}, {"size": "1"}, {"size": "1"}]}}}}}, {"name": "ConstantFolding/split_70-folded-37", "op": "Const", "attr": {"value": {"tensor": {"dtype": "DT_FLOAT", "tensorShape": {"dim": [{"size": "5"}, {"size": "5"}, {"size": "1"}, {"size": "1"}]}}}, "dtype": {"type": "DT_FLOAT"}}}, {"name": "ConstantFolding/split_70-folded-38", "op": "Const", "attr": {"dtype": {"type": "DT_FLOAT"}, "value": {"tensor": {"dtype": "DT_FLOAT", "tensorShape": {"dim": [{"size": "5"}, {"size": "5"}, {"size": "1"}, {"size": "1"}]}}}}}, {"name": "ConstantFolding/split_70-folded-39", "op": "Const", "attr": {"value": {"tensor": {"dtype": "DT_FLOAT", "tensorShape": {"dim": [{"size": "5"}, {"size": "5"}, {"size": "1"}, {"size": "1"}]}}}, "dtype": {"type": "DT_FLOAT"}}}, {"name": "ConstantFolding/split_70-folded-40", "op": "Const", "attr": {"dtype": {"type": "DT_FLOAT"}, "value": {"tensor": {"dtype": "DT_FLOAT", "tensorShape": {"dim": [{"size": "5"}, {"size": "5"}, {"size": "1"}, {"size": "1"}]}}}}}, {"name": "ConstantFolding/split_70-folded-41", "op": "Const", "attr": {"dtype": {"type": "DT_FLOAT"}, "value": {"tensor": {"dtype": "DT_FLOAT", "tensorShape": {"dim": [{"size": "5"}, {"size": "5"}, {"size": "1"}, {"size": "1"}]}}}}}, {"name": "ConstantFolding/split_70-folded-42", "op": "Const", "attr": {"value": {"tensor": {"dtype": "DT_FLOAT", "tensorShape": {"dim": [{"size": "5"}, {"size": "5"}, {"size": "1"}, {"size": "1"}]}}}, "dtype": {"type": "DT_FLOAT"}}}, {"name": "ConstantFolding/split_70-folded-43", "op": "Const", "attr": {"value": {"tensor": {"dtype": "DT_FLOAT", "tensorShape": {"dim": [{"size": "5"}, {"size": "5"}, {"size": "1"}, {"size": "1"}]}}}, "dtype": {"type": "DT_FLOAT"}}}, {"name": "ConstantFolding/split_70-folded-44", "op": "Const", "attr": {"dtype": {"type": "DT_FLOAT"}, "value": {"tensor": {"dtype": "DT_FLOAT", "tensorShape": {"dim": [{"size": "5"}, {"size": "5"}, {"size": "1"}, {"size": "1"}]}}}}}, {"name": "ConstantFolding/split_70-folded-45", "op": "Const", "attr": {"dtype": {"type": "DT_FLOAT"}, "value": {"tensor": {"dtype": "DT_FLOAT", "tensorShape": {"dim": [{"size": "5"}, {"size": "5"}, {"size": "1"}, {"size": "1"}]}}}}}, {"name": "ConstantFolding/split_70-folded-46", "op": "Const", "attr": {"value": {"tensor": {"dtype": "DT_FLOAT", "tensorShape": {"dim": [{"size": "5"}, {"size": "5"}, {"size": "1"}, {"size": "1"}]}}}, "dtype": {"type": "DT_FLOAT"}}}, {"name": "ConstantFolding/split_70-folded-47", "op": "Const", "attr": {"value": {"tensor": {"dtype": "DT_FLOAT", "tensorShape": {"dim": [{"size": "5"}, {"size": "5"}, {"size": "1"}, {"size": "1"}]}}}, "dtype": {"type": "DT_FLOAT"}}}, {"name": "ConstantFolding/split_70-folded-48", "op": "Const", "attr": {"dtype": {"type": "DT_FLOAT"}, "value": {"tensor": {"dtype": "DT_FLOAT", "tensorShape": {"dim": [{"size": "5"}, {"size": "5"}, {"size": "1"}, {"size": "1"}]}}}}}, {"name": "ConstantFolding/split_70-folded-49", "op": "Const", "attr": {"value": {"tensor": {"dtype": "DT_FLOAT", "tensorShape": {"dim": [{"size": "5"}, {"size": "5"}, {"size": "1"}, {"size": "1"}]}}}, "dtype": {"type": "DT_FLOAT"}}}, {"name": "ConstantFolding/split_70-folded-50", "op": "Const", "attr": {"dtype": {"type": "DT_FLOAT"}, "value": {"tensor": {"dtype": "DT_FLOAT", "tensorShape": {"dim": [{"size": "5"}, {"size": "5"}, {"size": "1"}, {"size": "1"}]}}}}}, {"name": "ConstantFolding/split_70-folded-51", "op": "Const", "attr": {"dtype": {"type": "DT_FLOAT"}, "value": {"tensor": {"dtype": "DT_FLOAT", "tensorShape": {"dim": [{"size": "5"}, {"size": "5"}, {"size": "1"}, {"size": "1"}]}}}}}, {"name": "ConstantFolding/split_70-folded-52", "op": "Const", "attr": {"dtype": {"type": "DT_FLOAT"}, "value": {"tensor": {"dtype": "DT_FLOAT", "tensorShape": {"dim": [{"size": "5"}, {"size": "5"}, {"size": "1"}, {"size": "1"}]}}}}}, {"name": "ConstantFolding/split_70-folded-53", "op": "Const", "attr": {"dtype": {"type": "DT_FLOAT"}, "value": {"tensor": {"dtype": "DT_FLOAT", "tensorShape": {"dim": [{"size": "5"}, {"size": "5"}, {"size": "1"}, {"size": "1"}]}}}}}, {"name": "ConstantFolding/split_70-folded-54", "op": "Const", "attr": {"dtype": {"type": "DT_FLOAT"}, "value": {"tensor": {"dtype": "DT_FLOAT", "tensorShape": {"dim": [{"size": "5"}, {"size": "5"}, {"size": "1"}, {"size": "1"}]}}}}}, {"name": "BatchNormalization_186/mul", "op": "Const", "attr": {"dtype": {"type": "DT_FLOAT"}, "value": {"tensor": {"dtype": "DT_FLOAT", "tensorShape": {"dim": [{"size": "1"}, {"size": "56"}, {"size": "1"}, {"size": "1"}]}}}}}, {"name": "BatchNormalization_183/mul", "op": "Const", "attr": {"dtype": {"type": "DT_FLOAT"}, "value": {"tensor": {"dtype": "DT_FLOAT", "tensorShape": {"dim": [{"size": "1"}, {"size": "120"}, {"size": "1"}, {"size": "1"}]}}}}}, {"name": "ConstantFolding/split_66-folded-0", "op": "Const", "attr": {"value": {"tensor": {"dtype": "DT_FLOAT", "tensorShape": {"dim": [{"size": "5"}, {"size": "5"}, {"size": "1"}, {"size": "1"}]}}}, "dtype": {"type": "DT_FLOAT"}}}, {"name": "ConstantFolding/split_66-folded-1", "op": "Const", "attr": {"value": {"tensor": {"dtype": "DT_FLOAT", "tensorShape": {"dim": [{"size": "5"}, {"size": "5"}, {"size": "1"}, {"size": "1"}]}}}, "dtype": {"type": "DT_FLOAT"}}}, {"name": "ConstantFolding/split_66-folded-2", "op": "Const", "attr": {"value": {"tensor": {"dtype": "DT_FLOAT", "tensorShape": {"dim": [{"size": "5"}, {"size": "5"}, {"size": "1"}, {"size": "1"}]}}}, "dtype": {"type": "DT_FLOAT"}}}, {"name": "ConstantFolding/split_66-folded-3", "op": "Const", "attr": {"dtype": {"type": "DT_FLOAT"}, "value": {"tensor": {"dtype": "DT_FLOAT", "tensorShape": {"dim": [{"size": "5"}, {"size": "5"}, {"size": "1"}, {"size": "1"}]}}}}}, {"name": "ConstantFolding/split_66-folded-4", "op": "Const", "attr": {"dtype": {"type": "DT_FLOAT"}, "value": {"tensor": {"dtype": "DT_FLOAT", "tensorShape": {"dim": [{"size": "5"}, {"size": "5"}, {"size": "1"}, {"size": "1"}]}}}}}, {"name": "ConstantFolding/split_66-folded-5", "op": "Const", "attr": {"value": {"tensor": {"dtype": "DT_FLOAT", "tensorShape": {"dim": [{"size": "5"}, {"size": "5"}, {"size": "1"}, {"size": "1"}]}}}, "dtype": {"type": "DT_FLOAT"}}}, {"name": "ConstantFolding/split_66-folded-6", "op": "Const", "attr": {"value": {"tensor": {"dtype": "DT_FLOAT", "tensorShape": {"dim": [{"size": "5"}, {"size": "5"}, {"size": "1"}, {"size": "1"}]}}}, "dtype": {"type": "DT_FLOAT"}}}, {"name": "ConstantFolding/split_66-folded-7", "op": "Const", "attr": {"value": {"tensor": {"dtype": "DT_FLOAT", "tensorShape": {"dim": [{"size": "5"}, {"size": "5"}, {"size": "1"}, {"size": "1"}]}}}, "dtype": {"type": "DT_FLOAT"}}}, {"name": "ConstantFolding/split_66-folded-8", "op": "Const", "attr": {"dtype": {"type": "DT_FLOAT"}, "value": {"tensor": {"dtype": "DT_FLOAT", "tensorShape": {"dim": [{"size": "5"}, {"size": "5"}, {"size": "1"}, {"size": "1"}]}}}}}, {"name": "ConstantFolding/split_66-folded-9", "op": "Const", "attr": {"value": {"tensor": {"dtype": "DT_FLOAT", "tensorShape": {"dim": [{"size": "5"}, {"size": "5"}, {"size": "1"}, {"size": "1"}]}}}, "dtype": {"type": "DT_FLOAT"}}}, {"name": "ConstantFolding/split_66-folded-10", "op": "Const", "attr": {"dtype": {"type": "DT_FLOAT"}, "value": {"tensor": {"dtype": "DT_FLOAT", "tensorShape": {"dim": [{"size": "5"}, {"size": "5"}, {"size": "1"}, {"size": "1"}]}}}}}, {"name": "ConstantFolding/split_66-folded-11", "op": "Const", "attr": {"dtype": {"type": "DT_FLOAT"}, "value": {"tensor": {"dtype": "DT_FLOAT", "tensorShape": {"dim": [{"size": "5"}, {"size": "5"}, {"size": "1"}, {"size": "1"}]}}}}}, {"name": "ConstantFolding/split_66-folded-12", "op": "Const", "attr": {"value": {"tensor": {"dtype": "DT_FLOAT", "tensorShape": {"dim": [{"size": "5"}, {"size": "5"}, {"size": "1"}, {"size": "1"}]}}}, "dtype": {"type": "DT_FLOAT"}}}, {"name": "ConstantFolding/split_66-folded-13", "op": "Const", "attr": {"value": {"tensor": {"dtype": "DT_FLOAT", "tensorShape": {"dim": [{"size": "5"}, {"size": "5"}, {"size": "1"}, {"size": "1"}]}}}, "dtype": {"type": "DT_FLOAT"}}}, {"name": "ConstantFolding/split_66-folded-14", "op": "Const", "attr": {"dtype": {"type": "DT_FLOAT"}, "value": {"tensor": {"dtype": "DT_FLOAT", "tensorShape": {"dim": [{"size": "5"}, {"size": "5"}, {"size": "1"}, {"size": "1"}]}}}}}, {"name": "ConstantFolding/split_66-folded-15", "op": "Const", "attr": {"dtype": {"type": "DT_FLOAT"}, "value": {"tensor": {"dtype": "DT_FLOAT", "tensorShape": {"dim": [{"size": "5"}, {"size": "5"}, {"size": "1"}, {"size": "1"}]}}}}}, {"name": "ConstantFolding/split_66-folded-16", "op": "Const", "attr": {"value": {"tensor": {"dtype": "DT_FLOAT", "tensorShape": {"dim": [{"size": "5"}, {"size": "5"}, {"size": "1"}, {"size": "1"}]}}}, "dtype": {"type": "DT_FLOAT"}}}, {"name": "ConstantFolding/split_66-folded-17", "op": "Const", "attr": {"value": {"tensor": {"dtype": "DT_FLOAT", "tensorShape": {"dim": [{"size": "5"}, {"size": "5"}, {"size": "1"}, {"size": "1"}]}}}, "dtype": {"type": "DT_FLOAT"}}}, {"name": "ConstantFolding/split_66-folded-18", "op": "Const", "attr": {"dtype": {"type": "DT_FLOAT"}, "value": {"tensor": {"dtype": "DT_FLOAT", "tensorShape": {"dim": [{"size": "5"}, {"size": "5"}, {"size": "1"}, {"size": "1"}]}}}}}, {"name": "ConstantFolding/split_66-folded-19", "op": "Const", "attr": {"dtype": {"type": "DT_FLOAT"}, "value": {"tensor": {"dtype": "DT_FLOAT", "tensorShape": {"dim": [{"size": "5"}, {"size": "5"}, {"size": "1"}, {"size": "1"}]}}}}}, {"name": "ConstantFolding/split_66-folded-20", "op": "Const", "attr": {"value": {"tensor": {"dtype": "DT_FLOAT", "tensorShape": {"dim": [{"size": "5"}, {"size": "5"}, {"size": "1"}, {"size": "1"}]}}}, "dtype": {"type": "DT_FLOAT"}}}, {"name": "ConstantFolding/split_66-folded-21", "op": "Const", "attr": {"value": {"tensor": {"dtype": "DT_FLOAT", "tensorShape": {"dim": [{"size": "5"}, {"size": "5"}, {"size": "1"}, {"size": "1"}]}}}, "dtype": {"type": "DT_FLOAT"}}}, {"name": "ConstantFolding/split_66-folded-22", "op": "Const", "attr": {"dtype": {"type": "DT_FLOAT"}, "value": {"tensor": {"dtype": "DT_FLOAT", "tensorShape": {"dim": [{"size": "5"}, {"size": "5"}, {"size": "1"}, {"size": "1"}]}}}}}, {"name": "ConstantFolding/split_66-folded-23", "op": "Const", "attr": {"dtype": {"type": "DT_FLOAT"}, "value": {"tensor": {"dtype": "DT_FLOAT", "tensorShape": {"dim": [{"size": "5"}, {"size": "5"}, {"size": "1"}, {"size": "1"}]}}}}}, {"name": "ConstantFolding/split_66-folded-24", "op": "Const", "attr": {"dtype": {"type": "DT_FLOAT"}, "value": {"tensor": {"dtype": "DT_FLOAT", "tensorShape": {"dim": [{"size": "5"}, {"size": "5"}, {"size": "1"}, {"size": "1"}]}}}}}, {"name": "ConstantFolding/split_66-folded-25", "op": "Const", "attr": {"value": {"tensor": {"dtype": "DT_FLOAT", "tensorShape": {"dim": [{"size": "5"}, {"size": "5"}, {"size": "1"}, {"size": "1"}]}}}, "dtype": {"type": "DT_FLOAT"}}}, {"name": "ConstantFolding/split_66-folded-26", "op": "Const", "attr": {"dtype": {"type": "DT_FLOAT"}, "value": {"tensor": {"dtype": "DT_FLOAT", "tensorShape": {"dim": [{"size": "5"}, {"size": "5"}, {"size": "1"}, {"size": "1"}]}}}}}, {"name": "ConstantFolding/split_66-folded-27", "op": "Const", "attr": {"dtype": {"type": "DT_FLOAT"}, "value": {"tensor": {"dtype": "DT_FLOAT", "tensorShape": {"dim": [{"size": "5"}, {"size": "5"}, {"size": "1"}, {"size": "1"}]}}}}}, {"name": "ConstantFolding/split_66-folded-28", "op": "Const", "attr": {"dtype": {"type": "DT_FLOAT"}, "value": {"tensor": {"dtype": "DT_FLOAT", "tensorShape": {"dim": [{"size": "5"}, {"size": "5"}, {"size": "1"}, {"size": "1"}]}}}}}, {"name": "ConstantFolding/split_66-folded-29", "op": "Const", "attr": {"dtype": {"type": "DT_FLOAT"}, "value": {"tensor": {"dtype": "DT_FLOAT", "tensorShape": {"dim": [{"size": "5"}, {"size": "5"}, {"size": "1"}, {"size": "1"}]}}}}}, {"name": "ConstantFolding/split_66-folded-30", "op": "Const", "attr": {"dtype": {"type": "DT_FLOAT"}, "value": {"tensor": {"dtype": "DT_FLOAT", "tensorShape": {"dim": [{"size": "5"}, {"size": "5"}, {"size": "1"}, {"size": "1"}]}}}}}, {"name": "ConstantFolding/split_66-folded-31", "op": "Const", "attr": {"dtype": {"type": "DT_FLOAT"}, "value": {"tensor": {"dtype": "DT_FLOAT", "tensorShape": {"dim": [{"size": "5"}, {"size": "5"}, {"size": "1"}, {"size": "1"}]}}}}}, {"name": "ConstantFolding/split_66-folded-32", "op": "Const", "attr": {"value": {"tensor": {"dtype": "DT_FLOAT", "tensorShape": {"dim": [{"size": "5"}, {"size": "5"}, {"size": "1"}, {"size": "1"}]}}}, "dtype": {"type": "DT_FLOAT"}}}, {"name": "ConstantFolding/split_66-folded-33", "op": "Const", "attr": {"dtype": {"type": "DT_FLOAT"}, "value": {"tensor": {"dtype": "DT_FLOAT", "tensorShape": {"dim": [{"size": "5"}, {"size": "5"}, {"size": "1"}, {"size": "1"}]}}}}}, {"name": "ConstantFolding/split_66-folded-34", "op": "Const", "attr": {"dtype": {"type": "DT_FLOAT"}, "value": {"tensor": {"dtype": "DT_FLOAT", "tensorShape": {"dim": [{"size": "5"}, {"size": "5"}, {"size": "1"}, {"size": "1"}]}}}}}, {"name": "ConstantFolding/split_66-folded-35", "op": "Const", "attr": {"value": {"tensor": {"dtype": "DT_FLOAT", "tensorShape": {"dim": [{"size": "5"}, {"size": "5"}, {"size": "1"}, {"size": "1"}]}}}, "dtype": {"type": "DT_FLOAT"}}}, {"name": "ConstantFolding/split_66-folded-36", "op": "Const", "attr": {"value": {"tensor": {"dtype": "DT_FLOAT", "tensorShape": {"dim": [{"size": "5"}, {"size": "5"}, {"size": "1"}, {"size": "1"}]}}}, "dtype": {"type": "DT_FLOAT"}}}, {"name": "ConstantFolding/split_66-folded-37", "op": "Const", "attr": {"value": {"tensor": {"dtype": "DT_FLOAT", "tensorShape": {"dim": [{"size": "5"}, {"size": "5"}, {"size": "1"}, {"size": "1"}]}}}, "dtype": {"type": "DT_FLOAT"}}}, {"name": "ConstantFolding/split_66-folded-38", "op": "Const", "attr": {"value": {"tensor": {"dtype": "DT_FLOAT", "tensorShape": {"dim": [{"size": "5"}, {"size": "5"}, {"size": "1"}, {"size": "1"}]}}}, "dtype": {"type": "DT_FLOAT"}}}, {"name": "ConstantFolding/split_66-folded-39", "op": "Const", "attr": {"value": {"tensor": {"dtype": "DT_FLOAT", "tensorShape": {"dim": [{"size": "5"}, {"size": "5"}, {"size": "1"}, {"size": "1"}]}}}, "dtype": {"type": "DT_FLOAT"}}}, {"name": "ConstantFolding/split_66-folded-40", "op": "Const", "attr": {"dtype": {"type": "DT_FLOAT"}, "value": {"tensor": {"dtype": "DT_FLOAT", "tensorShape": {"dim": [{"size": "5"}, {"size": "5"}, {"size": "1"}, {"size": "1"}]}}}}}, {"name": "ConstantFolding/split_66-folded-41", "op": "Const", "attr": {"dtype": {"type": "DT_FLOAT"}, "value": {"tensor": {"dtype": "DT_FLOAT", "tensorShape": {"dim": [{"size": "5"}, {"size": "5"}, {"size": "1"}, {"size": "1"}]}}}}}, {"name": "ConstantFolding/split_66-folded-42", "op": "Const", "attr": {"dtype": {"type": "DT_FLOAT"}, "value": {"tensor": {"dtype": "DT_FLOAT", "tensorShape": {"dim": [{"size": "5"}, {"size": "5"}, {"size": "1"}, {"size": "1"}]}}}}}, {"name": "ConstantFolding/split_66-folded-43", "op": "Const", "attr": {"dtype": {"type": "DT_FLOAT"}, "value": {"tensor": {"dtype": "DT_FLOAT", "tensorShape": {"dim": [{"size": "5"}, {"size": "5"}, {"size": "1"}, {"size": "1"}]}}}}}, {"name": "ConstantFolding/split_66-folded-44", "op": "Const", "attr": {"value": {"tensor": {"dtype": "DT_FLOAT", "tensorShape": {"dim": [{"size": "5"}, {"size": "5"}, {"size": "1"}, {"size": "1"}]}}}, "dtype": {"type": "DT_FLOAT"}}}, {"name": "ConstantFolding/split_66-folded-45", "op": "Const", "attr": {"dtype": {"type": "DT_FLOAT"}, "value": {"tensor": {"dtype": "DT_FLOAT", "tensorShape": {"dim": [{"size": "5"}, {"size": "5"}, {"size": "1"}, {"size": "1"}]}}}}}, {"name": "ConstantFolding/split_66-folded-46", "op": "Const", "attr": {"value": {"tensor": {"dtype": "DT_FLOAT", "tensorShape": {"dim": [{"size": "5"}, {"size": "5"}, {"size": "1"}, {"size": "1"}]}}}, "dtype": {"type": "DT_FLOAT"}}}, {"name": "ConstantFolding/split_66-folded-47", "op": "Const", "attr": {"dtype": {"type": "DT_FLOAT"}, "value": {"tensor": {"dtype": "DT_FLOAT", "tensorShape": {"dim": [{"size": "5"}, {"size": "5"}, {"size": "1"}, {"size": "1"}]}}}}}, {"name": "ConstantFolding/split_66-folded-48", "op": "Const", "attr": {"value": {"tensor": {"dtype": "DT_FLOAT", "tensorShape": {"dim": [{"size": "5"}, {"size": "5"}, {"size": "1"}, {"size": "1"}]}}}, "dtype": {"type": "DT_FLOAT"}}}, {"name": "ConstantFolding/split_66-folded-49", "op": "Const", "attr": {"dtype": {"type": "DT_FLOAT"}, "value": {"tensor": {"dtype": "DT_FLOAT", "tensorShape": {"dim": [{"size": "5"}, {"size": "5"}, {"size": "1"}, {"size": "1"}]}}}}}, {"name": "ConstantFolding/split_66-folded-50", "op": "Const", "attr": {"dtype": {"type": "DT_FLOAT"}, "value": {"tensor": {"dtype": "DT_FLOAT", "tensorShape": {"dim": [{"size": "5"}, {"size": "5"}, {"size": "1"}, {"size": "1"}]}}}}}, {"name": "ConstantFolding/split_66-folded-51", "op": "Const", "attr": {"value": {"tensor": {"dtype": "DT_FLOAT", "tensorShape": {"dim": [{"size": "5"}, {"size": "5"}, {"size": "1"}, {"size": "1"}]}}}, "dtype": {"type": "DT_FLOAT"}}}, {"name": "ConstantFolding/split_66-folded-52", "op": "Const", "attr": {"dtype": {"type": "DT_FLOAT"}, "value": {"tensor": {"dtype": "DT_FLOAT", "tensorShape": {"dim": [{"size": "5"}, {"size": "5"}, {"size": "1"}, {"size": "1"}]}}}}}, {"name": "ConstantFolding/split_66-folded-53", "op": "Const", "attr": {"dtype": {"type": "DT_FLOAT"}, "value": {"tensor": {"dtype": "DT_FLOAT", "tensorShape": {"dim": [{"size": "5"}, {"size": "5"}, {"size": "1"}, {"size": "1"}]}}}}}, {"name": "ConstantFolding/split_66-folded-54", "op": "Const", "attr": {"dtype": {"type": "DT_FLOAT"}, "value": {"tensor": {"dtype": "DT_FLOAT", "tensorShape": {"dim": [{"size": "5"}, {"size": "5"}, {"size": "1"}, {"size": "1"}]}}}}}, {"name": "ConstantFolding/split_66-folded-55", "op": "Const", "attr": {"value": {"tensor": {"dtype": "DT_FLOAT", "tensorShape": {"dim": [{"size": "5"}, {"size": "5"}, {"size": "1"}, {"size": "1"}]}}}, "dtype": {"type": "DT_FLOAT"}}}, {"name": "ConstantFolding/split_66-folded-56", "op": "Const", "attr": {"dtype": {"type": "DT_FLOAT"}, "value": {"tensor": {"dtype": "DT_FLOAT", "tensorShape": {"dim": [{"size": "5"}, {"size": "5"}, {"size": "1"}, {"size": "1"}]}}}}}, {"name": "ConstantFolding/split_66-folded-57", "op": "Const", "attr": {"dtype": {"type": "DT_FLOAT"}, "value": {"tensor": {"dtype": "DT_FLOAT", "tensorShape": {"dim": [{"size": "5"}, {"size": "5"}, {"size": "1"}, {"size": "1"}]}}}}}, {"name": "ConstantFolding/split_66-folded-58", "op": "Const", "attr": {"dtype": {"type": "DT_FLOAT"}, "value": {"tensor": {"dtype": "DT_FLOAT", "tensorShape": {"dim": [{"size": "5"}, {"size": "5"}, {"size": "1"}, {"size": "1"}]}}}}}, {"name": "ConstantFolding/split_66-folded-59", "op": "Const", "attr": {"dtype": {"type": "DT_FLOAT"}, "value": {"tensor": {"dtype": "DT_FLOAT", "tensorShape": {"dim": [{"size": "5"}, {"size": "5"}, {"size": "1"}, {"size": "1"}]}}}}}, {"name": "ConstantFolding/split_66-folded-60", "op": "Const", "attr": {"dtype": {"type": "DT_FLOAT"}, "value": {"tensor": {"dtype": "DT_FLOAT", "tensorShape": {"dim": [{"size": "5"}, {"size": "5"}, {"size": "1"}, {"size": "1"}]}}}}}, {"name": "ConstantFolding/split_66-folded-61", "op": "Const", "attr": {"dtype": {"type": "DT_FLOAT"}, "value": {"tensor": {"dtype": "DT_FLOAT", "tensorShape": {"dim": [{"size": "5"}, {"size": "5"}, {"size": "1"}, {"size": "1"}]}}}}}, {"name": "ConstantFolding/split_66-folded-62", "op": "Const", "attr": {"value": {"tensor": {"dtype": "DT_FLOAT", "tensorShape": {"dim": [{"size": "5"}, {"size": "5"}, {"size": "1"}, {"size": "1"}]}}}, "dtype": {"type": "DT_FLOAT"}}}, {"name": "ConstantFolding/split_66-folded-63", "op": "Const", "attr": {"value": {"tensor": {"dtype": "DT_FLOAT", "tensorShape": {"dim": [{"size": "5"}, {"size": "5"}, {"size": "1"}, {"size": "1"}]}}}, "dtype": {"type": "DT_FLOAT"}}}, {"name": "ConstantFolding/split_66-folded-64", "op": "Const", "attr": {"value": {"tensor": {"dtype": "DT_FLOAT", "tensorShape": {"dim": [{"size": "5"}, {"size": "5"}, {"size": "1"}, {"size": "1"}]}}}, "dtype": {"type": "DT_FLOAT"}}}, {"name": "ConstantFolding/split_66-folded-65", "op": "Const", "attr": {"dtype": {"type": "DT_FLOAT"}, "value": {"tensor": {"dtype": "DT_FLOAT", "tensorShape": {"dim": [{"size": "5"}, {"size": "5"}, {"size": "1"}, {"size": "1"}]}}}}}, {"name": "ConstantFolding/split_66-folded-66", "op": "Const", "attr": {"dtype": {"type": "DT_FLOAT"}, "value": {"tensor": {"dtype": "DT_FLOAT", "tensorShape": {"dim": [{"size": "5"}, {"size": "5"}, {"size": "1"}, {"size": "1"}]}}}}}, {"name": "ConstantFolding/split_66-folded-67", "op": "Const", "attr": {"dtype": {"type": "DT_FLOAT"}, "value": {"tensor": {"dtype": "DT_FLOAT", "tensorShape": {"dim": [{"size": "5"}, {"size": "5"}, {"size": "1"}, {"size": "1"}]}}}}}, {"name": "ConstantFolding/split_66-folded-68", "op": "Const", "attr": {"dtype": {"type": "DT_FLOAT"}, "value": {"tensor": {"dtype": "DT_FLOAT", "tensorShape": {"dim": [{"size": "5"}, {"size": "5"}, {"size": "1"}, {"size": "1"}]}}}}}, {"name": "ConstantFolding/split_66-folded-69", "op": "Const", "attr": {"dtype": {"type": "DT_FLOAT"}, "value": {"tensor": {"dtype": "DT_FLOAT", "tensorShape": {"dim": [{"size": "5"}, {"size": "5"}, {"size": "1"}, {"size": "1"}]}}}}}, {"name": "ConstantFolding/split_66-folded-70", "op": "Const", "attr": {"dtype": {"type": "DT_FLOAT"}, "value": {"tensor": {"dtype": "DT_FLOAT", "tensorShape": {"dim": [{"size": "5"}, {"size": "5"}, {"size": "1"}, {"size": "1"}]}}}}}, {"name": "ConstantFolding/split_66-folded-71", "op": "Const", "attr": {"value": {"tensor": {"dtype": "DT_FLOAT", "tensorShape": {"dim": [{"size": "5"}, {"size": "5"}, {"size": "1"}, {"size": "1"}]}}}, "dtype": {"type": "DT_FLOAT"}}}, {"name": "ConstantFolding/split_66-folded-72", "op": "Const", "attr": {"value": {"tensor": {"dtype": "DT_FLOAT", "tensorShape": {"dim": [{"size": "5"}, {"size": "5"}, {"size": "1"}, {"size": "1"}]}}}, "dtype": {"type": "DT_FLOAT"}}}, {"name": "ConstantFolding/split_66-folded-73", "op": "Const", "attr": {"dtype": {"type": "DT_FLOAT"}, "value": {"tensor": {"dtype": "DT_FLOAT", "tensorShape": {"dim": [{"size": "5"}, {"size": "5"}, {"size": "1"}, {"size": "1"}]}}}}}, {"name": "ConstantFolding/split_66-folded-74", "op": "Const", "attr": {"value": {"tensor": {"dtype": "DT_FLOAT", "tensorShape": {"dim": [{"size": "5"}, {"size": "5"}, {"size": "1"}, {"size": "1"}]}}}, "dtype": {"type": "DT_FLOAT"}}}, {"name": "ConstantFolding/split_66-folded-75", "op": "Const", "attr": {"dtype": {"type": "DT_FLOAT"}, "value": {"tensor": {"dtype": "DT_FLOAT", "tensorShape": {"dim": [{"size": "5"}, {"size": "5"}, {"size": "1"}, {"size": "1"}]}}}}}, {"name": "ConstantFolding/split_66-folded-76", "op": "Const", "attr": {"dtype": {"type": "DT_FLOAT"}, "value": {"tensor": {"dtype": "DT_FLOAT", "tensorShape": {"dim": [{"size": "5"}, {"size": "5"}, {"size": "1"}, {"size": "1"}]}}}}}, {"name": "ConstantFolding/split_66-folded-77", "op": "Const", "attr": {"dtype": {"type": "DT_FLOAT"}, "value": {"tensor": {"dtype": "DT_FLOAT", "tensorShape": {"dim": [{"size": "5"}, {"size": "5"}, {"size": "1"}, {"size": "1"}]}}}}}, {"name": "ConstantFolding/split_66-folded-78", "op": "Const", "attr": {"dtype": {"type": "DT_FLOAT"}, "value": {"tensor": {"dtype": "DT_FLOAT", "tensorShape": {"dim": [{"size": "5"}, {"size": "5"}, {"size": "1"}, {"size": "1"}]}}}}}, {"name": "ConstantFolding/split_66-folded-79", "op": "Const", "attr": {"dtype": {"type": "DT_FLOAT"}, "value": {"tensor": {"dtype": "DT_FLOAT", "tensorShape": {"dim": [{"size": "5"}, {"size": "5"}, {"size": "1"}, {"size": "1"}]}}}}}, {"name": "ConstantFolding/split_66-folded-80", "op": "Const", "attr": {"dtype": {"type": "DT_FLOAT"}, "value": {"tensor": {"dtype": "DT_FLOAT", "tensorShape": {"dim": [{"size": "5"}, {"size": "5"}, {"size": "1"}, {"size": "1"}]}}}}}, {"name": "ConstantFolding/split_66-folded-81", "op": "Const", "attr": {"value": {"tensor": {"dtype": "DT_FLOAT", "tensorShape": {"dim": [{"size": "5"}, {"size": "5"}, {"size": "1"}, {"size": "1"}]}}}, "dtype": {"type": "DT_FLOAT"}}}, {"name": "ConstantFolding/split_66-folded-82", "op": "Const", "attr": {"value": {"tensor": {"dtype": "DT_FLOAT", "tensorShape": {"dim": [{"size": "5"}, {"size": "5"}, {"size": "1"}, {"size": "1"}]}}}, "dtype": {"type": "DT_FLOAT"}}}, {"name": "ConstantFolding/split_66-folded-83", "op": "Const", "attr": {"value": {"tensor": {"dtype": "DT_FLOAT", "tensorShape": {"dim": [{"size": "5"}, {"size": "5"}, {"size": "1"}, {"size": "1"}]}}}, "dtype": {"type": "DT_FLOAT"}}}, {"name": "ConstantFolding/split_66-folded-84", "op": "Const", "attr": {"value": {"tensor": {"dtype": "DT_FLOAT", "tensorShape": {"dim": [{"size": "5"}, {"size": "5"}, {"size": "1"}, {"size": "1"}]}}}, "dtype": {"type": "DT_FLOAT"}}}, {"name": "ConstantFolding/split_66-folded-85", "op": "Const", "attr": {"dtype": {"type": "DT_FLOAT"}, "value": {"tensor": {"dtype": "DT_FLOAT", "tensorShape": {"dim": [{"size": "5"}, {"size": "5"}, {"size": "1"}, {"size": "1"}]}}}}}, {"name": "ConstantFolding/split_66-folded-86", "op": "Const", "attr": {"dtype": {"type": "DT_FLOAT"}, "value": {"tensor": {"dtype": "DT_FLOAT", "tensorShape": {"dim": [{"size": "5"}, {"size": "5"}, {"size": "1"}, {"size": "1"}]}}}}}, {"name": "ConstantFolding/split_66-folded-87", "op": "Const", "attr": {"value": {"tensor": {"dtype": "DT_FLOAT", "tensorShape": {"dim": [{"size": "5"}, {"size": "5"}, {"size": "1"}, {"size": "1"}]}}}, "dtype": {"type": "DT_FLOAT"}}}, {"name": "ConstantFolding/split_66-folded-88", "op": "Const", "attr": {"dtype": {"type": "DT_FLOAT"}, "value": {"tensor": {"dtype": "DT_FLOAT", "tensorShape": {"dim": [{"size": "5"}, {"size": "5"}, {"size": "1"}, {"size": "1"}]}}}}}, {"name": "ConstantFolding/split_66-folded-89", "op": "Const", "attr": {"dtype": {"type": "DT_FLOAT"}, "value": {"tensor": {"dtype": "DT_FLOAT", "tensorShape": {"dim": [{"size": "5"}, {"size": "5"}, {"size": "1"}, {"size": "1"}]}}}}}, {"name": "ConstantFolding/split_66-folded-90", "op": "Const", "attr": {"dtype": {"type": "DT_FLOAT"}, "value": {"tensor": {"dtype": "DT_FLOAT", "tensorShape": {"dim": [{"size": "5"}, {"size": "5"}, {"size": "1"}, {"size": "1"}]}}}}}, {"name": "ConstantFolding/split_66-folded-91", "op": "Const", "attr": {"value": {"tensor": {"dtype": "DT_FLOAT", "tensorShape": {"dim": [{"size": "5"}, {"size": "5"}, {"size": "1"}, {"size": "1"}]}}}, "dtype": {"type": "DT_FLOAT"}}}, {"name": "ConstantFolding/split_66-folded-92", "op": "Const", "attr": {"dtype": {"type": "DT_FLOAT"}, "value": {"tensor": {"dtype": "DT_FLOAT", "tensorShape": {"dim": [{"size": "5"}, {"size": "5"}, {"size": "1"}, {"size": "1"}]}}}}}, {"name": "ConstantFolding/split_66-folded-93", "op": "Const", "attr": {"value": {"tensor": {"dtype": "DT_FLOAT", "tensorShape": {"dim": [{"size": "5"}, {"size": "5"}, {"size": "1"}, {"size": "1"}]}}}, "dtype": {"type": "DT_FLOAT"}}}, {"name": "ConstantFolding/split_66-folded-94", "op": "Const", "attr": {"value": {"tensor": {"dtype": "DT_FLOAT", "tensorShape": {"dim": [{"size": "5"}, {"size": "5"}, {"size": "1"}, {"size": "1"}]}}}, "dtype": {"type": "DT_FLOAT"}}}, {"name": "ConstantFolding/split_66-folded-95", "op": "Const", "attr": {"value": {"tensor": {"dtype": "DT_FLOAT", "tensorShape": {"dim": [{"size": "5"}, {"size": "5"}, {"size": "1"}, {"size": "1"}]}}}, "dtype": {"type": "DT_FLOAT"}}}, {"name": "ConstantFolding/split_66-folded-96", "op": "Const", "attr": {"dtype": {"type": "DT_FLOAT"}, "value": {"tensor": {"dtype": "DT_FLOAT", "tensorShape": {"dim": [{"size": "5"}, {"size": "5"}, {"size": "1"}, {"size": "1"}]}}}}}, {"name": "ConstantFolding/split_66-folded-97", "op": "Const", "attr": {"dtype": {"type": "DT_FLOAT"}, "value": {"tensor": {"dtype": "DT_FLOAT", "tensorShape": {"dim": [{"size": "5"}, {"size": "5"}, {"size": "1"}, {"size": "1"}]}}}}}, {"name": "ConstantFolding/split_66-folded-98", "op": "Const", "attr": {"dtype": {"type": "DT_FLOAT"}, "value": {"tensor": {"dtype": "DT_FLOAT", "tensorShape": {"dim": [{"size": "5"}, {"size": "5"}, {"size": "1"}, {"size": "1"}]}}}}}, {"name": "ConstantFolding/split_66-folded-99", "op": "Const", "attr": {"value": {"tensor": {"dtype": "DT_FLOAT", "tensorShape": {"dim": [{"size": "5"}, {"size": "5"}, {"size": "1"}, {"size": "1"}]}}}, "dtype": {"type": "DT_FLOAT"}}}, {"name": "ConstantFolding/split_66-folded-100", "op": "Const", "attr": {"value": {"tensor": {"dtype": "DT_FLOAT", "tensorShape": {"dim": [{"size": "5"}, {"size": "5"}, {"size": "1"}, {"size": "1"}]}}}, "dtype": {"type": "DT_FLOAT"}}}, {"name": "ConstantFolding/split_66-folded-101", "op": "Const", "attr": {"dtype": {"type": "DT_FLOAT"}, "value": {"tensor": {"dtype": "DT_FLOAT", "tensorShape": {"dim": [{"size": "5"}, {"size": "5"}, {"size": "1"}, {"size": "1"}]}}}}}, {"name": "ConstantFolding/split_66-folded-102", "op": "Const", "attr": {"dtype": {"type": "DT_FLOAT"}, "value": {"tensor": {"dtype": "DT_FLOAT", "tensorShape": {"dim": [{"size": "5"}, {"size": "5"}, {"size": "1"}, {"size": "1"}]}}}}}, {"name": "ConstantFolding/split_66-folded-103", "op": "Const", "attr": {"dtype": {"type": "DT_FLOAT"}, "value": {"tensor": {"dtype": "DT_FLOAT", "tensorShape": {"dim": [{"size": "5"}, {"size": "5"}, {"size": "1"}, {"size": "1"}]}}}}}, {"name": "ConstantFolding/split_66-folded-104", "op": "Const", "attr": {"dtype": {"type": "DT_FLOAT"}, "value": {"tensor": {"dtype": "DT_FLOAT", "tensorShape": {"dim": [{"size": "5"}, {"size": "5"}, {"size": "1"}, {"size": "1"}]}}}}}, {"name": "ConstantFolding/split_66-folded-105", "op": "Const", "attr": {"dtype": {"type": "DT_FLOAT"}, "value": {"tensor": {"dtype": "DT_FLOAT", "tensorShape": {"dim": [{"size": "5"}, {"size": "5"}, {"size": "1"}, {"size": "1"}]}}}}}, {"name": "ConstantFolding/split_66-folded-106", "op": "Const", "attr": {"dtype": {"type": "DT_FLOAT"}, "value": {"tensor": {"dtype": "DT_FLOAT", "tensorShape": {"dim": [{"size": "5"}, {"size": "5"}, {"size": "1"}, {"size": "1"}]}}}}}, {"name": "ConstantFolding/split_66-folded-107", "op": "Const", "attr": {"value": {"tensor": {"dtype": "DT_FLOAT", "tensorShape": {"dim": [{"size": "5"}, {"size": "5"}, {"size": "1"}, {"size": "1"}]}}}, "dtype": {"type": "DT_FLOAT"}}}, {"name": "ConstantFolding/split_66-folded-108", "op": "Const", "attr": {"dtype": {"type": "DT_FLOAT"}, "value": {"tensor": {"dtype": "DT_FLOAT", "tensorShape": {"dim": [{"size": "5"}, {"size": "5"}, {"size": "1"}, {"size": "1"}]}}}}}, {"name": "ConstantFolding/split_66-folded-109", "op": "Const", "attr": {"dtype": {"type": "DT_FLOAT"}, "value": {"tensor": {"dtype": "DT_FLOAT", "tensorShape": {"dim": [{"size": "5"}, {"size": "5"}, {"size": "1"}, {"size": "1"}]}}}}}, {"name": "ConstantFolding/split_66-folded-110", "op": "Const", "attr": {"value": {"tensor": {"dtype": "DT_FLOAT", "tensorShape": {"dim": [{"size": "5"}, {"size": "5"}, {"size": "1"}, {"size": "1"}]}}}, "dtype": {"type": "DT_FLOAT"}}}, {"name": "ConstantFolding/split_66-folded-111", "op": "Const", "attr": {"dtype": {"type": "DT_FLOAT"}, "value": {"tensor": {"dtype": "DT_FLOAT", "tensorShape": {"dim": [{"size": "5"}, {"size": "5"}, {"size": "1"}, {"size": "1"}]}}}}}, {"name": "ConstantFolding/split_66-folded-112", "op": "Const", "attr": {"dtype": {"type": "DT_FLOAT"}, "value": {"tensor": {"dtype": "DT_FLOAT", "tensorShape": {"dim": [{"size": "5"}, {"size": "5"}, {"size": "1"}, {"size": "1"}]}}}}}, {"name": "ConstantFolding/split_66-folded-113", "op": "Const", "attr": {"value": {"tensor": {"dtype": "DT_FLOAT", "tensorShape": {"dim": [{"size": "5"}, {"size": "5"}, {"size": "1"}, {"size": "1"}]}}}, "dtype": {"type": "DT_FLOAT"}}}, {"name": "ConstantFolding/split_66-folded-114", "op": "Const", "attr": {"dtype": {"type": "DT_FLOAT"}, "value": {"tensor": {"dtype": "DT_FLOAT", "tensorShape": {"dim": [{"size": "5"}, {"size": "5"}, {"size": "1"}, {"size": "1"}]}}}}}, {"name": "ConstantFolding/split_66-folded-115", "op": "Const", "attr": {"dtype": {"type": "DT_FLOAT"}, "value": {"tensor": {"dtype": "DT_FLOAT", "tensorShape": {"dim": [{"size": "5"}, {"size": "5"}, {"size": "1"}, {"size": "1"}]}}}}}, {"name": "ConstantFolding/split_66-folded-116", "op": "Const", "attr": {"dtype": {"type": "DT_FLOAT"}, "value": {"tensor": {"dtype": "DT_FLOAT", "tensorShape": {"dim": [{"size": "5"}, {"size": "5"}, {"size": "1"}, {"size": "1"}]}}}}}, {"name": "ConstantFolding/split_66-folded-117", "op": "Const", "attr": {"dtype": {"type": "DT_FLOAT"}, "value": {"tensor": {"dtype": "DT_FLOAT", "tensorShape": {"dim": [{"size": "5"}, {"size": "5"}, {"size": "1"}, {"size": "1"}]}}}}}, {"name": "ConstantFolding/split_66-folded-118", "op": "Const", "attr": {"dtype": {"type": "DT_FLOAT"}, "value": {"tensor": {"dtype": "DT_FLOAT", "tensorShape": {"dim": [{"size": "5"}, {"size": "5"}, {"size": "1"}, {"size": "1"}]}}}}}, {"name": "BatchNormalization_152/mul", "op": "Const", "attr": {"dtype": {"type": "DT_FLOAT"}, "value": {"tensor": {"dtype": "DT_FLOAT", "tensorShape": {"dim": [{"size": "1"}, {"size": "120"}, {"size": "1"}, {"size": "1"}]}}}}}, {"name": "BatchNormalization_149/mul", "op": "Const", "attr": {"value": {"tensor": {"dtype": "DT_FLOAT", "tensorShape": {"dim": [{"size": "1"}, {"size": "256"}, {"size": "1"}, {"size": "1"}]}}}, "dtype": {"type": "DT_FLOAT"}}}, {"name": "ConstantFolding/split_62-folded-0", "op": "Const", "attr": {"value": {"tensor": {"dtype": "DT_FLOAT", "tensorShape": {"dim": [{"size": "5"}, {"size": "5"}, {"size": "1"}, {"size": "1"}]}}}, "dtype": {"type": "DT_FLOAT"}}}, {"name": "ConstantFolding/split_62-folded-1", "op": "Const", "attr": {"value": {"tensor": {"dtype": "DT_FLOAT", "tensorShape": {"dim": [{"size": "5"}, {"size": "5"}, {"size": "1"}, {"size": "1"}]}}}, "dtype": {"type": "DT_FLOAT"}}}, {"name": "ConstantFolding/split_62-folded-2", "op": "Const", "attr": {"dtype": {"type": "DT_FLOAT"}, "value": {"tensor": {"dtype": "DT_FLOAT", "tensorShape": {"dim": [{"size": "5"}, {"size": "5"}, {"size": "1"}, {"size": "1"}]}}}}}, {"name": "ConstantFolding/split_62-folded-3", "op": "Const", "attr": {"value": {"tensor": {"dtype": "DT_FLOAT", "tensorShape": {"dim": [{"size": "5"}, {"size": "5"}, {"size": "1"}, {"size": "1"}]}}}, "dtype": {"type": "DT_FLOAT"}}}, {"name": "ConstantFolding/split_62-folded-4", "op": "Const", "attr": {"dtype": {"type": "DT_FLOAT"}, "value": {"tensor": {"dtype": "DT_FLOAT", "tensorShape": {"dim": [{"size": "5"}, {"size": "5"}, {"size": "1"}, {"size": "1"}]}}}}}, {"name": "ConstantFolding/split_62-folded-5", "op": "Const", "attr": {"value": {"tensor": {"dtype": "DT_FLOAT", "tensorShape": {"dim": [{"size": "5"}, {"size": "5"}, {"size": "1"}, {"size": "1"}]}}}, "dtype": {"type": "DT_FLOAT"}}}, {"name": "ConstantFolding/split_62-folded-6", "op": "Const", "attr": {"value": {"tensor": {"dtype": "DT_FLOAT", "tensorShape": {"dim": [{"size": "5"}, {"size": "5"}, {"size": "1"}, {"size": "1"}]}}}, "dtype": {"type": "DT_FLOAT"}}}, {"name": "ConstantFolding/split_62-folded-7", "op": "Const", "attr": {"value": {"tensor": {"dtype": "DT_FLOAT", "tensorShape": {"dim": [{"size": "5"}, {"size": "5"}, {"size": "1"}, {"size": "1"}]}}}, "dtype": {"type": "DT_FLOAT"}}}, {"name": "ConstantFolding/split_62-folded-8", "op": "Const", "attr": {"dtype": {"type": "DT_FLOAT"}, "value": {"tensor": {"dtype": "DT_FLOAT", "tensorShape": {"dim": [{"size": "5"}, {"size": "5"}, {"size": "1"}, {"size": "1"}]}}}}}, {"name": "ConstantFolding/split_62-folded-9", "op": "Const", "attr": {"value": {"tensor": {"dtype": "DT_FLOAT", "tensorShape": {"dim": [{"size": "5"}, {"size": "5"}, {"size": "1"}, {"size": "1"}]}}}, "dtype": {"type": "DT_FLOAT"}}}, {"name": "ConstantFolding/split_62-folded-10", "op": "Const", "attr": {"value": {"tensor": {"dtype": "DT_FLOAT", "tensorShape": {"dim": [{"size": "5"}, {"size": "5"}, {"size": "1"}, {"size": "1"}]}}}, "dtype": {"type": "DT_FLOAT"}}}, {"name": "ConstantFolding/split_62-folded-11", "op": "Const", "attr": {"value": {"tensor": {"dtype": "DT_FLOAT", "tensorShape": {"dim": [{"size": "5"}, {"size": "5"}, {"size": "1"}, {"size": "1"}]}}}, "dtype": {"type": "DT_FLOAT"}}}, {"name": "ConstantFolding/split_62-folded-12", "op": "Const", "attr": {"value": {"tensor": {"dtype": "DT_FLOAT", "tensorShape": {"dim": [{"size": "5"}, {"size": "5"}, {"size": "1"}, {"size": "1"}]}}}, "dtype": {"type": "DT_FLOAT"}}}, {"name": "ConstantFolding/split_62-folded-13", "op": "Const", "attr": {"dtype": {"type": "DT_FLOAT"}, "value": {"tensor": {"dtype": "DT_FLOAT", "tensorShape": {"dim": [{"size": "5"}, {"size": "5"}, {"size": "1"}, {"size": "1"}]}}}}}, {"name": "ConstantFolding/split_62-folded-14", "op": "Const", "attr": {"dtype": {"type": "DT_FLOAT"}, "value": {"tensor": {"dtype": "DT_FLOAT", "tensorShape": {"dim": [{"size": "5"}, {"size": "5"}, {"size": "1"}, {"size": "1"}]}}}}}, {"name": "ConstantFolding/split_62-folded-15", "op": "Const", "attr": {"dtype": {"type": "DT_FLOAT"}, "value": {"tensor": {"dtype": "DT_FLOAT", "tensorShape": {"dim": [{"size": "5"}, {"size": "5"}, {"size": "1"}, {"size": "1"}]}}}}}, {"name": "ConstantFolding/split_62-folded-16", "op": "Const", "attr": {"value": {"tensor": {"dtype": "DT_FLOAT", "tensorShape": {"dim": [{"size": "5"}, {"size": "5"}, {"size": "1"}, {"size": "1"}]}}}, "dtype": {"type": "DT_FLOAT"}}}, {"name": "ConstantFolding/split_62-folded-17", "op": "Const", "attr": {"value": {"tensor": {"dtype": "DT_FLOAT", "tensorShape": {"dim": [{"size": "5"}, {"size": "5"}, {"size": "1"}, {"size": "1"}]}}}, "dtype": {"type": "DT_FLOAT"}}}, {"name": "ConstantFolding/split_62-folded-18", "op": "Const", "attr": {"value": {"tensor": {"dtype": "DT_FLOAT", "tensorShape": {"dim": [{"size": "5"}, {"size": "5"}, {"size": "1"}, {"size": "1"}]}}}, "dtype": {"type": "DT_FLOAT"}}}, {"name": "ConstantFolding/split_62-folded-19", "op": "Const", "attr": {"dtype": {"type": "DT_FLOAT"}, "value": {"tensor": {"dtype": "DT_FLOAT", "tensorShape": {"dim": [{"size": "5"}, {"size": "5"}, {"size": "1"}, {"size": "1"}]}}}}}, {"name": "ConstantFolding/split_62-folded-20", "op": "Const", "attr": {"dtype": {"type": "DT_FLOAT"}, "value": {"tensor": {"dtype": "DT_FLOAT", "tensorShape": {"dim": [{"size": "5"}, {"size": "5"}, {"size": "1"}, {"size": "1"}]}}}}}, {"name": "ConstantFolding/split_62-folded-21", "op": "Const", "attr": {"value": {"tensor": {"dtype": "DT_FLOAT", "tensorShape": {"dim": [{"size": "5"}, {"size": "5"}, {"size": "1"}, {"size": "1"}]}}}, "dtype": {"type": "DT_FLOAT"}}}, {"name": "ConstantFolding/split_62-folded-22", "op": "Const", "attr": {"value": {"tensor": {"dtype": "DT_FLOAT", "tensorShape": {"dim": [{"size": "5"}, {"size": "5"}, {"size": "1"}, {"size": "1"}]}}}, "dtype": {"type": "DT_FLOAT"}}}, {"name": "ConstantFolding/split_62-folded-23", "op": "Const", "attr": {"dtype": {"type": "DT_FLOAT"}, "value": {"tensor": {"dtype": "DT_FLOAT", "tensorShape": {"dim": [{"size": "5"}, {"size": "5"}, {"size": "1"}, {"size": "1"}]}}}}}, {"name": "ConstantFolding/split_62-folded-24", "op": "Const", "attr": {"dtype": {"type": "DT_FLOAT"}, "value": {"tensor": {"dtype": "DT_FLOAT", "tensorShape": {"dim": [{"size": "5"}, {"size": "5"}, {"size": "1"}, {"size": "1"}]}}}}}, {"name": "ConstantFolding/split_62-folded-25", "op": "Const", "attr": {"dtype": {"type": "DT_FLOAT"}, "value": {"tensor": {"dtype": "DT_FLOAT", "tensorShape": {"dim": [{"size": "5"}, {"size": "5"}, {"size": "1"}, {"size": "1"}]}}}}}, {"name": "ConstantFolding/split_62-folded-26", "op": "Const", "attr": {"dtype": {"type": "DT_FLOAT"}, "value": {"tensor": {"dtype": "DT_FLOAT", "tensorShape": {"dim": [{"size": "5"}, {"size": "5"}, {"size": "1"}, {"size": "1"}]}}}}}, {"name": "ConstantFolding/split_62-folded-27", "op": "Const", "attr": {"value": {"tensor": {"dtype": "DT_FLOAT", "tensorShape": {"dim": [{"size": "5"}, {"size": "5"}, {"size": "1"}, {"size": "1"}]}}}, "dtype": {"type": "DT_FLOAT"}}}, {"name": "ConstantFolding/split_62-folded-28", "op": "Const", "attr": {"dtype": {"type": "DT_FLOAT"}, "value": {"tensor": {"dtype": "DT_FLOAT", "tensorShape": {"dim": [{"size": "5"}, {"size": "5"}, {"size": "1"}, {"size": "1"}]}}}}}, {"name": "ConstantFolding/split_62-folded-29", "op": "Const", "attr": {"dtype": {"type": "DT_FLOAT"}, "value": {"tensor": {"dtype": "DT_FLOAT", "tensorShape": {"dim": [{"size": "5"}, {"size": "5"}, {"size": "1"}, {"size": "1"}]}}}}}, {"name": "ConstantFolding/split_62-folded-30", "op": "Const", "attr": {"value": {"tensor": {"dtype": "DT_FLOAT", "tensorShape": {"dim": [{"size": "5"}, {"size": "5"}, {"size": "1"}, {"size": "1"}]}}}, "dtype": {"type": "DT_FLOAT"}}}, {"name": "ConstantFolding/split_62-folded-31", "op": "Const", "attr": {"dtype": {"type": "DT_FLOAT"}, "value": {"tensor": {"dtype": "DT_FLOAT", "tensorShape": {"dim": [{"size": "5"}, {"size": "5"}, {"size": "1"}, {"size": "1"}]}}}}}, {"name": "ConstantFolding/split_62-folded-32", "op": "Const", "attr": {"dtype": {"type": "DT_FLOAT"}, "value": {"tensor": {"dtype": "DT_FLOAT", "tensorShape": {"dim": [{"size": "5"}, {"size": "5"}, {"size": "1"}, {"size": "1"}]}}}}}, {"name": "ConstantFolding/split_62-folded-33", "op": "Const", "attr": {"value": {"tensor": {"dtype": "DT_FLOAT", "tensorShape": {"dim": [{"size": "5"}, {"size": "5"}, {"size": "1"}, {"size": "1"}]}}}, "dtype": {"type": "DT_FLOAT"}}}, {"name": "ConstantFolding/split_62-folded-34", "op": "Const", "attr": {"dtype": {"type": "DT_FLOAT"}, "value": {"tensor": {"dtype": "DT_FLOAT", "tensorShape": {"dim": [{"size": "5"}, {"size": "5"}, {"size": "1"}, {"size": "1"}]}}}}}, {"name": "ConstantFolding/split_62-folded-35", "op": "Const", "attr": {"dtype": {"type": "DT_FLOAT"}, "value": {"tensor": {"dtype": "DT_FLOAT", "tensorShape": {"dim": [{"size": "5"}, {"size": "5"}, {"size": "1"}, {"size": "1"}]}}}}}, {"name": "ConstantFolding/split_62-folded-36", "op": "Const", "attr": {"dtype": {"type": "DT_FLOAT"}, "value": {"tensor": {"dtype": "DT_FLOAT", "tensorShape": {"dim": [{"size": "5"}, {"size": "5"}, {"size": "1"}, {"size": "1"}]}}}}}, {"name": "ConstantFolding/split_62-folded-37", "op": "Const", "attr": {"dtype": {"type": "DT_FLOAT"}, "value": {"tensor": {"dtype": "DT_FLOAT", "tensorShape": {"dim": [{"size": "5"}, {"size": "5"}, {"size": "1"}, {"size": "1"}]}}}}}, {"name": "ConstantFolding/split_62-folded-38", "op": "Const", "attr": {"dtype": {"type": "DT_FLOAT"}, "value": {"tensor": {"dtype": "DT_FLOAT", "tensorShape": {"dim": [{"size": "5"}, {"size": "5"}, {"size": "1"}, {"size": "1"}]}}}}}, {"name": "ConstantFolding/split_62-folded-39", "op": "Const", "attr": {"dtype": {"type": "DT_FLOAT"}, "value": {"tensor": {"dtype": "DT_FLOAT", "tensorShape": {"dim": [{"size": "5"}, {"size": "5"}, {"size": "1"}, {"size": "1"}]}}}}}, {"name": "ConstantFolding/split_62-folded-40", "op": "Const", "attr": {"value": {"tensor": {"dtype": "DT_FLOAT", "tensorShape": {"dim": [{"size": "5"}, {"size": "5"}, {"size": "1"}, {"size": "1"}]}}}, "dtype": {"type": "DT_FLOAT"}}}, {"name": "ConstantFolding/split_62-folded-41", "op": "Const", "attr": {"dtype": {"type": "DT_FLOAT"}, "value": {"tensor": {"dtype": "DT_FLOAT", "tensorShape": {"dim": [{"size": "5"}, {"size": "5"}, {"size": "1"}, {"size": "1"}]}}}}}, {"name": "ConstantFolding/split_62-folded-42", "op": "Const", "attr": {"dtype": {"type": "DT_FLOAT"}, "value": {"tensor": {"dtype": "DT_FLOAT", "tensorShape": {"dim": [{"size": "5"}, {"size": "5"}, {"size": "1"}, {"size": "1"}]}}}}}, {"name": "ConstantFolding/split_62-folded-43", "op": "Const", "attr": {"dtype": {"type": "DT_FLOAT"}, "value": {"tensor": {"dtype": "DT_FLOAT", "tensorShape": {"dim": [{"size": "5"}, {"size": "5"}, {"size": "1"}, {"size": "1"}]}}}}}, {"name": "ConstantFolding/split_62-folded-44", "op": "Const", "attr": {"value": {"tensor": {"dtype": "DT_FLOAT", "tensorShape": {"dim": [{"size": "5"}, {"size": "5"}, {"size": "1"}, {"size": "1"}]}}}, "dtype": {"type": "DT_FLOAT"}}}, {"name": "ConstantFolding/split_62-folded-45", "op": "Const", "attr": {"dtype": {"type": "DT_FLOAT"}, "value": {"tensor": {"dtype": "DT_FLOAT", "tensorShape": {"dim": [{"size": "5"}, {"size": "5"}, {"size": "1"}, {"size": "1"}]}}}}}, {"name": "ConstantFolding/split_62-folded-46", "op": "Const", "attr": {"dtype": {"type": "DT_FLOAT"}, "value": {"tensor": {"dtype": "DT_FLOAT", "tensorShape": {"dim": [{"size": "5"}, {"size": "5"}, {"size": "1"}, {"size": "1"}]}}}}}, {"name": "ConstantFolding/split_62-folded-47", "op": "Const", "attr": {"dtype": {"type": "DT_FLOAT"}, "value": {"tensor": {"dtype": "DT_FLOAT", "tensorShape": {"dim": [{"size": "5"}, {"size": "5"}, {"size": "1"}, {"size": "1"}]}}}}}, {"name": "ConstantFolding/split_62-folded-48", "op": "Const", "attr": {"dtype": {"type": "DT_FLOAT"}, "value": {"tensor": {"dtype": "DT_FLOAT", "tensorShape": {"dim": [{"size": "5"}, {"size": "5"}, {"size": "1"}, {"size": "1"}]}}}}}, {"name": "ConstantFolding/split_62-folded-49", "op": "Const", "attr": {"value": {"tensor": {"dtype": "DT_FLOAT", "tensorShape": {"dim": [{"size": "5"}, {"size": "5"}, {"size": "1"}, {"size": "1"}]}}}, "dtype": {"type": "DT_FLOAT"}}}, {"name": "ConstantFolding/split_62-folded-50", "op": "Const", "attr": {"value": {"tensor": {"dtype": "DT_FLOAT", "tensorShape": {"dim": [{"size": "5"}, {"size": "5"}, {"size": "1"}, {"size": "1"}]}}}, "dtype": {"type": "DT_FLOAT"}}}, {"name": "ConstantFolding/split_62-folded-51", "op": "Const", "attr": {"dtype": {"type": "DT_FLOAT"}, "value": {"tensor": {"dtype": "DT_FLOAT", "tensorShape": {"dim": [{"size": "5"}, {"size": "5"}, {"size": "1"}, {"size": "1"}]}}}}}, {"name": "ConstantFolding/split_62-folded-52", "op": "Const", "attr": {"dtype": {"type": "DT_FLOAT"}, "value": {"tensor": {"dtype": "DT_FLOAT", "tensorShape": {"dim": [{"size": "5"}, {"size": "5"}, {"size": "1"}, {"size": "1"}]}}}}}, {"name": "ConstantFolding/split_62-folded-53", "op": "Const", "attr": {"value": {"tensor": {"dtype": "DT_FLOAT", "tensorShape": {"dim": [{"size": "5"}, {"size": "5"}, {"size": "1"}, {"size": "1"}]}}}, "dtype": {"type": "DT_FLOAT"}}}, {"name": "ConstantFolding/split_62-folded-54", "op": "Const", "attr": {"dtype": {"type": "DT_FLOAT"}, "value": {"tensor": {"dtype": "DT_FLOAT", "tensorShape": {"dim": [{"size": "5"}, {"size": "5"}, {"size": "1"}, {"size": "1"}]}}}}}, {"name": "ConstantFolding/split_62-folded-55", "op": "Const", "attr": {"value": {"tensor": {"dtype": "DT_FLOAT", "tensorShape": {"dim": [{"size": "5"}, {"size": "5"}, {"size": "1"}, {"size": "1"}]}}}, "dtype": {"type": "DT_FLOAT"}}}, {"name": "ConstantFolding/split_62-folded-56", "op": "Const", "attr": {"value": {"tensor": {"dtype": "DT_FLOAT", "tensorShape": {"dim": [{"size": "5"}, {"size": "5"}, {"size": "1"}, {"size": "1"}]}}}, "dtype": {"type": "DT_FLOAT"}}}, {"name": "ConstantFolding/split_62-folded-57", "op": "Const", "attr": {"value": {"tensor": {"dtype": "DT_FLOAT", "tensorShape": {"dim": [{"size": "5"}, {"size": "5"}, {"size": "1"}, {"size": "1"}]}}}, "dtype": {"type": "DT_FLOAT"}}}, {"name": "ConstantFolding/split_62-folded-58", "op": "Const", "attr": {"dtype": {"type": "DT_FLOAT"}, "value": {"tensor": {"dtype": "DT_FLOAT", "tensorShape": {"dim": [{"size": "5"}, {"size": "5"}, {"size": "1"}, {"size": "1"}]}}}}}, {"name": "ConstantFolding/split_62-folded-59", "op": "Const", "attr": {"value": {"tensor": {"dtype": "DT_FLOAT", "tensorShape": {"dim": [{"size": "5"}, {"size": "5"}, {"size": "1"}, {"size": "1"}]}}}, "dtype": {"type": "DT_FLOAT"}}}, {"name": "ConstantFolding/split_62-folded-60", "op": "Const", "attr": {"dtype": {"type": "DT_FLOAT"}, "value": {"tensor": {"dtype": "DT_FLOAT", "tensorShape": {"dim": [{"size": "5"}, {"size": "5"}, {"size": "1"}, {"size": "1"}]}}}}}, {"name": "ConstantFolding/split_62-folded-61", "op": "Const", "attr": {"dtype": {"type": "DT_FLOAT"}, "value": {"tensor": {"dtype": "DT_FLOAT", "tensorShape": {"dim": [{"size": "5"}, {"size": "5"}, {"size": "1"}, {"size": "1"}]}}}}}, {"name": "ConstantFolding/split_62-folded-62", "op": "Const", "attr": {"dtype": {"type": "DT_FLOAT"}, "value": {"tensor": {"dtype": "DT_FLOAT", "tensorShape": {"dim": [{"size": "5"}, {"size": "5"}, {"size": "1"}, {"size": "1"}]}}}}}, {"name": "ConstantFolding/split_62-folded-63", "op": "Const", "attr": {"dtype": {"type": "DT_FLOAT"}, "value": {"tensor": {"dtype": "DT_FLOAT", "tensorShape": {"dim": [{"size": "5"}, {"size": "5"}, {"size": "1"}, {"size": "1"}]}}}}}, {"name": "ConstantFolding/split_62-folded-64", "op": "Const", "attr": {"dtype": {"type": "DT_FLOAT"}, "value": {"tensor": {"dtype": "DT_FLOAT", "tensorShape": {"dim": [{"size": "5"}, {"size": "5"}, {"size": "1"}, {"size": "1"}]}}}}}, {"name": "ConstantFolding/split_62-folded-65", "op": "Const", "attr": {"dtype": {"type": "DT_FLOAT"}, "value": {"tensor": {"dtype": "DT_FLOAT", "tensorShape": {"dim": [{"size": "5"}, {"size": "5"}, {"size": "1"}, {"size": "1"}]}}}}}, {"name": "ConstantFolding/split_62-folded-66", "op": "Const", "attr": {"value": {"tensor": {"dtype": "DT_FLOAT", "tensorShape": {"dim": [{"size": "5"}, {"size": "5"}, {"size": "1"}, {"size": "1"}]}}}, "dtype": {"type": "DT_FLOAT"}}}, {"name": "ConstantFolding/split_62-folded-67", "op": "Const", "attr": {"value": {"tensor": {"dtype": "DT_FLOAT", "tensorShape": {"dim": [{"size": "5"}, {"size": "5"}, {"size": "1"}, {"size": "1"}]}}}, "dtype": {"type": "DT_FLOAT"}}}, {"name": "ConstantFolding/split_62-folded-68", "op": "Const", "attr": {"dtype": {"type": "DT_FLOAT"}, "value": {"tensor": {"dtype": "DT_FLOAT", "tensorShape": {"dim": [{"size": "5"}, {"size": "5"}, {"size": "1"}, {"size": "1"}]}}}}}, {"name": "ConstantFolding/split_62-folded-69", "op": "Const", "attr": {"dtype": {"type": "DT_FLOAT"}, "value": {"tensor": {"dtype": "DT_FLOAT", "tensorShape": {"dim": [{"size": "5"}, {"size": "5"}, {"size": "1"}, {"size": "1"}]}}}}}, {"name": "ConstantFolding/split_62-folded-70", "op": "Const", "attr": {"dtype": {"type": "DT_FLOAT"}, "value": {"tensor": {"dtype": "DT_FLOAT", "tensorShape": {"dim": [{"size": "5"}, {"size": "5"}, {"size": "1"}, {"size": "1"}]}}}}}, {"name": "ConstantFolding/split_62-folded-71", "op": "Const", "attr": {"dtype": {"type": "DT_FLOAT"}, "value": {"tensor": {"dtype": "DT_FLOAT", "tensorShape": {"dim": [{"size": "5"}, {"size": "5"}, {"size": "1"}, {"size": "1"}]}}}}}, {"name": "ConstantFolding/split_62-folded-72", "op": "Const", "attr": {"value": {"tensor": {"dtype": "DT_FLOAT", "tensorShape": {"dim": [{"size": "5"}, {"size": "5"}, {"size": "1"}, {"size": "1"}]}}}, "dtype": {"type": "DT_FLOAT"}}}, {"name": "ConstantFolding/split_62-folded-73", "op": "Const", "attr": {"dtype": {"type": "DT_FLOAT"}, "value": {"tensor": {"dtype": "DT_FLOAT", "tensorShape": {"dim": [{"size": "5"}, {"size": "5"}, {"size": "1"}, {"size": "1"}]}}}}}, {"name": "ConstantFolding/split_62-folded-74", "op": "Const", "attr": {"dtype": {"type": "DT_FLOAT"}, "value": {"tensor": {"dtype": "DT_FLOAT", "tensorShape": {"dim": [{"size": "5"}, {"size": "5"}, {"size": "1"}, {"size": "1"}]}}}}}, {"name": "ConstantFolding/split_62-folded-75", "op": "Const", "attr": {"dtype": {"type": "DT_FLOAT"}, "value": {"tensor": {"dtype": "DT_FLOAT", "tensorShape": {"dim": [{"size": "5"}, {"size": "5"}, {"size": "1"}, {"size": "1"}]}}}}}, {"name": "ConstantFolding/split_62-folded-76", "op": "Const", "attr": {"dtype": {"type": "DT_FLOAT"}, "value": {"tensor": {"dtype": "DT_FLOAT", "tensorShape": {"dim": [{"size": "5"}, {"size": "5"}, {"size": "1"}, {"size": "1"}]}}}}}, {"name": "ConstantFolding/split_62-folded-77", "op": "Const", "attr": {"value": {"tensor": {"dtype": "DT_FLOAT", "tensorShape": {"dim": [{"size": "5"}, {"size": "5"}, {"size": "1"}, {"size": "1"}]}}}, "dtype": {"type": "DT_FLOAT"}}}, {"name": "ConstantFolding/split_62-folded-78", "op": "Const", "attr": {"value": {"tensor": {"dtype": "DT_FLOAT", "tensorShape": {"dim": [{"size": "5"}, {"size": "5"}, {"size": "1"}, {"size": "1"}]}}}, "dtype": {"type": "DT_FLOAT"}}}, {"name": "ConstantFolding/split_62-folded-79", "op": "Const", "attr": {"value": {"tensor": {"dtype": "DT_FLOAT", "tensorShape": {"dim": [{"size": "5"}, {"size": "5"}, {"size": "1"}, {"size": "1"}]}}}, "dtype": {"type": "DT_FLOAT"}}}, {"name": "ConstantFolding/split_62-folded-80", "op": "Const", "attr": {"dtype": {"type": "DT_FLOAT"}, "value": {"tensor": {"dtype": "DT_FLOAT", "tensorShape": {"dim": [{"size": "5"}, {"size": "5"}, {"size": "1"}, {"size": "1"}]}}}}}, {"name": "ConstantFolding/split_62-folded-81", "op": "Const", "attr": {"dtype": {"type": "DT_FLOAT"}, "value": {"tensor": {"dtype": "DT_FLOAT", "tensorShape": {"dim": [{"size": "5"}, {"size": "5"}, {"size": "1"}, {"size": "1"}]}}}}}, {"name": "ConstantFolding/split_62-folded-82", "op": "Const", "attr": {"dtype": {"type": "DT_FLOAT"}, "value": {"tensor": {"dtype": "DT_FLOAT", "tensorShape": {"dim": [{"size": "5"}, {"size": "5"}, {"size": "1"}, {"size": "1"}]}}}}}, {"name": "ConstantFolding/split_62-folded-83", "op": "Const", "attr": {"value": {"tensor": {"dtype": "DT_FLOAT", "tensorShape": {"dim": [{"size": "5"}, {"size": "5"}, {"size": "1"}, {"size": "1"}]}}}, "dtype": {"type": "DT_FLOAT"}}}, {"name": "ConstantFolding/split_62-folded-84", "op": "Const", "attr": {"dtype": {"type": "DT_FLOAT"}, "value": {"tensor": {"dtype": "DT_FLOAT", "tensorShape": {"dim": [{"size": "5"}, {"size": "5"}, {"size": "1"}, {"size": "1"}]}}}}}, {"name": "ConstantFolding/split_62-folded-85", "op": "Const", "attr": {"value": {"tensor": {"dtype": "DT_FLOAT", "tensorShape": {"dim": [{"size": "5"}, {"size": "5"}, {"size": "1"}, {"size": "1"}]}}}, "dtype": {"type": "DT_FLOAT"}}}, {"name": "ConstantFolding/split_62-folded-86", "op": "Const", "attr": {"dtype": {"type": "DT_FLOAT"}, "value": {"tensor": {"dtype": "DT_FLOAT", "tensorShape": {"dim": [{"size": "5"}, {"size": "5"}, {"size": "1"}, {"size": "1"}]}}}}}, {"name": "ConstantFolding/split_62-folded-87", "op": "Const", "attr": {"dtype": {"type": "DT_FLOAT"}, "value": {"tensor": {"dtype": "DT_FLOAT", "tensorShape": {"dim": [{"size": "5"}, {"size": "5"}, {"size": "1"}, {"size": "1"}]}}}}}, {"name": "ConstantFolding/split_62-folded-88", "op": "Const", "attr": {"value": {"tensor": {"dtype": "DT_FLOAT", "tensorShape": {"dim": [{"size": "5"}, {"size": "5"}, {"size": "1"}, {"size": "1"}]}}}, "dtype": {"type": "DT_FLOAT"}}}, {"name": "ConstantFolding/split_62-folded-89", "op": "Const", "attr": {"dtype": {"type": "DT_FLOAT"}, "value": {"tensor": {"dtype": "DT_FLOAT", "tensorShape": {"dim": [{"size": "5"}, {"size": "5"}, {"size": "1"}, {"size": "1"}]}}}}}, {"name": "ConstantFolding/split_62-folded-90", "op": "Const", "attr": {"value": {"tensor": {"dtype": "DT_FLOAT", "tensorShape": {"dim": [{"size": "5"}, {"size": "5"}, {"size": "1"}, {"size": "1"}]}}}, "dtype": {"type": "DT_FLOAT"}}}, {"name": "ConstantFolding/split_62-folded-91", "op": "Const", "attr": {"value": {"tensor": {"dtype": "DT_FLOAT", "tensorShape": {"dim": [{"size": "5"}, {"size": "5"}, {"size": "1"}, {"size": "1"}]}}}, "dtype": {"type": "DT_FLOAT"}}}, {"name": "ConstantFolding/split_62-folded-92", "op": "Const", "attr": {"value": {"tensor": {"dtype": "DT_FLOAT", "tensorShape": {"dim": [{"size": "5"}, {"size": "5"}, {"size": "1"}, {"size": "1"}]}}}, "dtype": {"type": "DT_FLOAT"}}}, {"name": "ConstantFolding/split_62-folded-93", "op": "Const", "attr": {"dtype": {"type": "DT_FLOAT"}, "value": {"tensor": {"dtype": "DT_FLOAT", "tensorShape": {"dim": [{"size": "5"}, {"size": "5"}, {"size": "1"}, {"size": "1"}]}}}}}, {"name": "ConstantFolding/split_62-folded-94", "op": "Const", "attr": {"dtype": {"type": "DT_FLOAT"}, "value": {"tensor": {"dtype": "DT_FLOAT", "tensorShape": {"dim": [{"size": "5"}, {"size": "5"}, {"size": "1"}, {"size": "1"}]}}}}}, {"name": "ConstantFolding/split_62-folded-95", "op": "Const", "attr": {"value": {"tensor": {"dtype": "DT_FLOAT", "tensorShape": {"dim": [{"size": "5"}, {"size": "5"}, {"size": "1"}, {"size": "1"}]}}}, "dtype": {"type": "DT_FLOAT"}}}, {"name": "ConstantFolding/split_62-folded-96", "op": "Const", "attr": {"dtype": {"type": "DT_FLOAT"}, "value": {"tensor": {"dtype": "DT_FLOAT", "tensorShape": {"dim": [{"size": "5"}, {"size": "5"}, {"size": "1"}, {"size": "1"}]}}}}}, {"name": "ConstantFolding/split_62-folded-97", "op": "Const", "attr": {"value": {"tensor": {"dtype": "DT_FLOAT", "tensorShape": {"dim": [{"size": "5"}, {"size": "5"}, {"size": "1"}, {"size": "1"}]}}}, "dtype": {"type": "DT_FLOAT"}}}, {"name": "ConstantFolding/split_62-folded-98", "op": "Const", "attr": {"value": {"tensor": {"dtype": "DT_FLOAT", "tensorShape": {"dim": [{"size": "5"}, {"size": "5"}, {"size": "1"}, {"size": "1"}]}}}, "dtype": {"type": "DT_FLOAT"}}}, {"name": "ConstantFolding/split_62-folded-99", "op": "Const", "attr": {"value": {"tensor": {"dtype": "DT_FLOAT", "tensorShape": {"dim": [{"size": "5"}, {"size": "5"}, {"size": "1"}, {"size": "1"}]}}}, "dtype": {"type": "DT_FLOAT"}}}, {"name": "ConstantFolding/split_62-folded-100", "op": "Const", "attr": {"dtype": {"type": "DT_FLOAT"}, "value": {"tensor": {"dtype": "DT_FLOAT", "tensorShape": {"dim": [{"size": "5"}, {"size": "5"}, {"size": "1"}, {"size": "1"}]}}}}}, {"name": "ConstantFolding/split_62-folded-101", "op": "Const", "attr": {"value": {"tensor": {"dtype": "DT_FLOAT", "tensorShape": {"dim": [{"size": "5"}, {"size": "5"}, {"size": "1"}, {"size": "1"}]}}}, "dtype": {"type": "DT_FLOAT"}}}, {"name": "ConstantFolding/split_62-folded-102", "op": "Const", "attr": {"dtype": {"type": "DT_FLOAT"}, "value": {"tensor": {"dtype": "DT_FLOAT", "tensorShape": {"dim": [{"size": "5"}, {"size": "5"}, {"size": "1"}, {"size": "1"}]}}}}}, {"name": "ConstantFolding/split_62-folded-103", "op": "Const", "attr": {"value": {"tensor": {"dtype": "DT_FLOAT", "tensorShape": {"dim": [{"size": "5"}, {"size": "5"}, {"size": "1"}, {"size": "1"}]}}}, "dtype": {"type": "DT_FLOAT"}}}, {"name": "ConstantFolding/split_62-folded-104", "op": "Const", "attr": {"dtype": {"type": "DT_FLOAT"}, "value": {"tensor": {"dtype": "DT_FLOAT", "tensorShape": {"dim": [{"size": "5"}, {"size": "5"}, {"size": "1"}, {"size": "1"}]}}}}}, {"name": "ConstantFolding/split_62-folded-105", "op": "Const", "attr": {"value": {"tensor": {"dtype": "DT_FLOAT", "tensorShape": {"dim": [{"size": "5"}, {"size": "5"}, {"size": "1"}, {"size": "1"}]}}}, "dtype": {"type": "DT_FLOAT"}}}, {"name": "ConstantFolding/split_62-folded-106", "op": "Const", "attr": {"dtype": {"type": "DT_FLOAT"}, "value": {"tensor": {"dtype": "DT_FLOAT", "tensorShape": {"dim": [{"size": "5"}, {"size": "5"}, {"size": "1"}, {"size": "1"}]}}}}}, {"name": "ConstantFolding/split_62-folded-107", "op": "Const", "attr": {"value": {"tensor": {"dtype": "DT_FLOAT", "tensorShape": {"dim": [{"size": "5"}, {"size": "5"}, {"size": "1"}, {"size": "1"}]}}}, "dtype": {"type": "DT_FLOAT"}}}, {"name": "ConstantFolding/split_62-folded-108", "op": "Const", "attr": {"dtype": {"type": "DT_FLOAT"}, "value": {"tensor": {"dtype": "DT_FLOAT", "tensorShape": {"dim": [{"size": "5"}, {"size": "5"}, {"size": "1"}, {"size": "1"}]}}}}}, {"name": "ConstantFolding/split_62-folded-109", "op": "Const", "attr": {"value": {"tensor": {"dtype": "DT_FLOAT", "tensorShape": {"dim": [{"size": "5"}, {"size": "5"}, {"size": "1"}, {"size": "1"}]}}}, "dtype": {"type": "DT_FLOAT"}}}, {"name": "ConstantFolding/split_62-folded-110", "op": "Const", "attr": {"value": {"tensor": {"dtype": "DT_FLOAT", "tensorShape": {"dim": [{"size": "5"}, {"size": "5"}, {"size": "1"}, {"size": "1"}]}}}, "dtype": {"type": "DT_FLOAT"}}}, {"name": "ConstantFolding/split_62-folded-111", "op": "Const", "attr": {"dtype": {"type": "DT_FLOAT"}, "value": {"tensor": {"dtype": "DT_FLOAT", "tensorShape": {"dim": [{"size": "5"}, {"size": "5"}, {"size": "1"}, {"size": "1"}]}}}}}, {"name": "ConstantFolding/split_62-folded-112", "op": "Const", "attr": {"dtype": {"type": "DT_FLOAT"}, "value": {"tensor": {"dtype": "DT_FLOAT", "tensorShape": {"dim": [{"size": "5"}, {"size": "5"}, {"size": "1"}, {"size": "1"}]}}}}}, {"name": "ConstantFolding/split_62-folded-113", "op": "Const", "attr": {"dtype": {"type": "DT_FLOAT"}, "value": {"tensor": {"dtype": "DT_FLOAT", "tensorShape": {"dim": [{"size": "5"}, {"size": "5"}, {"size": "1"}, {"size": "1"}]}}}}}, {"name": "ConstantFolding/split_62-folded-114", "op": "Const", "attr": {"value": {"tensor": {"dtype": "DT_FLOAT", "tensorShape": {"dim": [{"size": "5"}, {"size": "5"}, {"size": "1"}, {"size": "1"}]}}}, "dtype": {"type": "DT_FLOAT"}}}, {"name": "ConstantFolding/split_62-folded-115", "op": "Const", "attr": {"value": {"tensor": {"dtype": "DT_FLOAT", "tensorShape": {"dim": [{"size": "5"}, {"size": "5"}, {"size": "1"}, {"size": "1"}]}}}, "dtype": {"type": "DT_FLOAT"}}}, {"name": "ConstantFolding/split_62-folded-116", "op": "Const", "attr": {"dtype": {"type": "DT_FLOAT"}, "value": {"tensor": {"dtype": "DT_FLOAT", "tensorShape": {"dim": [{"size": "5"}, {"size": "5"}, {"size": "1"}, {"size": "1"}]}}}}}, {"name": "ConstantFolding/split_62-folded-117", "op": "Const", "attr": {"dtype": {"type": "DT_FLOAT"}, "value": {"tensor": {"dtype": "DT_FLOAT", "tensorShape": {"dim": [{"size": "5"}, {"size": "5"}, {"size": "1"}, {"size": "1"}]}}}}}, {"name": "ConstantFolding/split_62-folded-118", "op": "Const", "attr": {"dtype": {"type": "DT_FLOAT"}, "value": {"tensor": {"dtype": "DT_FLOAT", "tensorShape": {"dim": [{"size": "5"}, {"size": "5"}, {"size": "1"}, {"size": "1"}]}}}}}, {"name": "ConstantFolding/split_62-folded-119", "op": "Const", "attr": {"value": {"tensor": {"dtype": "DT_FLOAT", "tensorShape": {"dim": [{"size": "5"}, {"size": "5"}, {"size": "1"}, {"size": "1"}]}}}, "dtype": {"type": "DT_FLOAT"}}}, {"name": "ConstantFolding/split_62-folded-120", "op": "Const", "attr": {"dtype": {"type": "DT_FLOAT"}, "value": {"tensor": {"dtype": "DT_FLOAT", "tensorShape": {"dim": [{"size": "5"}, {"size": "5"}, {"size": "1"}, {"size": "1"}]}}}}}, {"name": "ConstantFolding/split_62-folded-121", "op": "Const", "attr": {"value": {"tensor": {"dtype": "DT_FLOAT", "tensorShape": {"dim": [{"size": "5"}, {"size": "5"}, {"size": "1"}, {"size": "1"}]}}}, "dtype": {"type": "DT_FLOAT"}}}, {"name": "ConstantFolding/split_62-folded-122", "op": "Const", "attr": {"value": {"tensor": {"dtype": "DT_FLOAT", "tensorShape": {"dim": [{"size": "5"}, {"size": "5"}, {"size": "1"}, {"size": "1"}]}}}, "dtype": {"type": "DT_FLOAT"}}}, {"name": "ConstantFolding/split_62-folded-123", "op": "Const", "attr": {"dtype": {"type": "DT_FLOAT"}, "value": {"tensor": {"dtype": "DT_FLOAT", "tensorShape": {"dim": [{"size": "5"}, {"size": "5"}, {"size": "1"}, {"size": "1"}]}}}}}, {"name": "ConstantFolding/split_62-folded-124", "op": "Const", "attr": {"value": {"tensor": {"dtype": "DT_FLOAT", "tensorShape": {"dim": [{"size": "5"}, {"size": "5"}, {"size": "1"}, {"size": "1"}]}}}, "dtype": {"type": "DT_FLOAT"}}}, {"name": "ConstantFolding/split_62-folded-125", "op": "Const", "attr": {"dtype": {"type": "DT_FLOAT"}, "value": {"tensor": {"dtype": "DT_FLOAT", "tensorShape": {"dim": [{"size": "5"}, {"size": "5"}, {"size": "1"}, {"size": "1"}]}}}}}, {"name": "ConstantFolding/split_62-folded-126", "op": "Const", "attr": {"value": {"tensor": {"dtype": "DT_FLOAT", "tensorShape": {"dim": [{"size": "5"}, {"size": "5"}, {"size": "1"}, {"size": "1"}]}}}, "dtype": {"type": "DT_FLOAT"}}}, {"name": "ConstantFolding/split_62-folded-127", "op": "Const", "attr": {"value": {"tensor": {"dtype": "DT_FLOAT", "tensorShape": {"dim": [{"size": "5"}, {"size": "5"}, {"size": "1"}, {"size": "1"}]}}}, "dtype": {"type": "DT_FLOAT"}}}, {"name": "ConstantFolding/split_62-folded-128", "op": "Const", "attr": {"value": {"tensor": {"dtype": "DT_FLOAT", "tensorShape": {"dim": [{"size": "5"}, {"size": "5"}, {"size": "1"}, {"size": "1"}]}}}, "dtype": {"type": "DT_FLOAT"}}}, {"name": "ConstantFolding/split_62-folded-129", "op": "Const", "attr": {"value": {"tensor": {"dtype": "DT_FLOAT", "tensorShape": {"dim": [{"size": "5"}, {"size": "5"}, {"size": "1"}, {"size": "1"}]}}}, "dtype": {"type": "DT_FLOAT"}}}, {"name": "ConstantFolding/split_62-folded-130", "op": "Const", "attr": {"value": {"tensor": {"dtype": "DT_FLOAT", "tensorShape": {"dim": [{"size": "5"}, {"size": "5"}, {"size": "1"}, {"size": "1"}]}}}, "dtype": {"type": "DT_FLOAT"}}}, {"name": "ConstantFolding/split_62-folded-131", "op": "Const", "attr": {"value": {"tensor": {"dtype": "DT_FLOAT", "tensorShape": {"dim": [{"size": "5"}, {"size": "5"}, {"size": "1"}, {"size": "1"}]}}}, "dtype": {"type": "DT_FLOAT"}}}, {"name": "ConstantFolding/split_62-folded-132", "op": "Const", "attr": {"dtype": {"type": "DT_FLOAT"}, "value": {"tensor": {"dtype": "DT_FLOAT", "tensorShape": {"dim": [{"size": "5"}, {"size": "5"}, {"size": "1"}, {"size": "1"}]}}}}}, {"name": "ConstantFolding/split_62-folded-133", "op": "Const", "attr": {"dtype": {"type": "DT_FLOAT"}, "value": {"tensor": {"dtype": "DT_FLOAT", "tensorShape": {"dim": [{"size": "5"}, {"size": "5"}, {"size": "1"}, {"size": "1"}]}}}}}, {"name": "ConstantFolding/split_62-folded-134", "op": "Const", "attr": {"value": {"tensor": {"dtype": "DT_FLOAT", "tensorShape": {"dim": [{"size": "5"}, {"size": "5"}, {"size": "1"}, {"size": "1"}]}}}, "dtype": {"type": "DT_FLOAT"}}}, {"name": "ConstantFolding/split_62-folded-135", "op": "Const", "attr": {"dtype": {"type": "DT_FLOAT"}, "value": {"tensor": {"dtype": "DT_FLOAT", "tensorShape": {"dim": [{"size": "5"}, {"size": "5"}, {"size": "1"}, {"size": "1"}]}}}}}, {"name": "ConstantFolding/split_62-folded-136", "op": "Const", "attr": {"value": {"tensor": {"dtype": "DT_FLOAT", "tensorShape": {"dim": [{"size": "5"}, {"size": "5"}, {"size": "1"}, {"size": "1"}]}}}, "dtype": {"type": "DT_FLOAT"}}}, {"name": "ConstantFolding/split_62-folded-137", "op": "Const", "attr": {"value": {"tensor": {"dtype": "DT_FLOAT", "tensorShape": {"dim": [{"size": "5"}, {"size": "5"}, {"size": "1"}, {"size": "1"}]}}}, "dtype": {"type": "DT_FLOAT"}}}, {"name": "ConstantFolding/split_62-folded-138", "op": "Const", "attr": {"dtype": {"type": "DT_FLOAT"}, "value": {"tensor": {"dtype": "DT_FLOAT", "tensorShape": {"dim": [{"size": "5"}, {"size": "5"}, {"size": "1"}, {"size": "1"}]}}}}}, {"name": "ConstantFolding/split_62-folded-139", "op": "Const", "attr": {"value": {"tensor": {"dtype": "DT_FLOAT", "tensorShape": {"dim": [{"size": "5"}, {"size": "5"}, {"size": "1"}, {"size": "1"}]}}}, "dtype": {"type": "DT_FLOAT"}}}, {"name": "ConstantFolding/split_62-folded-140", "op": "Const", "attr": {"value": {"tensor": {"dtype": "DT_FLOAT", "tensorShape": {"dim": [{"size": "5"}, {"size": "5"}, {"size": "1"}, {"size": "1"}]}}}, "dtype": {"type": "DT_FLOAT"}}}, {"name": "ConstantFolding/split_62-folded-141", "op": "Const", "attr": {"value": {"tensor": {"dtype": "DT_FLOAT", "tensorShape": {"dim": [{"size": "5"}, {"size": "5"}, {"size": "1"}, {"size": "1"}]}}}, "dtype": {"type": "DT_FLOAT"}}}, {"name": "ConstantFolding/split_62-folded-142", "op": "Const", "attr": {"value": {"tensor": {"dtype": "DT_FLOAT", "tensorShape": {"dim": [{"size": "5"}, {"size": "5"}, {"size": "1"}, {"size": "1"}]}}}, "dtype": {"type": "DT_FLOAT"}}}, {"name": "ConstantFolding/split_62-folded-143", "op": "Const", "attr": {"value": {"tensor": {"dtype": "DT_FLOAT", "tensorShape": {"dim": [{"size": "5"}, {"size": "5"}, {"size": "1"}, {"size": "1"}]}}}, "dtype": {"type": "DT_FLOAT"}}}, {"name": "ConstantFolding/split_62-folded-144", "op": "Const", "attr": {"dtype": {"type": "DT_FLOAT"}, "value": {"tensor": {"dtype": "DT_FLOAT", "tensorShape": {"dim": [{"size": "5"}, {"size": "5"}, {"size": "1"}, {"size": "1"}]}}}}}, {"name": "ConstantFolding/split_62-folded-145", "op": "Const", "attr": {"value": {"tensor": {"dtype": "DT_FLOAT", "tensorShape": {"dim": [{"size": "5"}, {"size": "5"}, {"size": "1"}, {"size": "1"}]}}}, "dtype": {"type": "DT_FLOAT"}}}, {"name": "ConstantFolding/split_62-folded-146", "op": "Const", "attr": {"dtype": {"type": "DT_FLOAT"}, "value": {"tensor": {"dtype": "DT_FLOAT", "tensorShape": {"dim": [{"size": "5"}, {"size": "5"}, {"size": "1"}, {"size": "1"}]}}}}}, {"name": "ConstantFolding/split_62-folded-147", "op": "Const", "attr": {"dtype": {"type": "DT_FLOAT"}, "value": {"tensor": {"dtype": "DT_FLOAT", "tensorShape": {"dim": [{"size": "5"}, {"size": "5"}, {"size": "1"}, {"size": "1"}]}}}}}, {"name": "ConstantFolding/split_62-folded-148", "op": "Const", "attr": {"dtype": {"type": "DT_FLOAT"}, "value": {"tensor": {"dtype": "DT_FLOAT", "tensorShape": {"dim": [{"size": "5"}, {"size": "5"}, {"size": "1"}, {"size": "1"}]}}}}}, {"name": "ConstantFolding/split_62-folded-149", "op": "Const", "attr": {"value": {"tensor": {"dtype": "DT_FLOAT", "tensorShape": {"dim": [{"size": "5"}, {"size": "5"}, {"size": "1"}, {"size": "1"}]}}}, "dtype": {"type": "DT_FLOAT"}}}, {"name": "ConstantFolding/split_62-folded-150", "op": "Const", "attr": {"dtype": {"type": "DT_FLOAT"}, "value": {"tensor": {"dtype": "DT_FLOAT", "tensorShape": {"dim": [{"size": "5"}, {"size": "5"}, {"size": "1"}, {"size": "1"}]}}}}}, {"name": "ConstantFolding/split_62-folded-151", "op": "Const", "attr": {"dtype": {"type": "DT_FLOAT"}, "value": {"tensor": {"dtype": "DT_FLOAT", "tensorShape": {"dim": [{"size": "5"}, {"size": "5"}, {"size": "1"}, {"size": "1"}]}}}}}, {"name": "ConstantFolding/split_62-folded-152", "op": "Const", "attr": {"value": {"tensor": {"dtype": "DT_FLOAT", "tensorShape": {"dim": [{"size": "5"}, {"size": "5"}, {"size": "1"}, {"size": "1"}]}}}, "dtype": {"type": "DT_FLOAT"}}}, {"name": "ConstantFolding/split_62-folded-153", "op": "Const", "attr": {"value": {"tensor": {"dtype": "DT_FLOAT", "tensorShape": {"dim": [{"size": "5"}, {"size": "5"}, {"size": "1"}, {"size": "1"}]}}}, "dtype": {"type": "DT_FLOAT"}}}, {"name": "ConstantFolding/split_62-folded-154", "op": "Const", "attr": {"dtype": {"type": "DT_FLOAT"}, "value": {"tensor": {"dtype": "DT_FLOAT", "tensorShape": {"dim": [{"size": "5"}, {"size": "5"}, {"size": "1"}, {"size": "1"}]}}}}}, {"name": "ConstantFolding/split_62-folded-155", "op": "Const", "attr": {"dtype": {"type": "DT_FLOAT"}, "value": {"tensor": {"dtype": "DT_FLOAT", "tensorShape": {"dim": [{"size": "5"}, {"size": "5"}, {"size": "1"}, {"size": "1"}]}}}}}, {"name": "ConstantFolding/split_62-folded-156", "op": "Const", "attr": {"dtype": {"type": "DT_FLOAT"}, "value": {"tensor": {"dtype": "DT_FLOAT", "tensorShape": {"dim": [{"size": "5"}, {"size": "5"}, {"size": "1"}, {"size": "1"}]}}}}}, {"name": "ConstantFolding/split_62-folded-157", "op": "Const", "attr": {"dtype": {"type": "DT_FLOAT"}, "value": {"tensor": {"dtype": "DT_FLOAT", "tensorShape": {"dim": [{"size": "5"}, {"size": "5"}, {"size": "1"}, {"size": "1"}]}}}}}, {"name": "ConstantFolding/split_62-folded-158", "op": "Const", "attr": {"dtype": {"type": "DT_FLOAT"}, "value": {"tensor": {"dtype": "DT_FLOAT", "tensorShape": {"dim": [{"size": "5"}, {"size": "5"}, {"size": "1"}, {"size": "1"}]}}}}}, {"name": "ConstantFolding/split_62-folded-159", "op": "Const", "attr": {"value": {"tensor": {"dtype": "DT_FLOAT", "tensorShape": {"dim": [{"size": "5"}, {"size": "5"}, {"size": "1"}, {"size": "1"}]}}}, "dtype": {"type": "DT_FLOAT"}}}, {"name": "ConstantFolding/split_62-folded-160", "op": "Const", "attr": {"dtype": {"type": "DT_FLOAT"}, "value": {"tensor": {"dtype": "DT_FLOAT", "tensorShape": {"dim": [{"size": "5"}, {"size": "5"}, {"size": "1"}, {"size": "1"}]}}}}}, {"name": "ConstantFolding/split_62-folded-161", "op": "Const", "attr": {"dtype": {"type": "DT_FLOAT"}, "value": {"tensor": {"dtype": "DT_FLOAT", "tensorShape": {"dim": [{"size": "5"}, {"size": "5"}, {"size": "1"}, {"size": "1"}]}}}}}, {"name": "ConstantFolding/split_62-folded-162", "op": "Const", "attr": {"dtype": {"type": "DT_FLOAT"}, "value": {"tensor": {"dtype": "DT_FLOAT", "tensorShape": {"dim": [{"size": "5"}, {"size": "5"}, {"size": "1"}, {"size": "1"}]}}}}}, {"name": "ConstantFolding/split_62-folded-163", "op": "Const", "attr": {"value": {"tensor": {"dtype": "DT_FLOAT", "tensorShape": {"dim": [{"size": "5"}, {"size": "5"}, {"size": "1"}, {"size": "1"}]}}}, "dtype": {"type": "DT_FLOAT"}}}, {"name": "ConstantFolding/split_62-folded-164", "op": "Const", "attr": {"dtype": {"type": "DT_FLOAT"}, "value": {"tensor": {"dtype": "DT_FLOAT", "tensorShape": {"dim": [{"size": "5"}, {"size": "5"}, {"size": "1"}, {"size": "1"}]}}}}}, {"name": "ConstantFolding/split_62-folded-165", "op": "Const", "attr": {"value": {"tensor": {"dtype": "DT_FLOAT", "tensorShape": {"dim": [{"size": "5"}, {"size": "5"}, {"size": "1"}, {"size": "1"}]}}}, "dtype": {"type": "DT_FLOAT"}}}, {"name": "ConstantFolding/split_62-folded-166", "op": "Const", "attr": {"dtype": {"type": "DT_FLOAT"}, "value": {"tensor": {"dtype": "DT_FLOAT", "tensorShape": {"dim": [{"size": "5"}, {"size": "5"}, {"size": "1"}, {"size": "1"}]}}}}}, {"name": "ConstantFolding/split_62-folded-167", "op": "Const", "attr": {"dtype": {"type": "DT_FLOAT"}, "value": {"tensor": {"dtype": "DT_FLOAT", "tensorShape": {"dim": [{"size": "5"}, {"size": "5"}, {"size": "1"}, {"size": "1"}]}}}}}, {"name": "ConstantFolding/split_62-folded-168", "op": "Const", "attr": {"value": {"tensor": {"dtype": "DT_FLOAT", "tensorShape": {"dim": [{"size": "5"}, {"size": "5"}, {"size": "1"}, {"size": "1"}]}}}, "dtype": {"type": "DT_FLOAT"}}}, {"name": "ConstantFolding/split_62-folded-169", "op": "Const", "attr": {"value": {"tensor": {"dtype": "DT_FLOAT", "tensorShape": {"dim": [{"size": "5"}, {"size": "5"}, {"size": "1"}, {"size": "1"}]}}}, "dtype": {"type": "DT_FLOAT"}}}, {"name": "ConstantFolding/split_62-folded-170", "op": "Const", "attr": {"value": {"tensor": {"dtype": "DT_FLOAT", "tensorShape": {"dim": [{"size": "5"}, {"size": "5"}, {"size": "1"}, {"size": "1"}]}}}, "dtype": {"type": "DT_FLOAT"}}}, {"name": "ConstantFolding/split_62-folded-171", "op": "Const", "attr": {"dtype": {"type": "DT_FLOAT"}, "value": {"tensor": {"dtype": "DT_FLOAT", "tensorShape": {"dim": [{"size": "5"}, {"size": "5"}, {"size": "1"}, {"size": "1"}]}}}}}, {"name": "ConstantFolding/split_62-folded-172", "op": "Const", "attr": {"dtype": {"type": "DT_FLOAT"}, "value": {"tensor": {"dtype": "DT_FLOAT", "tensorShape": {"dim": [{"size": "5"}, {"size": "5"}, {"size": "1"}, {"size": "1"}]}}}}}, {"name": "ConstantFolding/split_62-folded-173", "op": "Const", "attr": {"value": {"tensor": {"dtype": "DT_FLOAT", "tensorShape": {"dim": [{"size": "5"}, {"size": "5"}, {"size": "1"}, {"size": "1"}]}}}, "dtype": {"type": "DT_FLOAT"}}}, {"name": "ConstantFolding/split_62-folded-174", "op": "Const", "attr": {"dtype": {"type": "DT_FLOAT"}, "value": {"tensor": {"dtype": "DT_FLOAT", "tensorShape": {"dim": [{"size": "5"}, {"size": "5"}, {"size": "1"}, {"size": "1"}]}}}}}, {"name": "ConstantFolding/split_62-folded-175", "op": "Const", "attr": {"dtype": {"type": "DT_FLOAT"}, "value": {"tensor": {"dtype": "DT_FLOAT", "tensorShape": {"dim": [{"size": "5"}, {"size": "5"}, {"size": "1"}, {"size": "1"}]}}}}}, {"name": "ConstantFolding/split_62-folded-176", "op": "Const", "attr": {"dtype": {"type": "DT_FLOAT"}, "value": {"tensor": {"dtype": "DT_FLOAT", "tensorShape": {"dim": [{"size": "5"}, {"size": "5"}, {"size": "1"}, {"size": "1"}]}}}}}, {"name": "ConstantFolding/split_62-folded-177", "op": "Const", "attr": {"dtype": {"type": "DT_FLOAT"}, "value": {"tensor": {"dtype": "DT_FLOAT", "tensorShape": {"dim": [{"size": "5"}, {"size": "5"}, {"size": "1"}, {"size": "1"}]}}}}}, {"name": "ConstantFolding/split_62-folded-178", "op": "Const", "attr": {"value": {"tensor": {"dtype": "DT_FLOAT", "tensorShape": {"dim": [{"size": "5"}, {"size": "5"}, {"size": "1"}, {"size": "1"}]}}}, "dtype": {"type": "DT_FLOAT"}}}, {"name": "ConstantFolding/split_62-folded-179", "op": "Const", "attr": {"value": {"tensor": {"dtype": "DT_FLOAT", "tensorShape": {"dim": [{"size": "5"}, {"size": "5"}, {"size": "1"}, {"size": "1"}]}}}, "dtype": {"type": "DT_FLOAT"}}}, {"name": "ConstantFolding/split_62-folded-180", "op": "Const", "attr": {"value": {"tensor": {"dtype": "DT_FLOAT", "tensorShape": {"dim": [{"size": "5"}, {"size": "5"}, {"size": "1"}, {"size": "1"}]}}}, "dtype": {"type": "DT_FLOAT"}}}, {"name": "ConstantFolding/split_62-folded-181", "op": "Const", "attr": {"dtype": {"type": "DT_FLOAT"}, "value": {"tensor": {"dtype": "DT_FLOAT", "tensorShape": {"dim": [{"size": "5"}, {"size": "5"}, {"size": "1"}, {"size": "1"}]}}}}}, {"name": "ConstantFolding/split_62-folded-182", "op": "Const", "attr": {"value": {"tensor": {"dtype": "DT_FLOAT", "tensorShape": {"dim": [{"size": "5"}, {"size": "5"}, {"size": "1"}, {"size": "1"}]}}}, "dtype": {"type": "DT_FLOAT"}}}, {"name": "ConstantFolding/split_62-folded-183", "op": "Const", "attr": {"value": {"tensor": {"dtype": "DT_FLOAT", "tensorShape": {"dim": [{"size": "5"}, {"size": "5"}, {"size": "1"}, {"size": "1"}]}}}, "dtype": {"type": "DT_FLOAT"}}}, {"name": "ConstantFolding/split_62-folded-184", "op": "Const", "attr": {"dtype": {"type": "DT_FLOAT"}, "value": {"tensor": {"dtype": "DT_FLOAT", "tensorShape": {"dim": [{"size": "5"}, {"size": "5"}, {"size": "1"}, {"size": "1"}]}}}}}, {"name": "ConstantFolding/split_62-folded-185", "op": "Const", "attr": {"value": {"tensor": {"dtype": "DT_FLOAT", "tensorShape": {"dim": [{"size": "5"}, {"size": "5"}, {"size": "1"}, {"size": "1"}]}}}, "dtype": {"type": "DT_FLOAT"}}}, {"name": "ConstantFolding/split_62-folded-186", "op": "Const", "attr": {"dtype": {"type": "DT_FLOAT"}, "value": {"tensor": {"dtype": "DT_FLOAT", "tensorShape": {"dim": [{"size": "5"}, {"size": "5"}, {"size": "1"}, {"size": "1"}]}}}}}, {"name": "ConstantFolding/split_62-folded-187", "op": "Const", "attr": {"dtype": {"type": "DT_FLOAT"}, "value": {"tensor": {"dtype": "DT_FLOAT", "tensorShape": {"dim": [{"size": "5"}, {"size": "5"}, {"size": "1"}, {"size": "1"}]}}}}}, {"name": "ConstantFolding/split_62-folded-188", "op": "Const", "attr": {"value": {"tensor": {"dtype": "DT_FLOAT", "tensorShape": {"dim": [{"size": "5"}, {"size": "5"}, {"size": "1"}, {"size": "1"}]}}}, "dtype": {"type": "DT_FLOAT"}}}, {"name": "ConstantFolding/split_62-folded-189", "op": "Const", "attr": {"value": {"tensor": {"dtype": "DT_FLOAT", "tensorShape": {"dim": [{"size": "5"}, {"size": "5"}, {"size": "1"}, {"size": "1"}]}}}, "dtype": {"type": "DT_FLOAT"}}}, {"name": "ConstantFolding/split_62-folded-190", "op": "Const", "attr": {"dtype": {"type": "DT_FLOAT"}, "value": {"tensor": {"dtype": "DT_FLOAT", "tensorShape": {"dim": [{"size": "5"}, {"size": "5"}, {"size": "1"}, {"size": "1"}]}}}}}, {"name": "ConstantFolding/split_62-folded-191", "op": "Const", "attr": {"dtype": {"type": "DT_FLOAT"}, "value": {"tensor": {"dtype": "DT_FLOAT", "tensorShape": {"dim": [{"size": "5"}, {"size": "5"}, {"size": "1"}, {"size": "1"}]}}}}}, {"name": "ConstantFolding/split_62-folded-192", "op": "Const", "attr": {"value": {"tensor": {"dtype": "DT_FLOAT", "tensorShape": {"dim": [{"size": "5"}, {"size": "5"}, {"size": "1"}, {"size": "1"}]}}}, "dtype": {"type": "DT_FLOAT"}}}, {"name": "ConstantFolding/split_62-folded-193", "op": "Const", "attr": {"dtype": {"type": "DT_FLOAT"}, "value": {"tensor": {"dtype": "DT_FLOAT", "tensorShape": {"dim": [{"size": "5"}, {"size": "5"}, {"size": "1"}, {"size": "1"}]}}}}}, {"name": "ConstantFolding/split_62-folded-194", "op": "Const", "attr": {"dtype": {"type": "DT_FLOAT"}, "value": {"tensor": {"dtype": "DT_FLOAT", "tensorShape": {"dim": [{"size": "5"}, {"size": "5"}, {"size": "1"}, {"size": "1"}]}}}}}, {"name": "ConstantFolding/split_62-folded-195", "op": "Const", "attr": {"dtype": {"type": "DT_FLOAT"}, "value": {"tensor": {"dtype": "DT_FLOAT", "tensorShape": {"dim": [{"size": "5"}, {"size": "5"}, {"size": "1"}, {"size": "1"}]}}}}}, {"name": "ConstantFolding/split_62-folded-196", "op": "Const", "attr": {"dtype": {"type": "DT_FLOAT"}, "value": {"tensor": {"dtype": "DT_FLOAT", "tensorShape": {"dim": [{"size": "5"}, {"size": "5"}, {"size": "1"}, {"size": "1"}]}}}}}, {"name": "ConstantFolding/split_62-folded-197", "op": "Const", "attr": {"value": {"tensor": {"dtype": "DT_FLOAT", "tensorShape": {"dim": [{"size": "5"}, {"size": "5"}, {"size": "1"}, {"size": "1"}]}}}, "dtype": {"type": "DT_FLOAT"}}}, {"name": "ConstantFolding/split_62-folded-198", "op": "Const", "attr": {"value": {"tensor": {"dtype": "DT_FLOAT", "tensorShape": {"dim": [{"size": "5"}, {"size": "5"}, {"size": "1"}, {"size": "1"}]}}}, "dtype": {"type": "DT_FLOAT"}}}, {"name": "ConstantFolding/split_62-folded-199", "op": "Const", "attr": {"dtype": {"type": "DT_FLOAT"}, "value": {"tensor": {"dtype": "DT_FLOAT", "tensorShape": {"dim": [{"size": "5"}, {"size": "5"}, {"size": "1"}, {"size": "1"}]}}}}}, {"name": "ConstantFolding/split_62-folded-200", "op": "Const", "attr": {"value": {"tensor": {"dtype": "DT_FLOAT", "tensorShape": {"dim": [{"size": "5"}, {"size": "5"}, {"size": "1"}, {"size": "1"}]}}}, "dtype": {"type": "DT_FLOAT"}}}, {"name": "ConstantFolding/split_62-folded-201", "op": "Const", "attr": {"value": {"tensor": {"dtype": "DT_FLOAT", "tensorShape": {"dim": [{"size": "5"}, {"size": "5"}, {"size": "1"}, {"size": "1"}]}}}, "dtype": {"type": "DT_FLOAT"}}}, {"name": "ConstantFolding/split_62-folded-202", "op": "Const", "attr": {"value": {"tensor": {"dtype": "DT_FLOAT", "tensorShape": {"dim": [{"size": "5"}, {"size": "5"}, {"size": "1"}, {"size": "1"}]}}}, "dtype": {"type": "DT_FLOAT"}}}, {"name": "ConstantFolding/split_62-folded-203", "op": "Const", "attr": {"value": {"tensor": {"dtype": "DT_FLOAT", "tensorShape": {"dim": [{"size": "5"}, {"size": "5"}, {"size": "1"}, {"size": "1"}]}}}, "dtype": {"type": "DT_FLOAT"}}}, {"name": "ConstantFolding/split_62-folded-204", "op": "Const", "attr": {"value": {"tensor": {"dtype": "DT_FLOAT", "tensorShape": {"dim": [{"size": "5"}, {"size": "5"}, {"size": "1"}, {"size": "1"}]}}}, "dtype": {"type": "DT_FLOAT"}}}, {"name": "ConstantFolding/split_62-folded-205", "op": "Const", "attr": {"dtype": {"type": "DT_FLOAT"}, "value": {"tensor": {"dtype": "DT_FLOAT", "tensorShape": {"dim": [{"size": "5"}, {"size": "5"}, {"size": "1"}, {"size": "1"}]}}}}}, {"name": "ConstantFolding/split_62-folded-206", "op": "Const", "attr": {"dtype": {"type": "DT_FLOAT"}, "value": {"tensor": {"dtype": "DT_FLOAT", "tensorShape": {"dim": [{"size": "5"}, {"size": "5"}, {"size": "1"}, {"size": "1"}]}}}}}, {"name": "ConstantFolding/split_62-folded-207", "op": "Const", "attr": {"value": {"tensor": {"dtype": "DT_FLOAT", "tensorShape": {"dim": [{"size": "5"}, {"size": "5"}, {"size": "1"}, {"size": "1"}]}}}, "dtype": {"type": "DT_FLOAT"}}}, {"name": "ConstantFolding/split_62-folded-208", "op": "Const", "attr": {"value": {"tensor": {"dtype": "DT_FLOAT", "tensorShape": {"dim": [{"size": "5"}, {"size": "5"}, {"size": "1"}, {"size": "1"}]}}}, "dtype": {"type": "DT_FLOAT"}}}, {"name": "ConstantFolding/split_62-folded-209", "op": "Const", "attr": {"value": {"tensor": {"dtype": "DT_FLOAT", "tensorShape": {"dim": [{"size": "5"}, {"size": "5"}, {"size": "1"}, {"size": "1"}]}}}, "dtype": {"type": "DT_FLOAT"}}}, {"name": "ConstantFolding/split_62-folded-210", "op": "Const", "attr": {"dtype": {"type": "DT_FLOAT"}, "value": {"tensor": {"dtype": "DT_FLOAT", "tensorShape": {"dim": [{"size": "5"}, {"size": "5"}, {"size": "1"}, {"size": "1"}]}}}}}, {"name": "ConstantFolding/split_62-folded-211", "op": "Const", "attr": {"value": {"tensor": {"dtype": "DT_FLOAT", "tensorShape": {"dim": [{"size": "5"}, {"size": "5"}, {"size": "1"}, {"size": "1"}]}}}, "dtype": {"type": "DT_FLOAT"}}}, {"name": "ConstantFolding/split_62-folded-212", "op": "Const", "attr": {"dtype": {"type": "DT_FLOAT"}, "value": {"tensor": {"dtype": "DT_FLOAT", "tensorShape": {"dim": [{"size": "5"}, {"size": "5"}, {"size": "1"}, {"size": "1"}]}}}}}, {"name": "ConstantFolding/split_62-folded-213", "op": "Const", "attr": {"dtype": {"type": "DT_FLOAT"}, "value": {"tensor": {"dtype": "DT_FLOAT", "tensorShape": {"dim": [{"size": "5"}, {"size": "5"}, {"size": "1"}, {"size": "1"}]}}}}}, {"name": "ConstantFolding/split_62-folded-214", "op": "Const", "attr": {"dtype": {"type": "DT_FLOAT"}, "value": {"tensor": {"dtype": "DT_FLOAT", "tensorShape": {"dim": [{"size": "5"}, {"size": "5"}, {"size": "1"}, {"size": "1"}]}}}}}, {"name": "ConstantFolding/split_62-folded-215", "op": "Const", "attr": {"value": {"tensor": {"dtype": "DT_FLOAT", "tensorShape": {"dim": [{"size": "5"}, {"size": "5"}, {"size": "1"}, {"size": "1"}]}}}, "dtype": {"type": "DT_FLOAT"}}}, {"name": "ConstantFolding/split_62-folded-216", "op": "Const", "attr": {"dtype": {"type": "DT_FLOAT"}, "value": {"tensor": {"dtype": "DT_FLOAT", "tensorShape": {"dim": [{"size": "5"}, {"size": "5"}, {"size": "1"}, {"size": "1"}]}}}}}, {"name": "ConstantFolding/split_62-folded-217", "op": "Const", "attr": {"dtype": {"type": "DT_FLOAT"}, "value": {"tensor": {"dtype": "DT_FLOAT", "tensorShape": {"dim": [{"size": "5"}, {"size": "5"}, {"size": "1"}, {"size": "1"}]}}}}}, {"name": "ConstantFolding/split_62-folded-218", "op": "Const", "attr": {"dtype": {"type": "DT_FLOAT"}, "value": {"tensor": {"dtype": "DT_FLOAT", "tensorShape": {"dim": [{"size": "5"}, {"size": "5"}, {"size": "1"}, {"size": "1"}]}}}}}, {"name": "ConstantFolding/split_62-folded-219", "op": "Const", "attr": {"dtype": {"type": "DT_FLOAT"}, "value": {"tensor": {"dtype": "DT_FLOAT", "tensorShape": {"dim": [{"size": "5"}, {"size": "5"}, {"size": "1"}, {"size": "1"}]}}}}}, {"name": "ConstantFolding/split_62-folded-220", "op": "Const", "attr": {"dtype": {"type": "DT_FLOAT"}, "value": {"tensor": {"dtype": "DT_FLOAT", "tensorShape": {"dim": [{"size": "5"}, {"size": "5"}, {"size": "1"}, {"size": "1"}]}}}}}, {"name": "ConstantFolding/split_62-folded-221", "op": "Const", "attr": {"dtype": {"type": "DT_FLOAT"}, "value": {"tensor": {"dtype": "DT_FLOAT", "tensorShape": {"dim": [{"size": "5"}, {"size": "5"}, {"size": "1"}, {"size": "1"}]}}}}}, {"name": "ConstantFolding/split_62-folded-222", "op": "Const", "attr": {"dtype": {"type": "DT_FLOAT"}, "value": {"tensor": {"dtype": "DT_FLOAT", "tensorShape": {"dim": [{"size": "5"}, {"size": "5"}, {"size": "1"}, {"size": "1"}]}}}}}, {"name": "ConstantFolding/split_62-folded-223", "op": "Const", "attr": {"dtype": {"type": "DT_FLOAT"}, "value": {"tensor": {"dtype": "DT_FLOAT", "tensorShape": {"dim": [{"size": "5"}, {"size": "5"}, {"size": "1"}, {"size": "1"}]}}}}}, {"name": "ConstantFolding/split_62-folded-224", "op": "Const", "attr": {"dtype": {"type": "DT_FLOAT"}, "value": {"tensor": {"dtype": "DT_FLOAT", "tensorShape": {"dim": [{"size": "5"}, {"size": "5"}, {"size": "1"}, {"size": "1"}]}}}}}, {"name": "ConstantFolding/split_62-folded-225", "op": "Const", "attr": {"value": {"tensor": {"dtype": "DT_FLOAT", "tensorShape": {"dim": [{"size": "5"}, {"size": "5"}, {"size": "1"}, {"size": "1"}]}}}, "dtype": {"type": "DT_FLOAT"}}}, {"name": "ConstantFolding/split_62-folded-226", "op": "Const", "attr": {"value": {"tensor": {"dtype": "DT_FLOAT", "tensorShape": {"dim": [{"size": "5"}, {"size": "5"}, {"size": "1"}, {"size": "1"}]}}}, "dtype": {"type": "DT_FLOAT"}}}, {"name": "ConstantFolding/split_62-folded-227", "op": "Const", "attr": {"dtype": {"type": "DT_FLOAT"}, "value": {"tensor": {"dtype": "DT_FLOAT", "tensorShape": {"dim": [{"size": "5"}, {"size": "5"}, {"size": "1"}, {"size": "1"}]}}}}}, {"name": "ConstantFolding/split_62-folded-228", "op": "Const", "attr": {"dtype": {"type": "DT_FLOAT"}, "value": {"tensor": {"dtype": "DT_FLOAT", "tensorShape": {"dim": [{"size": "5"}, {"size": "5"}, {"size": "1"}, {"size": "1"}]}}}}}, {"name": "ConstantFolding/split_62-folded-229", "op": "Const", "attr": {"dtype": {"type": "DT_FLOAT"}, "value": {"tensor": {"dtype": "DT_FLOAT", "tensorShape": {"dim": [{"size": "5"}, {"size": "5"}, {"size": "1"}, {"size": "1"}]}}}}}, {"name": "ConstantFolding/split_62-folded-230", "op": "Const", "attr": {"value": {"tensor": {"dtype": "DT_FLOAT", "tensorShape": {"dim": [{"size": "5"}, {"size": "5"}, {"size": "1"}, {"size": "1"}]}}}, "dtype": {"type": "DT_FLOAT"}}}, {"name": "ConstantFolding/split_62-folded-231", "op": "Const", "attr": {"value": {"tensor": {"dtype": "DT_FLOAT", "tensorShape": {"dim": [{"size": "5"}, {"size": "5"}, {"size": "1"}, {"size": "1"}]}}}, "dtype": {"type": "DT_FLOAT"}}}, {"name": "ConstantFolding/split_62-folded-232", "op": "Const", "attr": {"value": {"tensor": {"dtype": "DT_FLOAT", "tensorShape": {"dim": [{"size": "5"}, {"size": "5"}, {"size": "1"}, {"size": "1"}]}}}, "dtype": {"type": "DT_FLOAT"}}}, {"name": "ConstantFolding/split_62-folded-233", "op": "Const", "attr": {"value": {"tensor": {"dtype": "DT_FLOAT", "tensorShape": {"dim": [{"size": "5"}, {"size": "5"}, {"size": "1"}, {"size": "1"}]}}}, "dtype": {"type": "DT_FLOAT"}}}, {"name": "ConstantFolding/split_62-folded-234", "op": "Const", "attr": {"dtype": {"type": "DT_FLOAT"}, "value": {"tensor": {"dtype": "DT_FLOAT", "tensorShape": {"dim": [{"size": "5"}, {"size": "5"}, {"size": "1"}, {"size": "1"}]}}}}}, {"name": "ConstantFolding/split_62-folded-235", "op": "Const", "attr": {"value": {"tensor": {"dtype": "DT_FLOAT", "tensorShape": {"dim": [{"size": "5"}, {"size": "5"}, {"size": "1"}, {"size": "1"}]}}}, "dtype": {"type": "DT_FLOAT"}}}, {"name": "ConstantFolding/split_62-folded-236", "op": "Const", "attr": {"value": {"tensor": {"dtype": "DT_FLOAT", "tensorShape": {"dim": [{"size": "5"}, {"size": "5"}, {"size": "1"}, {"size": "1"}]}}}, "dtype": {"type": "DT_FLOAT"}}}, {"name": "ConstantFolding/split_62-folded-237", "op": "Const", "attr": {"value": {"tensor": {"dtype": "DT_FLOAT", "tensorShape": {"dim": [{"size": "5"}, {"size": "5"}, {"size": "1"}, {"size": "1"}]}}}, "dtype": {"type": "DT_FLOAT"}}}, {"name": "ConstantFolding/split_62-folded-238", "op": "Const", "attr": {"dtype": {"type": "DT_FLOAT"}, "value": {"tensor": {"dtype": "DT_FLOAT", "tensorShape": {"dim": [{"size": "5"}, {"size": "5"}, {"size": "1"}, {"size": "1"}]}}}}}, {"name": "ConstantFolding/split_62-folded-239", "op": "Const", "attr": {"dtype": {"type": "DT_FLOAT"}, "value": {"tensor": {"dtype": "DT_FLOAT", "tensorShape": {"dim": [{"size": "5"}, {"size": "5"}, {"size": "1"}, {"size": "1"}]}}}}}, {"name": "ConstantFolding/split_62-folded-240", "op": "Const", "attr": {"dtype": {"type": "DT_FLOAT"}, "value": {"tensor": {"dtype": "DT_FLOAT", "tensorShape": {"dim": [{"size": "5"}, {"size": "5"}, {"size": "1"}, {"size": "1"}]}}}}}, {"name": "ConstantFolding/split_62-folded-241", "op": "Const", "attr": {"value": {"tensor": {"dtype": "DT_FLOAT", "tensorShape": {"dim": [{"size": "5"}, {"size": "5"}, {"size": "1"}, {"size": "1"}]}}}, "dtype": {"type": "DT_FLOAT"}}}, {"name": "ConstantFolding/split_62-folded-242", "op": "Const", "attr": {"value": {"tensor": {"dtype": "DT_FLOAT", "tensorShape": {"dim": [{"size": "5"}, {"size": "5"}, {"size": "1"}, {"size": "1"}]}}}, "dtype": {"type": "DT_FLOAT"}}}, {"name": "ConstantFolding/split_62-folded-243", "op": "Const", "attr": {"value": {"tensor": {"dtype": "DT_FLOAT", "tensorShape": {"dim": [{"size": "5"}, {"size": "5"}, {"size": "1"}, {"size": "1"}]}}}, "dtype": {"type": "DT_FLOAT"}}}, {"name": "ConstantFolding/split_62-folded-244", "op": "Const", "attr": {"value": {"tensor": {"dtype": "DT_FLOAT", "tensorShape": {"dim": [{"size": "5"}, {"size": "5"}, {"size": "1"}, {"size": "1"}]}}}, "dtype": {"type": "DT_FLOAT"}}}, {"name": "ConstantFolding/split_62-folded-245", "op": "Const", "attr": {"dtype": {"type": "DT_FLOAT"}, "value": {"tensor": {"dtype": "DT_FLOAT", "tensorShape": {"dim": [{"size": "5"}, {"size": "5"}, {"size": "1"}, {"size": "1"}]}}}}}, {"name": "ConstantFolding/split_62-folded-246", "op": "Const", "attr": {"value": {"tensor": {"dtype": "DT_FLOAT", "tensorShape": {"dim": [{"size": "5"}, {"size": "5"}, {"size": "1"}, {"size": "1"}]}}}, "dtype": {"type": "DT_FLOAT"}}}, {"name": "ConstantFolding/split_62-folded-247", "op": "Const", "attr": {"value": {"tensor": {"dtype": "DT_FLOAT", "tensorShape": {"dim": [{"size": "5"}, {"size": "5"}, {"size": "1"}, {"size": "1"}]}}}, "dtype": {"type": "DT_FLOAT"}}}, {"name": "ConstantFolding/split_62-folded-248", "op": "Const", "attr": {"dtype": {"type": "DT_FLOAT"}, "value": {"tensor": {"dtype": "DT_FLOAT", "tensorShape": {"dim": [{"size": "5"}, {"size": "5"}, {"size": "1"}, {"size": "1"}]}}}}}, {"name": "ConstantFolding/split_62-folded-249", "op": "Const", "attr": {"dtype": {"type": "DT_FLOAT"}, "value": {"tensor": {"dtype": "DT_FLOAT", "tensorShape": {"dim": [{"size": "5"}, {"size": "5"}, {"size": "1"}, {"size": "1"}]}}}}}, {"name": "ConstantFolding/split_62-folded-250", "op": "Const", "attr": {"value": {"tensor": {"dtype": "DT_FLOAT", "tensorShape": {"dim": [{"size": "5"}, {"size": "5"}, {"size": "1"}, {"size": "1"}]}}}, "dtype": {"type": "DT_FLOAT"}}}, {"name": "ConstantFolding/split_62-folded-251", "op": "Const", "attr": {"value": {"tensor": {"dtype": "DT_FLOAT", "tensorShape": {"dim": [{"size": "5"}, {"size": "5"}, {"size": "1"}, {"size": "1"}]}}}, "dtype": {"type": "DT_FLOAT"}}}, {"name": "ConstantFolding/split_62-folded-252", "op": "Const", "attr": {"value": {"tensor": {"dtype": "DT_FLOAT", "tensorShape": {"dim": [{"size": "5"}, {"size": "5"}, {"size": "1"}, {"size": "1"}]}}}, "dtype": {"type": "DT_FLOAT"}}}, {"name": "ConstantFolding/split_62-folded-253", "op": "Const", "attr": {"dtype": {"type": "DT_FLOAT"}, "value": {"tensor": {"dtype": "DT_FLOAT", "tensorShape": {"dim": [{"size": "5"}, {"size": "5"}, {"size": "1"}, {"size": "1"}]}}}}}, {"name": "ConstantFolding/split_62-folded-254", "op": "Const", "attr": {"dtype": {"type": "DT_FLOAT"}, "value": {"tensor": {"dtype": "DT_FLOAT", "tensorShape": {"dim": [{"size": "5"}, {"size": "5"}, {"size": "1"}, {"size": "1"}]}}}}}, {"name": "BatchNormalization_118/mul", "op": "Const", "attr": {"value": {"tensor": {"dtype": "DT_FLOAT", "tensorShape": {"dim": [{"size": "1"}, {"size": "256"}, {"size": "1"}, {"size": "1"}]}}}, "dtype": {"type": "DT_FLOAT"}}}, {"name": "BatchNormalization_115/mul", "op": "Const", "attr": {"dtype": {"type": "DT_FLOAT"}, "value": {"tensor": {"dtype": "DT_FLOAT", "tensorShape": {"dim": [{"size": "1"}, {"size": "200"}, {"size": "1"}, {"size": "1"}]}}}}}, {"name": "ConstantFolding/split_58-folded-0", "op": "Const", "attr": {"dtype": {"type": "DT_FLOAT"}, "value": {"tensor": {"dtype": "DT_FLOAT", "tensorShape": {"dim": [{"size": "5"}, {"size": "5"}, {"size": "1"}, {"size": "1"}]}}}}}, {"name": "ConstantFolding/split_58-folded-1", "op": "Const", "attr": {"dtype": {"type": "DT_FLOAT"}, "value": {"tensor": {"dtype": "DT_FLOAT", "tensorShape": {"dim": [{"size": "5"}, {"size": "5"}, {"size": "1"}, {"size": "1"}]}}}}}, {"name": "ConstantFolding/split_58-folded-2", "op": "Const", "attr": {"dtype": {"type": "DT_FLOAT"}, "value": {"tensor": {"dtype": "DT_FLOAT", "tensorShape": {"dim": [{"size": "5"}, {"size": "5"}, {"size": "1"}, {"size": "1"}]}}}}}, {"name": "ConstantFolding/split_58-folded-3", "op": "Const", "attr": {"dtype": {"type": "DT_FLOAT"}, "value": {"tensor": {"dtype": "DT_FLOAT", "tensorShape": {"dim": [{"size": "5"}, {"size": "5"}, {"size": "1"}, {"size": "1"}]}}}}}, {"name": "ConstantFolding/split_58-folded-4", "op": "Const", "attr": {"value": {"tensor": {"dtype": "DT_FLOAT", "tensorShape": {"dim": [{"size": "5"}, {"size": "5"}, {"size": "1"}, {"size": "1"}]}}}, "dtype": {"type": "DT_FLOAT"}}}, {"name": "ConstantFolding/split_58-folded-5", "op": "Const", "attr": {"value": {"tensor": {"dtype": "DT_FLOAT", "tensorShape": {"dim": [{"size": "5"}, {"size": "5"}, {"size": "1"}, {"size": "1"}]}}}, "dtype": {"type": "DT_FLOAT"}}}, {"name": "ConstantFolding/split_58-folded-6", "op": "Const", "attr": {"value": {"tensor": {"dtype": "DT_FLOAT", "tensorShape": {"dim": [{"size": "5"}, {"size": "5"}, {"size": "1"}, {"size": "1"}]}}}, "dtype": {"type": "DT_FLOAT"}}}, {"name": "ConstantFolding/split_58-folded-7", "op": "Const", "attr": {"dtype": {"type": "DT_FLOAT"}, "value": {"tensor": {"dtype": "DT_FLOAT", "tensorShape": {"dim": [{"size": "5"}, {"size": "5"}, {"size": "1"}, {"size": "1"}]}}}}}, {"name": "ConstantFolding/split_58-folded-8", "op": "Const", "attr": {"dtype": {"type": "DT_FLOAT"}, "value": {"tensor": {"dtype": "DT_FLOAT", "tensorShape": {"dim": [{"size": "5"}, {"size": "5"}, {"size": "1"}, {"size": "1"}]}}}}}, {"name": "ConstantFolding/split_58-folded-9", "op": "Const", "attr": {"value": {"tensor": {"dtype": "DT_FLOAT", "tensorShape": {"dim": [{"size": "5"}, {"size": "5"}, {"size": "1"}, {"size": "1"}]}}}, "dtype": {"type": "DT_FLOAT"}}}, {"name": "ConstantFolding/split_58-folded-10", "op": "Const", "attr": {"dtype": {"type": "DT_FLOAT"}, "value": {"tensor": {"dtype": "DT_FLOAT", "tensorShape": {"dim": [{"size": "5"}, {"size": "5"}, {"size": "1"}, {"size": "1"}]}}}}}, {"name": "ConstantFolding/split_58-folded-11", "op": "Const", "attr": {"value": {"tensor": {"dtype": "DT_FLOAT", "tensorShape": {"dim": [{"size": "5"}, {"size": "5"}, {"size": "1"}, {"size": "1"}]}}}, "dtype": {"type": "DT_FLOAT"}}}, {"name": "ConstantFolding/split_58-folded-12", "op": "Const", "attr": {"value": {"tensor": {"dtype": "DT_FLOAT", "tensorShape": {"dim": [{"size": "5"}, {"size": "5"}, {"size": "1"}, {"size": "1"}]}}}, "dtype": {"type": "DT_FLOAT"}}}, {"name": "ConstantFolding/split_58-folded-13", "op": "Const", "attr": {"dtype": {"type": "DT_FLOAT"}, "value": {"tensor": {"dtype": "DT_FLOAT", "tensorShape": {"dim": [{"size": "5"}, {"size": "5"}, {"size": "1"}, {"size": "1"}]}}}}}, {"name": "ConstantFolding/split_58-folded-14", "op": "Const", "attr": {"dtype": {"type": "DT_FLOAT"}, "value": {"tensor": {"dtype": "DT_FLOAT", "tensorShape": {"dim": [{"size": "5"}, {"size": "5"}, {"size": "1"}, {"size": "1"}]}}}}}, {"name": "ConstantFolding/split_58-folded-15", "op": "Const", "attr": {"dtype": {"type": "DT_FLOAT"}, "value": {"tensor": {"dtype": "DT_FLOAT", "tensorShape": {"dim": [{"size": "5"}, {"size": "5"}, {"size": "1"}, {"size": "1"}]}}}}}, {"name": "ConstantFolding/split_58-folded-16", "op": "Const", "attr": {"dtype": {"type": "DT_FLOAT"}, "value": {"tensor": {"dtype": "DT_FLOAT", "tensorShape": {"dim": [{"size": "5"}, {"size": "5"}, {"size": "1"}, {"size": "1"}]}}}}}, {"name": "ConstantFolding/split_58-folded-17", "op": "Const", "attr": {"value": {"tensor": {"dtype": "DT_FLOAT", "tensorShape": {"dim": [{"size": "5"}, {"size": "5"}, {"size": "1"}, {"size": "1"}]}}}, "dtype": {"type": "DT_FLOAT"}}}, {"name": "ConstantFolding/split_58-folded-18", "op": "Const", "attr": {"dtype": {"type": "DT_FLOAT"}, "value": {"tensor": {"dtype": "DT_FLOAT", "tensorShape": {"dim": [{"size": "5"}, {"size": "5"}, {"size": "1"}, {"size": "1"}]}}}}}, {"name": "ConstantFolding/split_58-folded-19", "op": "Const", "attr": {"dtype": {"type": "DT_FLOAT"}, "value": {"tensor": {"dtype": "DT_FLOAT", "tensorShape": {"dim": [{"size": "5"}, {"size": "5"}, {"size": "1"}, {"size": "1"}]}}}}}, {"name": "ConstantFolding/split_58-folded-20", "op": "Const", "attr": {"dtype": {"type": "DT_FLOAT"}, "value": {"tensor": {"dtype": "DT_FLOAT", "tensorShape": {"dim": [{"size": "5"}, {"size": "5"}, {"size": "1"}, {"size": "1"}]}}}}}, {"name": "ConstantFolding/split_58-folded-21", "op": "Const", "attr": {"dtype": {"type": "DT_FLOAT"}, "value": {"tensor": {"dtype": "DT_FLOAT", "tensorShape": {"dim": [{"size": "5"}, {"size": "5"}, {"size": "1"}, {"size": "1"}]}}}}}, {"name": "ConstantFolding/split_58-folded-22", "op": "Const", "attr": {"dtype": {"type": "DT_FLOAT"}, "value": {"tensor": {"dtype": "DT_FLOAT", "tensorShape": {"dim": [{"size": "5"}, {"size": "5"}, {"size": "1"}, {"size": "1"}]}}}}}, {"name": "ConstantFolding/split_58-folded-23", "op": "Const", "attr": {"dtype": {"type": "DT_FLOAT"}, "value": {"tensor": {"dtype": "DT_FLOAT", "tensorShape": {"dim": [{"size": "5"}, {"size": "5"}, {"size": "1"}, {"size": "1"}]}}}}}, {"name": "ConstantFolding/split_58-folded-24", "op": "Const", "attr": {"dtype": {"type": "DT_FLOAT"}, "value": {"tensor": {"dtype": "DT_FLOAT", "tensorShape": {"dim": [{"size": "5"}, {"size": "5"}, {"size": "1"}, {"size": "1"}]}}}}}, {"name": "ConstantFolding/split_58-folded-25", "op": "Const", "attr": {"value": {"tensor": {"dtype": "DT_FLOAT", "tensorShape": {"dim": [{"size": "5"}, {"size": "5"}, {"size": "1"}, {"size": "1"}]}}}, "dtype": {"type": "DT_FLOAT"}}}, {"name": "ConstantFolding/split_58-folded-26", "op": "Const", "attr": {"value": {"tensor": {"dtype": "DT_FLOAT", "tensorShape": {"dim": [{"size": "5"}, {"size": "5"}, {"size": "1"}, {"size": "1"}]}}}, "dtype": {"type": "DT_FLOAT"}}}, {"name": "ConstantFolding/split_58-folded-27", "op": "Const", "attr": {"value": {"tensor": {"dtype": "DT_FLOAT", "tensorShape": {"dim": [{"size": "5"}, {"size": "5"}, {"size": "1"}, {"size": "1"}]}}}, "dtype": {"type": "DT_FLOAT"}}}, {"name": "ConstantFolding/split_58-folded-28", "op": "Const", "attr": {"value": {"tensor": {"dtype": "DT_FLOAT", "tensorShape": {"dim": [{"size": "5"}, {"size": "5"}, {"size": "1"}, {"size": "1"}]}}}, "dtype": {"type": "DT_FLOAT"}}}, {"name": "ConstantFolding/split_58-folded-29", "op": "Const", "attr": {"dtype": {"type": "DT_FLOAT"}, "value": {"tensor": {"dtype": "DT_FLOAT", "tensorShape": {"dim": [{"size": "5"}, {"size": "5"}, {"size": "1"}, {"size": "1"}]}}}}}, {"name": "ConstantFolding/split_58-folded-30", "op": "Const", "attr": {"value": {"tensor": {"dtype": "DT_FLOAT", "tensorShape": {"dim": [{"size": "5"}, {"size": "5"}, {"size": "1"}, {"size": "1"}]}}}, "dtype": {"type": "DT_FLOAT"}}}, {"name": "ConstantFolding/split_58-folded-31", "op": "Const", "attr": {"value": {"tensor": {"dtype": "DT_FLOAT", "tensorShape": {"dim": [{"size": "5"}, {"size": "5"}, {"size": "1"}, {"size": "1"}]}}}, "dtype": {"type": "DT_FLOAT"}}}, {"name": "ConstantFolding/split_58-folded-32", "op": "Const", "attr": {"value": {"tensor": {"dtype": "DT_FLOAT", "tensorShape": {"dim": [{"size": "5"}, {"size": "5"}, {"size": "1"}, {"size": "1"}]}}}, "dtype": {"type": "DT_FLOAT"}}}, {"name": "ConstantFolding/split_58-folded-33", "op": "Const", "attr": {"value": {"tensor": {"dtype": "DT_FLOAT", "tensorShape": {"dim": [{"size": "5"}, {"size": "5"}, {"size": "1"}, {"size": "1"}]}}}, "dtype": {"type": "DT_FLOAT"}}}, {"name": "ConstantFolding/split_58-folded-34", "op": "Const", "attr": {"value": {"tensor": {"dtype": "DT_FLOAT", "tensorShape": {"dim": [{"size": "5"}, {"size": "5"}, {"size": "1"}, {"size": "1"}]}}}, "dtype": {"type": "DT_FLOAT"}}}, {"name": "ConstantFolding/split_58-folded-35", "op": "Const", "attr": {"value": {"tensor": {"dtype": "DT_FLOAT", "tensorShape": {"dim": [{"size": "5"}, {"size": "5"}, {"size": "1"}, {"size": "1"}]}}}, "dtype": {"type": "DT_FLOAT"}}}, {"name": "ConstantFolding/split_58-folded-36", "op": "Const", "attr": {"dtype": {"type": "DT_FLOAT"}, "value": {"tensor": {"dtype": "DT_FLOAT", "tensorShape": {"dim": [{"size": "5"}, {"size": "5"}, {"size": "1"}, {"size": "1"}]}}}}}, {"name": "ConstantFolding/split_58-folded-37", "op": "Const", "attr": {"dtype": {"type": "DT_FLOAT"}, "value": {"tensor": {"dtype": "DT_FLOAT", "tensorShape": {"dim": [{"size": "5"}, {"size": "5"}, {"size": "1"}, {"size": "1"}]}}}}}, {"name": "ConstantFolding/split_58-folded-38", "op": "Const", "attr": {"dtype": {"type": "DT_FLOAT"}, "value": {"tensor": {"dtype": "DT_FLOAT", "tensorShape": {"dim": [{"size": "5"}, {"size": "5"}, {"size": "1"}, {"size": "1"}]}}}}}, {"name": "ConstantFolding/split_58-folded-39", "op": "Const", "attr": {"value": {"tensor": {"dtype": "DT_FLOAT", "tensorShape": {"dim": [{"size": "5"}, {"size": "5"}, {"size": "1"}, {"size": "1"}]}}}, "dtype": {"type": "DT_FLOAT"}}}, {"name": "ConstantFolding/split_58-folded-40", "op": "Const", "attr": {"dtype": {"type": "DT_FLOAT"}, "value": {"tensor": {"dtype": "DT_FLOAT", "tensorShape": {"dim": [{"size": "5"}, {"size": "5"}, {"size": "1"}, {"size": "1"}]}}}}}, {"name": "ConstantFolding/split_58-folded-41", "op": "Const", "attr": {"value": {"tensor": {"dtype": "DT_FLOAT", "tensorShape": {"dim": [{"size": "5"}, {"size": "5"}, {"size": "1"}, {"size": "1"}]}}}, "dtype": {"type": "DT_FLOAT"}}}, {"name": "ConstantFolding/split_58-folded-42", "op": "Const", "attr": {"dtype": {"type": "DT_FLOAT"}, "value": {"tensor": {"dtype": "DT_FLOAT", "tensorShape": {"dim": [{"size": "5"}, {"size": "5"}, {"size": "1"}, {"size": "1"}]}}}}}, {"name": "ConstantFolding/split_58-folded-43", "op": "Const", "attr": {"value": {"tensor": {"dtype": "DT_FLOAT", "tensorShape": {"dim": [{"size": "5"}, {"size": "5"}, {"size": "1"}, {"size": "1"}]}}}, "dtype": {"type": "DT_FLOAT"}}}, {"name": "ConstantFolding/split_58-folded-44", "op": "Const", "attr": {"dtype": {"type": "DT_FLOAT"}, "value": {"tensor": {"dtype": "DT_FLOAT", "tensorShape": {"dim": [{"size": "5"}, {"size": "5"}, {"size": "1"}, {"size": "1"}]}}}}}, {"name": "ConstantFolding/split_58-folded-45", "op": "Const", "attr": {"dtype": {"type": "DT_FLOAT"}, "value": {"tensor": {"dtype": "DT_FLOAT", "tensorShape": {"dim": [{"size": "5"}, {"size": "5"}, {"size": "1"}, {"size": "1"}]}}}}}, {"name": "ConstantFolding/split_58-folded-46", "op": "Const", "attr": {"dtype": {"type": "DT_FLOAT"}, "value": {"tensor": {"dtype": "DT_FLOAT", "tensorShape": {"dim": [{"size": "5"}, {"size": "5"}, {"size": "1"}, {"size": "1"}]}}}}}, {"name": "ConstantFolding/split_58-folded-47", "op": "Const", "attr": {"dtype": {"type": "DT_FLOAT"}, "value": {"tensor": {"dtype": "DT_FLOAT", "tensorShape": {"dim": [{"size": "5"}, {"size": "5"}, {"size": "1"}, {"size": "1"}]}}}}}, {"name": "ConstantFolding/split_58-folded-48", "op": "Const", "attr": {"value": {"tensor": {"dtype": "DT_FLOAT", "tensorShape": {"dim": [{"size": "5"}, {"size": "5"}, {"size": "1"}, {"size": "1"}]}}}, "dtype": {"type": "DT_FLOAT"}}}, {"name": "ConstantFolding/split_58-folded-49", "op": "Const", "attr": {"value": {"tensor": {"dtype": "DT_FLOAT", "tensorShape": {"dim": [{"size": "5"}, {"size": "5"}, {"size": "1"}, {"size": "1"}]}}}, "dtype": {"type": "DT_FLOAT"}}}, {"name": "ConstantFolding/split_58-folded-50", "op": "Const", "attr": {"value": {"tensor": {"dtype": "DT_FLOAT", "tensorShape": {"dim": [{"size": "5"}, {"size": "5"}, {"size": "1"}, {"size": "1"}]}}}, "dtype": {"type": "DT_FLOAT"}}}, {"name": "ConstantFolding/split_58-folded-51", "op": "Const", "attr": {"value": {"tensor": {"dtype": "DT_FLOAT", "tensorShape": {"dim": [{"size": "5"}, {"size": "5"}, {"size": "1"}, {"size": "1"}]}}}, "dtype": {"type": "DT_FLOAT"}}}, {"name": "ConstantFolding/split_58-folded-52", "op": "Const", "attr": {"value": {"tensor": {"dtype": "DT_FLOAT", "tensorShape": {"dim": [{"size": "5"}, {"size": "5"}, {"size": "1"}, {"size": "1"}]}}}, "dtype": {"type": "DT_FLOAT"}}}, {"name": "ConstantFolding/split_58-folded-53", "op": "Const", "attr": {"value": {"tensor": {"dtype": "DT_FLOAT", "tensorShape": {"dim": [{"size": "5"}, {"size": "5"}, {"size": "1"}, {"size": "1"}]}}}, "dtype": {"type": "DT_FLOAT"}}}, {"name": "ConstantFolding/split_58-folded-54", "op": "Const", "attr": {"dtype": {"type": "DT_FLOAT"}, "value": {"tensor": {"dtype": "DT_FLOAT", "tensorShape": {"dim": [{"size": "5"}, {"size": "5"}, {"size": "1"}, {"size": "1"}]}}}}}, {"name": "ConstantFolding/split_58-folded-55", "op": "Const", "attr": {"dtype": {"type": "DT_FLOAT"}, "value": {"tensor": {"dtype": "DT_FLOAT", "tensorShape": {"dim": [{"size": "5"}, {"size": "5"}, {"size": "1"}, {"size": "1"}]}}}}}, {"name": "ConstantFolding/split_58-folded-56", "op": "Const", "attr": {"dtype": {"type": "DT_FLOAT"}, "value": {"tensor": {"dtype": "DT_FLOAT", "tensorShape": {"dim": [{"size": "5"}, {"size": "5"}, {"size": "1"}, {"size": "1"}]}}}}}, {"name": "ConstantFolding/split_58-folded-57", "op": "Const", "attr": {"dtype": {"type": "DT_FLOAT"}, "value": {"tensor": {"dtype": "DT_FLOAT", "tensorShape": {"dim": [{"size": "5"}, {"size": "5"}, {"size": "1"}, {"size": "1"}]}}}}}, {"name": "ConstantFolding/split_58-folded-58", "op": "Const", "attr": {"value": {"tensor": {"dtype": "DT_FLOAT", "tensorShape": {"dim": [{"size": "5"}, {"size": "5"}, {"size": "1"}, {"size": "1"}]}}}, "dtype": {"type": "DT_FLOAT"}}}, {"name": "ConstantFolding/split_58-folded-59", "op": "Const", "attr": {"value": {"tensor": {"dtype": "DT_FLOAT", "tensorShape": {"dim": [{"size": "5"}, {"size": "5"}, {"size": "1"}, {"size": "1"}]}}}, "dtype": {"type": "DT_FLOAT"}}}, {"name": "ConstantFolding/split_58-folded-60", "op": "Const", "attr": {"dtype": {"type": "DT_FLOAT"}, "value": {"tensor": {"dtype": "DT_FLOAT", "tensorShape": {"dim": [{"size": "5"}, {"size": "5"}, {"size": "1"}, {"size": "1"}]}}}}}, {"name": "ConstantFolding/split_58-folded-61", "op": "Const", "attr": {"dtype": {"type": "DT_FLOAT"}, "value": {"tensor": {"dtype": "DT_FLOAT", "tensorShape": {"dim": [{"size": "5"}, {"size": "5"}, {"size": "1"}, {"size": "1"}]}}}}}, {"name": "ConstantFolding/split_58-folded-62", "op": "Const", "attr": {"value": {"tensor": {"dtype": "DT_FLOAT", "tensorShape": {"dim": [{"size": "5"}, {"size": "5"}, {"size": "1"}, {"size": "1"}]}}}, "dtype": {"type": "DT_FLOAT"}}}, {"name": "ConstantFolding/split_58-folded-63", "op": "Const", "attr": {"dtype": {"type": "DT_FLOAT"}, "value": {"tensor": {"dtype": "DT_FLOAT", "tensorShape": {"dim": [{"size": "5"}, {"size": "5"}, {"size": "1"}, {"size": "1"}]}}}}}, {"name": "ConstantFolding/split_58-folded-64", "op": "Const", "attr": {"dtype": {"type": "DT_FLOAT"}, "value": {"tensor": {"dtype": "DT_FLOAT", "tensorShape": {"dim": [{"size": "5"}, {"size": "5"}, {"size": "1"}, {"size": "1"}]}}}}}, {"name": "ConstantFolding/split_58-folded-65", "op": "Const", "attr": {"dtype": {"type": "DT_FLOAT"}, "value": {"tensor": {"dtype": "DT_FLOAT", "tensorShape": {"dim": [{"size": "5"}, {"size": "5"}, {"size": "1"}, {"size": "1"}]}}}}}, {"name": "ConstantFolding/split_58-folded-66", "op": "Const", "attr": {"dtype": {"type": "DT_FLOAT"}, "value": {"tensor": {"dtype": "DT_FLOAT", "tensorShape": {"dim": [{"size": "5"}, {"size": "5"}, {"size": "1"}, {"size": "1"}]}}}}}, {"name": "ConstantFolding/split_58-folded-67", "op": "Const", "attr": {"value": {"tensor": {"dtype": "DT_FLOAT", "tensorShape": {"dim": [{"size": "5"}, {"size": "5"}, {"size": "1"}, {"size": "1"}]}}}, "dtype": {"type": "DT_FLOAT"}}}, {"name": "ConstantFolding/split_58-folded-68", "op": "Const", "attr": {"value": {"tensor": {"dtype": "DT_FLOAT", "tensorShape": {"dim": [{"size": "5"}, {"size": "5"}, {"size": "1"}, {"size": "1"}]}}}, "dtype": {"type": "DT_FLOAT"}}}, {"name": "ConstantFolding/split_58-folded-69", "op": "Const", "attr": {"value": {"tensor": {"dtype": "DT_FLOAT", "tensorShape": {"dim": [{"size": "5"}, {"size": "5"}, {"size": "1"}, {"size": "1"}]}}}, "dtype": {"type": "DT_FLOAT"}}}, {"name": "ConstantFolding/split_58-folded-70", "op": "Const", "attr": {"value": {"tensor": {"dtype": "DT_FLOAT", "tensorShape": {"dim": [{"size": "5"}, {"size": "5"}, {"size": "1"}, {"size": "1"}]}}}, "dtype": {"type": "DT_FLOAT"}}}, {"name": "ConstantFolding/split_58-folded-71", "op": "Const", "attr": {"value": {"tensor": {"dtype": "DT_FLOAT", "tensorShape": {"dim": [{"size": "5"}, {"size": "5"}, {"size": "1"}, {"size": "1"}]}}}, "dtype": {"type": "DT_FLOAT"}}}, {"name": "ConstantFolding/split_58-folded-72", "op": "Const", "attr": {"dtype": {"type": "DT_FLOAT"}, "value": {"tensor": {"dtype": "DT_FLOAT", "tensorShape": {"dim": [{"size": "5"}, {"size": "5"}, {"size": "1"}, {"size": "1"}]}}}}}, {"name": "ConstantFolding/split_58-folded-73", "op": "Const", "attr": {"dtype": {"type": "DT_FLOAT"}, "value": {"tensor": {"dtype": "DT_FLOAT", "tensorShape": {"dim": [{"size": "5"}, {"size": "5"}, {"size": "1"}, {"size": "1"}]}}}}}, {"name": "ConstantFolding/split_58-folded-74", "op": "Const", "attr": {"dtype": {"type": "DT_FLOAT"}, "value": {"tensor": {"dtype": "DT_FLOAT", "tensorShape": {"dim": [{"size": "5"}, {"size": "5"}, {"size": "1"}, {"size": "1"}]}}}}}, {"name": "ConstantFolding/split_58-folded-75", "op": "Const", "attr": {"value": {"tensor": {"dtype": "DT_FLOAT", "tensorShape": {"dim": [{"size": "5"}, {"size": "5"}, {"size": "1"}, {"size": "1"}]}}}, "dtype": {"type": "DT_FLOAT"}}}, {"name": "ConstantFolding/split_58-folded-76", "op": "Const", "attr": {"dtype": {"type": "DT_FLOAT"}, "value": {"tensor": {"dtype": "DT_FLOAT", "tensorShape": {"dim": [{"size": "5"}, {"size": "5"}, {"size": "1"}, {"size": "1"}]}}}}}, {"name": "ConstantFolding/split_58-folded-77", "op": "Const", "attr": {"dtype": {"type": "DT_FLOAT"}, "value": {"tensor": {"dtype": "DT_FLOAT", "tensorShape": {"dim": [{"size": "5"}, {"size": "5"}, {"size": "1"}, {"size": "1"}]}}}}}, {"name": "ConstantFolding/split_58-folded-78", "op": "Const", "attr": {"dtype": {"type": "DT_FLOAT"}, "value": {"tensor": {"dtype": "DT_FLOAT", "tensorShape": {"dim": [{"size": "5"}, {"size": "5"}, {"size": "1"}, {"size": "1"}]}}}}}, {"name": "ConstantFolding/split_58-folded-79", "op": "Const", "attr": {"value": {"tensor": {"dtype": "DT_FLOAT", "tensorShape": {"dim": [{"size": "5"}, {"size": "5"}, {"size": "1"}, {"size": "1"}]}}}, "dtype": {"type": "DT_FLOAT"}}}, {"name": "ConstantFolding/split_58-folded-80", "op": "Const", "attr": {"dtype": {"type": "DT_FLOAT"}, "value": {"tensor": {"dtype": "DT_FLOAT", "tensorShape": {"dim": [{"size": "5"}, {"size": "5"}, {"size": "1"}, {"size": "1"}]}}}}}, {"name": "ConstantFolding/split_58-folded-81", "op": "Const", "attr": {"dtype": {"type": "DT_FLOAT"}, "value": {"tensor": {"dtype": "DT_FLOAT", "tensorShape": {"dim": [{"size": "5"}, {"size": "5"}, {"size": "1"}, {"size": "1"}]}}}}}, {"name": "ConstantFolding/split_58-folded-82", "op": "Const", "attr": {"dtype": {"type": "DT_FLOAT"}, "value": {"tensor": {"dtype": "DT_FLOAT", "tensorShape": {"dim": [{"size": "5"}, {"size": "5"}, {"size": "1"}, {"size": "1"}]}}}}}, {"name": "ConstantFolding/split_58-folded-83", "op": "Const", "attr": {"dtype": {"type": "DT_FLOAT"}, "value": {"tensor": {"dtype": "DT_FLOAT", "tensorShape": {"dim": [{"size": "5"}, {"size": "5"}, {"size": "1"}, {"size": "1"}]}}}}}, {"name": "ConstantFolding/split_58-folded-84", "op": "Const", "attr": {"value": {"tensor": {"dtype": "DT_FLOAT", "tensorShape": {"dim": [{"size": "5"}, {"size": "5"}, {"size": "1"}, {"size": "1"}]}}}, "dtype": {"type": "DT_FLOAT"}}}, {"name": "ConstantFolding/split_58-folded-85", "op": "Const", "attr": {"dtype": {"type": "DT_FLOAT"}, "value": {"tensor": {"dtype": "DT_FLOAT", "tensorShape": {"dim": [{"size": "5"}, {"size": "5"}, {"size": "1"}, {"size": "1"}]}}}}}, {"name": "ConstantFolding/split_58-folded-86", "op": "Const", "attr": {"value": {"tensor": {"dtype": "DT_FLOAT", "tensorShape": {"dim": [{"size": "5"}, {"size": "5"}, {"size": "1"}, {"size": "1"}]}}}, "dtype": {"type": "DT_FLOAT"}}}, {"name": "ConstantFolding/split_58-folded-87", "op": "Const", "attr": {"value": {"tensor": {"dtype": "DT_FLOAT", "tensorShape": {"dim": [{"size": "5"}, {"size": "5"}, {"size": "1"}, {"size": "1"}]}}}, "dtype": {"type": "DT_FLOAT"}}}, {"name": "ConstantFolding/split_58-folded-88", "op": "Const", "attr": {"value": {"tensor": {"dtype": "DT_FLOAT", "tensorShape": {"dim": [{"size": "5"}, {"size": "5"}, {"size": "1"}, {"size": "1"}]}}}, "dtype": {"type": "DT_FLOAT"}}}, {"name": "ConstantFolding/split_58-folded-89", "op": "Const", "attr": {"dtype": {"type": "DT_FLOAT"}, "value": {"tensor": {"dtype": "DT_FLOAT", "tensorShape": {"dim": [{"size": "5"}, {"size": "5"}, {"size": "1"}, {"size": "1"}]}}}}}, {"name": "ConstantFolding/split_58-folded-90", "op": "Const", "attr": {"dtype": {"type": "DT_FLOAT"}, "value": {"tensor": {"dtype": "DT_FLOAT", "tensorShape": {"dim": [{"size": "5"}, {"size": "5"}, {"size": "1"}, {"size": "1"}]}}}}}, {"name": "ConstantFolding/split_58-folded-91", "op": "Const", "attr": {"dtype": {"type": "DT_FLOAT"}, "value": {"tensor": {"dtype": "DT_FLOAT", "tensorShape": {"dim": [{"size": "5"}, {"size": "5"}, {"size": "1"}, {"size": "1"}]}}}}}, {"name": "ConstantFolding/split_58-folded-92", "op": "Const", "attr": {"value": {"tensor": {"dtype": "DT_FLOAT", "tensorShape": {"dim": [{"size": "5"}, {"size": "5"}, {"size": "1"}, {"size": "1"}]}}}, "dtype": {"type": "DT_FLOAT"}}}, {"name": "ConstantFolding/split_58-folded-93", "op": "Const", "attr": {"dtype": {"type": "DT_FLOAT"}, "value": {"tensor": {"dtype": "DT_FLOAT", "tensorShape": {"dim": [{"size": "5"}, {"size": "5"}, {"size": "1"}, {"size": "1"}]}}}}}, {"name": "ConstantFolding/split_58-folded-94", "op": "Const", "attr": {"dtype": {"type": "DT_FLOAT"}, "value": {"tensor": {"dtype": "DT_FLOAT", "tensorShape": {"dim": [{"size": "5"}, {"size": "5"}, {"size": "1"}, {"size": "1"}]}}}}}, {"name": "ConstantFolding/split_58-folded-95", "op": "Const", "attr": {"dtype": {"type": "DT_FLOAT"}, "value": {"tensor": {"dtype": "DT_FLOAT", "tensorShape": {"dim": [{"size": "5"}, {"size": "5"}, {"size": "1"}, {"size": "1"}]}}}}}, {"name": "ConstantFolding/split_58-folded-96", "op": "Const", "attr": {"dtype": {"type": "DT_FLOAT"}, "value": {"tensor": {"dtype": "DT_FLOAT", "tensorShape": {"dim": [{"size": "5"}, {"size": "5"}, {"size": "1"}, {"size": "1"}]}}}}}, {"name": "ConstantFolding/split_58-folded-97", "op": "Const", "attr": {"value": {"tensor": {"dtype": "DT_FLOAT", "tensorShape": {"dim": [{"size": "5"}, {"size": "5"}, {"size": "1"}, {"size": "1"}]}}}, "dtype": {"type": "DT_FLOAT"}}}, {"name": "ConstantFolding/split_58-folded-98", "op": "Const", "attr": {"value": {"tensor": {"dtype": "DT_FLOAT", "tensorShape": {"dim": [{"size": "5"}, {"size": "5"}, {"size": "1"}, {"size": "1"}]}}}, "dtype": {"type": "DT_FLOAT"}}}, {"name": "ConstantFolding/split_58-folded-99", "op": "Const", "attr": {"dtype": {"type": "DT_FLOAT"}, "value": {"tensor": {"dtype": "DT_FLOAT", "tensorShape": {"dim": [{"size": "5"}, {"size": "5"}, {"size": "1"}, {"size": "1"}]}}}}}, {"name": "ConstantFolding/split_58-folded-100", "op": "Const", "attr": {"dtype": {"type": "DT_FLOAT"}, "value": {"tensor": {"dtype": "DT_FLOAT", "tensorShape": {"dim": [{"size": "5"}, {"size": "5"}, {"size": "1"}, {"size": "1"}]}}}}}, {"name": "ConstantFolding/split_58-folded-101", "op": "Const", "attr": {"value": {"tensor": {"dtype": "DT_FLOAT", "tensorShape": {"dim": [{"size": "5"}, {"size": "5"}, {"size": "1"}, {"size": "1"}]}}}, "dtype": {"type": "DT_FLOAT"}}}, {"name": "ConstantFolding/split_58-folded-102", "op": "Const", "attr": {"value": {"tensor": {"dtype": "DT_FLOAT", "tensorShape": {"dim": [{"size": "5"}, {"size": "5"}, {"size": "1"}, {"size": "1"}]}}}, "dtype": {"type": "DT_FLOAT"}}}, {"name": "ConstantFolding/split_58-folded-103", "op": "Const", "attr": {"value": {"tensor": {"dtype": "DT_FLOAT", "tensorShape": {"dim": [{"size": "5"}, {"size": "5"}, {"size": "1"}, {"size": "1"}]}}}, "dtype": {"type": "DT_FLOAT"}}}, {"name": "ConstantFolding/split_58-folded-104", "op": "Const", "attr": {"dtype": {"type": "DT_FLOAT"}, "value": {"tensor": {"dtype": "DT_FLOAT", "tensorShape": {"dim": [{"size": "5"}, {"size": "5"}, {"size": "1"}, {"size": "1"}]}}}}}, {"name": "ConstantFolding/split_58-folded-105", "op": "Const", "attr": {"dtype": {"type": "DT_FLOAT"}, "value": {"tensor": {"dtype": "DT_FLOAT", "tensorShape": {"dim": [{"size": "5"}, {"size": "5"}, {"size": "1"}, {"size": "1"}]}}}}}, {"name": "ConstantFolding/split_58-folded-106", "op": "Const", "attr": {"value": {"tensor": {"dtype": "DT_FLOAT", "tensorShape": {"dim": [{"size": "5"}, {"size": "5"}, {"size": "1"}, {"size": "1"}]}}}, "dtype": {"type": "DT_FLOAT"}}}, {"name": "ConstantFolding/split_58-folded-107", "op": "Const", "attr": {"value": {"tensor": {"dtype": "DT_FLOAT", "tensorShape": {"dim": [{"size": "5"}, {"size": "5"}, {"size": "1"}, {"size": "1"}]}}}, "dtype": {"type": "DT_FLOAT"}}}, {"name": "ConstantFolding/split_58-folded-108", "op": "Const", "attr": {"dtype": {"type": "DT_FLOAT"}, "value": {"tensor": {"dtype": "DT_FLOAT", "tensorShape": {"dim": [{"size": "5"}, {"size": "5"}, {"size": "1"}, {"size": "1"}]}}}}}, {"name": "ConstantFolding/split_58-folded-109", "op": "Const", "attr": {"dtype": {"type": "DT_FLOAT"}, "value": {"tensor": {"dtype": "DT_FLOAT", "tensorShape": {"dim": [{"size": "5"}, {"size": "5"}, {"size": "1"}, {"size": "1"}]}}}}}, {"name": "ConstantFolding/split_58-folded-110", "op": "Const", "attr": {"value": {"tensor": {"dtype": "DT_FLOAT", "tensorShape": {"dim": [{"size": "5"}, {"size": "5"}, {"size": "1"}, {"size": "1"}]}}}, "dtype": {"type": "DT_FLOAT"}}}, {"name": "ConstantFolding/split_58-folded-111", "op": "Const", "attr": {"dtype": {"type": "DT_FLOAT"}, "value": {"tensor": {"dtype": "DT_FLOAT", "tensorShape": {"dim": [{"size": "5"}, {"size": "5"}, {"size": "1"}, {"size": "1"}]}}}}}, {"name": "ConstantFolding/split_58-folded-112", "op": "Const", "attr": {"dtype": {"type": "DT_FLOAT"}, "value": {"tensor": {"dtype": "DT_FLOAT", "tensorShape": {"dim": [{"size": "5"}, {"size": "5"}, {"size": "1"}, {"size": "1"}]}}}}}, {"name": "ConstantFolding/split_58-folded-113", "op": "Const", "attr": {"dtype": {"type": "DT_FLOAT"}, "value": {"tensor": {"dtype": "DT_FLOAT", "tensorShape": {"dim": [{"size": "5"}, {"size": "5"}, {"size": "1"}, {"size": "1"}]}}}}}, {"name": "ConstantFolding/split_58-folded-114", "op": "Const", "attr": {"dtype": {"type": "DT_FLOAT"}, "value": {"tensor": {"dtype": "DT_FLOAT", "tensorShape": {"dim": [{"size": "5"}, {"size": "5"}, {"size": "1"}, {"size": "1"}]}}}}}, {"name": "ConstantFolding/split_58-folded-115", "op": "Const", "attr": {"value": {"tensor": {"dtype": "DT_FLOAT", "tensorShape": {"dim": [{"size": "5"}, {"size": "5"}, {"size": "1"}, {"size": "1"}]}}}, "dtype": {"type": "DT_FLOAT"}}}, {"name": "ConstantFolding/split_58-folded-116", "op": "Const", "attr": {"value": {"tensor": {"dtype": "DT_FLOAT", "tensorShape": {"dim": [{"size": "5"}, {"size": "5"}, {"size": "1"}, {"size": "1"}]}}}, "dtype": {"type": "DT_FLOAT"}}}, {"name": "ConstantFolding/split_58-folded-117", "op": "Const", "attr": {"dtype": {"type": "DT_FLOAT"}, "value": {"tensor": {"dtype": "DT_FLOAT", "tensorShape": {"dim": [{"size": "5"}, {"size": "5"}, {"size": "1"}, {"size": "1"}]}}}}}, {"name": "ConstantFolding/split_58-folded-118", "op": "Const", "attr": {"value": {"tensor": {"dtype": "DT_FLOAT", "tensorShape": {"dim": [{"size": "5"}, {"size": "5"}, {"size": "1"}, {"size": "1"}]}}}, "dtype": {"type": "DT_FLOAT"}}}, {"name": "ConstantFolding/split_58-folded-119", "op": "Const", "attr": {"value": {"tensor": {"dtype": "DT_FLOAT", "tensorShape": {"dim": [{"size": "5"}, {"size": "5"}, {"size": "1"}, {"size": "1"}]}}}, "dtype": {"type": "DT_FLOAT"}}}, {"name": "ConstantFolding/split_58-folded-120", "op": "Const", "attr": {"value": {"tensor": {"dtype": "DT_FLOAT", "tensorShape": {"dim": [{"size": "5"}, {"size": "5"}, {"size": "1"}, {"size": "1"}]}}}, "dtype": {"type": "DT_FLOAT"}}}, {"name": "ConstantFolding/split_58-folded-121", "op": "Const", "attr": {"value": {"tensor": {"dtype": "DT_FLOAT", "tensorShape": {"dim": [{"size": "5"}, {"size": "5"}, {"size": "1"}, {"size": "1"}]}}}, "dtype": {"type": "DT_FLOAT"}}}, {"name": "ConstantFolding/split_58-folded-122", "op": "Const", "attr": {"dtype": {"type": "DT_FLOAT"}, "value": {"tensor": {"dtype": "DT_FLOAT", "tensorShape": {"dim": [{"size": "5"}, {"size": "5"}, {"size": "1"}, {"size": "1"}]}}}}}, {"name": "ConstantFolding/split_58-folded-123", "op": "Const", "attr": {"dtype": {"type": "DT_FLOAT"}, "value": {"tensor": {"dtype": "DT_FLOAT", "tensorShape": {"dim": [{"size": "5"}, {"size": "5"}, {"size": "1"}, {"size": "1"}]}}}}}, {"name": "ConstantFolding/split_58-folded-124", "op": "Const", "attr": {"value": {"tensor": {"dtype": "DT_FLOAT", "tensorShape": {"dim": [{"size": "5"}, {"size": "5"}, {"size": "1"}, {"size": "1"}]}}}, "dtype": {"type": "DT_FLOAT"}}}, {"name": "ConstantFolding/split_58-folded-125", "op": "Const", "attr": {"value": {"tensor": {"dtype": "DT_FLOAT", "tensorShape": {"dim": [{"size": "5"}, {"size": "5"}, {"size": "1"}, {"size": "1"}]}}}, "dtype": {"type": "DT_FLOAT"}}}, {"name": "ConstantFolding/split_58-folded-126", "op": "Const", "attr": {"dtype": {"type": "DT_FLOAT"}, "value": {"tensor": {"dtype": "DT_FLOAT", "tensorShape": {"dim": [{"size": "5"}, {"size": "5"}, {"size": "1"}, {"size": "1"}]}}}}}, {"name": "ConstantFolding/split_58-folded-127", "op": "Const", "attr": {"dtype": {"type": "DT_FLOAT"}, "value": {"tensor": {"dtype": "DT_FLOAT", "tensorShape": {"dim": [{"size": "5"}, {"size": "5"}, {"size": "1"}, {"size": "1"}]}}}}}, {"name": "ConstantFolding/split_58-folded-128", "op": "Const", "attr": {"dtype": {"type": "DT_FLOAT"}, "value": {"tensor": {"dtype": "DT_FLOAT", "tensorShape": {"dim": [{"size": "5"}, {"size": "5"}, {"size": "1"}, {"size": "1"}]}}}}}, {"name": "ConstantFolding/split_58-folded-129", "op": "Const", "attr": {"value": {"tensor": {"dtype": "DT_FLOAT", "tensorShape": {"dim": [{"size": "5"}, {"size": "5"}, {"size": "1"}, {"size": "1"}]}}}, "dtype": {"type": "DT_FLOAT"}}}, {"name": "ConstantFolding/split_58-folded-130", "op": "Const", "attr": {"value": {"tensor": {"dtype": "DT_FLOAT", "tensorShape": {"dim": [{"size": "5"}, {"size": "5"}, {"size": "1"}, {"size": "1"}]}}}, "dtype": {"type": "DT_FLOAT"}}}, {"name": "ConstantFolding/split_58-folded-131", "op": "Const", "attr": {"dtype": {"type": "DT_FLOAT"}, "value": {"tensor": {"dtype": "DT_FLOAT", "tensorShape": {"dim": [{"size": "5"}, {"size": "5"}, {"size": "1"}, {"size": "1"}]}}}}}, {"name": "ConstantFolding/split_58-folded-132", "op": "Const", "attr": {"dtype": {"type": "DT_FLOAT"}, "value": {"tensor": {"dtype": "DT_FLOAT", "tensorShape": {"dim": [{"size": "5"}, {"size": "5"}, {"size": "1"}, {"size": "1"}]}}}}}, {"name": "ConstantFolding/split_58-folded-133", "op": "Const", "attr": {"dtype": {"type": "DT_FLOAT"}, "value": {"tensor": {"dtype": "DT_FLOAT", "tensorShape": {"dim": [{"size": "5"}, {"size": "5"}, {"size": "1"}, {"size": "1"}]}}}}}, {"name": "ConstantFolding/split_58-folded-134", "op": "Const", "attr": {"value": {"tensor": {"dtype": "DT_FLOAT", "tensorShape": {"dim": [{"size": "5"}, {"size": "5"}, {"size": "1"}, {"size": "1"}]}}}, "dtype": {"type": "DT_FLOAT"}}}, {"name": "ConstantFolding/split_58-folded-135", "op": "Const", "attr": {"dtype": {"type": "DT_FLOAT"}, "value": {"tensor": {"dtype": "DT_FLOAT", "tensorShape": {"dim": [{"size": "5"}, {"size": "5"}, {"size": "1"}, {"size": "1"}]}}}}}, {"name": "ConstantFolding/split_58-folded-136", "op": "Const", "attr": {"value": {"tensor": {"dtype": "DT_FLOAT", "tensorShape": {"dim": [{"size": "5"}, {"size": "5"}, {"size": "1"}, {"size": "1"}]}}}, "dtype": {"type": "DT_FLOAT"}}}, {"name": "ConstantFolding/split_58-folded-137", "op": "Const", "attr": {"value": {"tensor": {"dtype": "DT_FLOAT", "tensorShape": {"dim": [{"size": "5"}, {"size": "5"}, {"size": "1"}, {"size": "1"}]}}}, "dtype": {"type": "DT_FLOAT"}}}, {"name": "ConstantFolding/split_58-folded-138", "op": "Const", "attr": {"dtype": {"type": "DT_FLOAT"}, "value": {"tensor": {"dtype": "DT_FLOAT", "tensorShape": {"dim": [{"size": "5"}, {"size": "5"}, {"size": "1"}, {"size": "1"}]}}}}}, {"name": "ConstantFolding/split_58-folded-139", "op": "Const", "attr": {"value": {"tensor": {"dtype": "DT_FLOAT", "tensorShape": {"dim": [{"size": "5"}, {"size": "5"}, {"size": "1"}, {"size": "1"}]}}}, "dtype": {"type": "DT_FLOAT"}}}, {"name": "ConstantFolding/split_58-folded-140", "op": "Const", "attr": {"value": {"tensor": {"dtype": "DT_FLOAT", "tensorShape": {"dim": [{"size": "5"}, {"size": "5"}, {"size": "1"}, {"size": "1"}]}}}, "dtype": {"type": "DT_FLOAT"}}}, {"name": "ConstantFolding/split_58-folded-141", "op": "Const", "attr": {"dtype": {"type": "DT_FLOAT"}, "value": {"tensor": {"dtype": "DT_FLOAT", "tensorShape": {"dim": [{"size": "5"}, {"size": "5"}, {"size": "1"}, {"size": "1"}]}}}}}, {"name": "ConstantFolding/split_58-folded-142", "op": "Const", "attr": {"value": {"tensor": {"dtype": "DT_FLOAT", "tensorShape": {"dim": [{"size": "5"}, {"size": "5"}, {"size": "1"}, {"size": "1"}]}}}, "dtype": {"type": "DT_FLOAT"}}}, {"name": "ConstantFolding/split_58-folded-143", "op": "Const", "attr": {"dtype": {"type": "DT_FLOAT"}, "value": {"tensor": {"dtype": "DT_FLOAT", "tensorShape": {"dim": [{"size": "5"}, {"size": "5"}, {"size": "1"}, {"size": "1"}]}}}}}, {"name": "ConstantFolding/split_58-folded-144", "op": "Const", "attr": {"dtype": {"type": "DT_FLOAT"}, "value": {"tensor": {"dtype": "DT_FLOAT", "tensorShape": {"dim": [{"size": "5"}, {"size": "5"}, {"size": "1"}, {"size": "1"}]}}}}}, {"name": "ConstantFolding/split_58-folded-145", "op": "Const", "attr": {"value": {"tensor": {"dtype": "DT_FLOAT", "tensorShape": {"dim": [{"size": "5"}, {"size": "5"}, {"size": "1"}, {"size": "1"}]}}}, "dtype": {"type": "DT_FLOAT"}}}, {"name": "ConstantFolding/split_58-folded-146", "op": "Const", "attr": {"dtype": {"type": "DT_FLOAT"}, "value": {"tensor": {"dtype": "DT_FLOAT", "tensorShape": {"dim": [{"size": "5"}, {"size": "5"}, {"size": "1"}, {"size": "1"}]}}}}}, {"name": "ConstantFolding/split_58-folded-147", "op": "Const", "attr": {"value": {"tensor": {"dtype": "DT_FLOAT", "tensorShape": {"dim": [{"size": "5"}, {"size": "5"}, {"size": "1"}, {"size": "1"}]}}}, "dtype": {"type": "DT_FLOAT"}}}, {"name": "ConstantFolding/split_58-folded-148", "op": "Const", "attr": {"value": {"tensor": {"dtype": "DT_FLOAT", "tensorShape": {"dim": [{"size": "5"}, {"size": "5"}, {"size": "1"}, {"size": "1"}]}}}, "dtype": {"type": "DT_FLOAT"}}}, {"name": "ConstantFolding/split_58-folded-149", "op": "Const", "attr": {"dtype": {"type": "DT_FLOAT"}, "value": {"tensor": {"dtype": "DT_FLOAT", "tensorShape": {"dim": [{"size": "5"}, {"size": "5"}, {"size": "1"}, {"size": "1"}]}}}}}, {"name": "ConstantFolding/split_58-folded-150", "op": "Const", "attr": {"dtype": {"type": "DT_FLOAT"}, "value": {"tensor": {"dtype": "DT_FLOAT", "tensorShape": {"dim": [{"size": "5"}, {"size": "5"}, {"size": "1"}, {"size": "1"}]}}}}}, {"name": "ConstantFolding/split_58-folded-151", "op": "Const", "attr": {"dtype": {"type": "DT_FLOAT"}, "value": {"tensor": {"dtype": "DT_FLOAT", "tensorShape": {"dim": [{"size": "5"}, {"size": "5"}, {"size": "1"}, {"size": "1"}]}}}}}, {"name": "ConstantFolding/split_58-folded-152", "op": "Const", "attr": {"value": {"tensor": {"dtype": "DT_FLOAT", "tensorShape": {"dim": [{"size": "5"}, {"size": "5"}, {"size": "1"}, {"size": "1"}]}}}, "dtype": {"type": "DT_FLOAT"}}}, {"name": "ConstantFolding/split_58-folded-153", "op": "Const", "attr": {"dtype": {"type": "DT_FLOAT"}, "value": {"tensor": {"dtype": "DT_FLOAT", "tensorShape": {"dim": [{"size": "5"}, {"size": "5"}, {"size": "1"}, {"size": "1"}]}}}}}, {"name": "ConstantFolding/split_58-folded-154", "op": "Const", "attr": {"value": {"tensor": {"dtype": "DT_FLOAT", "tensorShape": {"dim": [{"size": "5"}, {"size": "5"}, {"size": "1"}, {"size": "1"}]}}}, "dtype": {"type": "DT_FLOAT"}}}, {"name": "ConstantFolding/split_58-folded-155", "op": "Const", "attr": {"dtype": {"type": "DT_FLOAT"}, "value": {"tensor": {"dtype": "DT_FLOAT", "tensorShape": {"dim": [{"size": "5"}, {"size": "5"}, {"size": "1"}, {"size": "1"}]}}}}}, {"name": "ConstantFolding/split_58-folded-156", "op": "Const", "attr": {"dtype": {"type": "DT_FLOAT"}, "value": {"tensor": {"dtype": "DT_FLOAT", "tensorShape": {"dim": [{"size": "5"}, {"size": "5"}, {"size": "1"}, {"size": "1"}]}}}}}, {"name": "ConstantFolding/split_58-folded-157", "op": "Const", "attr": {"dtype": {"type": "DT_FLOAT"}, "value": {"tensor": {"dtype": "DT_FLOAT", "tensorShape": {"dim": [{"size": "5"}, {"size": "5"}, {"size": "1"}, {"size": "1"}]}}}}}, {"name": "ConstantFolding/split_58-folded-158", "op": "Const", "attr": {"dtype": {"type": "DT_FLOAT"}, "value": {"tensor": {"dtype": "DT_FLOAT", "tensorShape": {"dim": [{"size": "5"}, {"size": "5"}, {"size": "1"}, {"size": "1"}]}}}}}, {"name": "ConstantFolding/split_58-folded-159", "op": "Const", "attr": {"value": {"tensor": {"dtype": "DT_FLOAT", "tensorShape": {"dim": [{"size": "5"}, {"size": "5"}, {"size": "1"}, {"size": "1"}]}}}, "dtype": {"type": "DT_FLOAT"}}}, {"name": "ConstantFolding/split_58-folded-160", "op": "Const", "attr": {"dtype": {"type": "DT_FLOAT"}, "value": {"tensor": {"dtype": "DT_FLOAT", "tensorShape": {"dim": [{"size": "5"}, {"size": "5"}, {"size": "1"}, {"size": "1"}]}}}}}, {"name": "ConstantFolding/split_58-folded-161", "op": "Const", "attr": {"dtype": {"type": "DT_FLOAT"}, "value": {"tensor": {"dtype": "DT_FLOAT", "tensorShape": {"dim": [{"size": "5"}, {"size": "5"}, {"size": "1"}, {"size": "1"}]}}}}}, {"name": "ConstantFolding/split_58-folded-162", "op": "Const", "attr": {"dtype": {"type": "DT_FLOAT"}, "value": {"tensor": {"dtype": "DT_FLOAT", "tensorShape": {"dim": [{"size": "5"}, {"size": "5"}, {"size": "1"}, {"size": "1"}]}}}}}, {"name": "ConstantFolding/split_58-folded-163", "op": "Const", "attr": {"dtype": {"type": "DT_FLOAT"}, "value": {"tensor": {"dtype": "DT_FLOAT", "tensorShape": {"dim": [{"size": "5"}, {"size": "5"}, {"size": "1"}, {"size": "1"}]}}}}}, {"name": "ConstantFolding/split_58-folded-164", "op": "Const", "attr": {"dtype": {"type": "DT_FLOAT"}, "value": {"tensor": {"dtype": "DT_FLOAT", "tensorShape": {"dim": [{"size": "5"}, {"size": "5"}, {"size": "1"}, {"size": "1"}]}}}}}, {"name": "ConstantFolding/split_58-folded-165", "op": "Const", "attr": {"value": {"tensor": {"dtype": "DT_FLOAT", "tensorShape": {"dim": [{"size": "5"}, {"size": "5"}, {"size": "1"}, {"size": "1"}]}}}, "dtype": {"type": "DT_FLOAT"}}}, {"name": "ConstantFolding/split_58-folded-166", "op": "Const", "attr": {"value": {"tensor": {"dtype": "DT_FLOAT", "tensorShape": {"dim": [{"size": "5"}, {"size": "5"}, {"size": "1"}, {"size": "1"}]}}}, "dtype": {"type": "DT_FLOAT"}}}, {"name": "ConstantFolding/split_58-folded-167", "op": "Const", "attr": {"value": {"tensor": {"dtype": "DT_FLOAT", "tensorShape": {"dim": [{"size": "5"}, {"size": "5"}, {"size": "1"}, {"size": "1"}]}}}, "dtype": {"type": "DT_FLOAT"}}}, {"name": "ConstantFolding/split_58-folded-168", "op": "Const", "attr": {"dtype": {"type": "DT_FLOAT"}, "value": {"tensor": {"dtype": "DT_FLOAT", "tensorShape": {"dim": [{"size": "5"}, {"size": "5"}, {"size": "1"}, {"size": "1"}]}}}}}, {"name": "ConstantFolding/split_58-folded-169", "op": "Const", "attr": {"value": {"tensor": {"dtype": "DT_FLOAT", "tensorShape": {"dim": [{"size": "5"}, {"size": "5"}, {"size": "1"}, {"size": "1"}]}}}, "dtype": {"type": "DT_FLOAT"}}}, {"name": "ConstantFolding/split_58-folded-170", "op": "Const", "attr": {"dtype": {"type": "DT_FLOAT"}, "value": {"tensor": {"dtype": "DT_FLOAT", "tensorShape": {"dim": [{"size": "5"}, {"size": "5"}, {"size": "1"}, {"size": "1"}]}}}}}, {"name": "ConstantFolding/split_58-folded-171", "op": "Const", "attr": {"value": {"tensor": {"dtype": "DT_FLOAT", "tensorShape": {"dim": [{"size": "5"}, {"size": "5"}, {"size": "1"}, {"size": "1"}]}}}, "dtype": {"type": "DT_FLOAT"}}}, {"name": "ConstantFolding/split_58-folded-172", "op": "Const", "attr": {"dtype": {"type": "DT_FLOAT"}, "value": {"tensor": {"dtype": "DT_FLOAT", "tensorShape": {"dim": [{"size": "5"}, {"size": "5"}, {"size": "1"}, {"size": "1"}]}}}}}, {"name": "ConstantFolding/split_58-folded-173", "op": "Const", "attr": {"dtype": {"type": "DT_FLOAT"}, "value": {"tensor": {"dtype": "DT_FLOAT", "tensorShape": {"dim": [{"size": "5"}, {"size": "5"}, {"size": "1"}, {"size": "1"}]}}}}}, {"name": "ConstantFolding/split_58-folded-174", "op": "Const", "attr": {"dtype": {"type": "DT_FLOAT"}, "value": {"tensor": {"dtype": "DT_FLOAT", "tensorShape": {"dim": [{"size": "5"}, {"size": "5"}, {"size": "1"}, {"size": "1"}]}}}}}, {"name": "ConstantFolding/split_58-folded-175", "op": "Const", "attr": {"value": {"tensor": {"dtype": "DT_FLOAT", "tensorShape": {"dim": [{"size": "5"}, {"size": "5"}, {"size": "1"}, {"size": "1"}]}}}, "dtype": {"type": "DT_FLOAT"}}}, {"name": "ConstantFolding/split_58-folded-176", "op": "Const", "attr": {"value": {"tensor": {"dtype": "DT_FLOAT", "tensorShape": {"dim": [{"size": "5"}, {"size": "5"}, {"size": "1"}, {"size": "1"}]}}}, "dtype": {"type": "DT_FLOAT"}}}, {"name": "ConstantFolding/split_58-folded-177", "op": "Const", "attr": {"value": {"tensor": {"dtype": "DT_FLOAT", "tensorShape": {"dim": [{"size": "5"}, {"size": "5"}, {"size": "1"}, {"size": "1"}]}}}, "dtype": {"type": "DT_FLOAT"}}}, {"name": "ConstantFolding/split_58-folded-178", "op": "Const", "attr": {"dtype": {"type": "DT_FLOAT"}, "value": {"tensor": {"dtype": "DT_FLOAT", "tensorShape": {"dim": [{"size": "5"}, {"size": "5"}, {"size": "1"}, {"size": "1"}]}}}}}, {"name": "ConstantFolding/split_58-folded-179", "op": "Const", "attr": {"value": {"tensor": {"dtype": "DT_FLOAT", "tensorShape": {"dim": [{"size": "5"}, {"size": "5"}, {"size": "1"}, {"size": "1"}]}}}, "dtype": {"type": "DT_FLOAT"}}}, {"name": "ConstantFolding/split_58-folded-180", "op": "Const", "attr": {"dtype": {"type": "DT_FLOAT"}, "value": {"tensor": {"dtype": "DT_FLOAT", "tensorShape": {"dim": [{"size": "5"}, {"size": "5"}, {"size": "1"}, {"size": "1"}]}}}}}, {"name": "ConstantFolding/split_58-folded-181", "op": "Const", "attr": {"dtype": {"type": "DT_FLOAT"}, "value": {"tensor": {"dtype": "DT_FLOAT", "tensorShape": {"dim": [{"size": "5"}, {"size": "5"}, {"size": "1"}, {"size": "1"}]}}}}}, {"name": "ConstantFolding/split_58-folded-182", "op": "Const", "attr": {"dtype": {"type": "DT_FLOAT"}, "value": {"tensor": {"dtype": "DT_FLOAT", "tensorShape": {"dim": [{"size": "5"}, {"size": "5"}, {"size": "1"}, {"size": "1"}]}}}}}, {"name": "ConstantFolding/split_58-folded-183", "op": "Const", "attr": {"value": {"tensor": {"dtype": "DT_FLOAT", "tensorShape": {"dim": [{"size": "5"}, {"size": "5"}, {"size": "1"}, {"size": "1"}]}}}, "dtype": {"type": "DT_FLOAT"}}}, {"name": "ConstantFolding/split_58-folded-184", "op": "Const", "attr": {"value": {"tensor": {"dtype": "DT_FLOAT", "tensorShape": {"dim": [{"size": "5"}, {"size": "5"}, {"size": "1"}, {"size": "1"}]}}}, "dtype": {"type": "DT_FLOAT"}}}, {"name": "ConstantFolding/split_58-folded-185", "op": "Const", "attr": {"value": {"tensor": {"dtype": "DT_FLOAT", "tensorShape": {"dim": [{"size": "5"}, {"size": "5"}, {"size": "1"}, {"size": "1"}]}}}, "dtype": {"type": "DT_FLOAT"}}}, {"name": "ConstantFolding/split_58-folded-186", "op": "Const", "attr": {"dtype": {"type": "DT_FLOAT"}, "value": {"tensor": {"dtype": "DT_FLOAT", "tensorShape": {"dim": [{"size": "5"}, {"size": "5"}, {"size": "1"}, {"size": "1"}]}}}}}, {"name": "ConstantFolding/split_58-folded-187", "op": "Const", "attr": {"dtype": {"type": "DT_FLOAT"}, "value": {"tensor": {"dtype": "DT_FLOAT", "tensorShape": {"dim": [{"size": "5"}, {"size": "5"}, {"size": "1"}, {"size": "1"}]}}}}}, {"name": "ConstantFolding/split_58-folded-188", "op": "Const", "attr": {"value": {"tensor": {"dtype": "DT_FLOAT", "tensorShape": {"dim": [{"size": "5"}, {"size": "5"}, {"size": "1"}, {"size": "1"}]}}}, "dtype": {"type": "DT_FLOAT"}}}, {"name": "ConstantFolding/split_58-folded-189", "op": "Const", "attr": {"value": {"tensor": {"dtype": "DT_FLOAT", "tensorShape": {"dim": [{"size": "5"}, {"size": "5"}, {"size": "1"}, {"size": "1"}]}}}, "dtype": {"type": "DT_FLOAT"}}}, {"name": "ConstantFolding/split_58-folded-190", "op": "Const", "attr": {"dtype": {"type": "DT_FLOAT"}, "value": {"tensor": {"dtype": "DT_FLOAT", "tensorShape": {"dim": [{"size": "5"}, {"size": "5"}, {"size": "1"}, {"size": "1"}]}}}}}, {"name": "ConstantFolding/split_58-folded-191", "op": "Const", "attr": {"value": {"tensor": {"dtype": "DT_FLOAT", "tensorShape": {"dim": [{"size": "5"}, {"size": "5"}, {"size": "1"}, {"size": "1"}]}}}, "dtype": {"type": "DT_FLOAT"}}}, {"name": "ConstantFolding/split_58-folded-192", "op": "Const", "attr": {"dtype": {"type": "DT_FLOAT"}, "value": {"tensor": {"dtype": "DT_FLOAT", "tensorShape": {"dim": [{"size": "5"}, {"size": "5"}, {"size": "1"}, {"size": "1"}]}}}}}, {"name": "ConstantFolding/split_58-folded-193", "op": "Const", "attr": {"dtype": {"type": "DT_FLOAT"}, "value": {"tensor": {"dtype": "DT_FLOAT", "tensorShape": {"dim": [{"size": "5"}, {"size": "5"}, {"size": "1"}, {"size": "1"}]}}}}}, {"name": "ConstantFolding/split_58-folded-194", "op": "Const", "attr": {"dtype": {"type": "DT_FLOAT"}, "value": {"tensor": {"dtype": "DT_FLOAT", "tensorShape": {"dim": [{"size": "5"}, {"size": "5"}, {"size": "1"}, {"size": "1"}]}}}}}, {"name": "ConstantFolding/split_58-folded-195", "op": "Const", "attr": {"dtype": {"type": "DT_FLOAT"}, "value": {"tensor": {"dtype": "DT_FLOAT", "tensorShape": {"dim": [{"size": "5"}, {"size": "5"}, {"size": "1"}, {"size": "1"}]}}}}}, {"name": "ConstantFolding/split_58-folded-196", "op": "Const", "attr": {"value": {"tensor": {"dtype": "DT_FLOAT", "tensorShape": {"dim": [{"size": "5"}, {"size": "5"}, {"size": "1"}, {"size": "1"}]}}}, "dtype": {"type": "DT_FLOAT"}}}, {"name": "ConstantFolding/split_58-folded-197", "op": "Const", "attr": {"value": {"tensor": {"dtype": "DT_FLOAT", "tensorShape": {"dim": [{"size": "5"}, {"size": "5"}, {"size": "1"}, {"size": "1"}]}}}, "dtype": {"type": "DT_FLOAT"}}}, {"name": "ConstantFolding/split_58-folded-198", "op": "Const", "attr": {"dtype": {"type": "DT_FLOAT"}, "value": {"tensor": {"dtype": "DT_FLOAT", "tensorShape": {"dim": [{"size": "5"}, {"size": "5"}, {"size": "1"}, {"size": "1"}]}}}}}, {"name": "BatchNormalization_85/mul", "op": "Const", "attr": {"dtype": {"type": "DT_FLOAT"}, "value": {"tensor": {"dtype": "DT_FLOAT", "tensorShape": {"dim": [{"size": "1"}, {"size": "200"}, {"size": "1"}, {"size": "1"}]}}}}}, {"name": "BatchNormalization_82/mul", "op": "Const", "attr": {"dtype": {"type": "DT_FLOAT"}, "value": {"tensor": {"dtype": "DT_FLOAT", "tensorShape": {"dim": [{"size": "1"}, {"size": "512"}, {"size": "1"}, {"size": "1"}]}}}}}, {"name": "ConstantFolding/split_54-folded-0", "op": "Const", "attr": {"dtype": {"type": "DT_FLOAT"}, "val…
 1], "dtype": "float32"}, {"name": "ConstantFolding/split_22-folded-218", "shape": [3, 3, 1, 1], "dtype": "float32"}, {"name": "ConstantFolding/split_22-folded-219", "shape": [3, 3, 1, 1], "dtype": "float32"}, {"name": "ConstantFolding/split_22-folded-220", "shape": [3, 3, 1, 1], "dtype": "float32"}, {"name": "ConstantFolding/split_22-folded-221", "shape": [3, 3, 1, 1], "dtype": "float32"}, {"name": "ConstantFolding/split_22-folded-222", "shape": [3, 3, 1, 1], "dtype": "float32"}, {"name": "ConstantFolding/split_22-folded-223", "shape": [3, 3, 1, 1], "dtype": "float32"}, {"name": "ConstantFolding/split_22-folded-224", "shape": [3, 3, 1, 1], "dtype": "float32"}, {"name": "ConstantFolding/split_22-folded-225", "shape": [3, 3, 1, 1], "dtype": "float32"}, {"name": "ConstantFolding/split_22-folded-226", "shape": [3, 3, 1, 1], "dtype": "float32"}, {"name": "ConstantFolding/split_22-folded-227", "shape": [3, 3, 1, 1], "dtype": "float32"}, {"name": "ConstantFolding/split_22-folded-228", "shape": [3, 3, 1, 1], "dtype": "float32"}, {"name": "ConstantFolding/split_22-folded-229", "shape": [3, 3, 1, 1], "dtype": "float32"}, {"name": "ConstantFolding/split_22-folded-230", "shape": [3, 3, 1, 1], "dtype": "float32"}, {"name": "ConstantFolding/split_22-folded-231", "shape": [3, 3, 1, 1], "dtype": "float32"}, {"name": "ConstantFolding/split_22-folded-232", "shape": [3, 3, 1, 1], "dtype": "float32"}, {"name": "ConstantFolding/split_22-folded-233", "shape": [3, 3, 1, 1], "dtype": "float32"}, {"name": "ConstantFolding/split_22-folded-234", "shape": [3, 3, 1, 1], "dtype": "float32"}, {"name": "ConstantFolding/split_22-folded-235", "shape": [3, 3, 1, 1], "dtype": "float32"}, {"name": "ConstantFolding/split_22-folded-236", "shape": [3, 3, 1, 1], "dtype": "float32"}, {"name": "ConstantFolding/split_22-folded-237", "shape": [3, 3, 1, 1], "dtype": "float32"}, {"name": "ConstantFolding/split_22-folded-238", "shape": [3, 3, 1, 1], "dtype": "float32"}, {"name": "ConstantFolding/split_22-folded-239", "shape": [3, 3, 1, 1], "dtype": "float32"}, {"name": "ConstantFolding/split_22-folded-240", "shape": [3, 3, 1, 1], "dtype": "float32"}, {"name": "ConstantFolding/split_22-folded-241", "shape": [3, 3, 1, 1], "dtype": "float32"}, {"name": "ConstantFolding/split_22-folded-242", "shape": [3, 3, 1, 1], "dtype": "float32"}, {"name": "ConstantFolding/split_22-folded-243", "shape": [3, 3, 1, 1], "dtype": "float32"}, {"name": "ConstantFolding/split_22-folded-244", "shape": [3, 3, 1, 1], "dtype": "float32"}, {"name": "ConstantFolding/split_22-folded-245", "shape": [3, 3, 1, 1], "dtype": "float32"}, {"name": "ConstantFolding/split_22-folded-246", "shape": [3, 3, 1, 1], "dtype": "float32"}, {"name": "ConstantFolding/split_22-folded-247", "shape": [3, 3, 1, 1], "dtype": "float32"}, {"name": "ConstantFolding/split_22-folded-248", "shape": [3, 3, 1, 1], "dtype": "float32"}, {"name": "ConstantFolding/split_22-folded-249", "shape": [3, 3, 1, 1], "dtype": "float32"}, {"name": "ConstantFolding/split_22-folded-250", "shape": [3, 3, 1, 1], "dtype": "float32"}, {"name": "ConstantFolding/split_22-folded-251", "shape": [3, 3, 1, 1], "dtype": "float32"}, {"name": "ConstantFolding/split_22-folded-252", "shape": [3, 3, 1, 1], "dtype": "float32"}, {"name": "ConstantFolding/split_22-folded-253", "shape": [3, 3, 1, 1], "dtype": "float32"}, {"name": "ConstantFolding/split_22-folded-254", "shape": [3, 3, 1, 1], "dtype": "float32"}, {"name": "BatchNormalization_31/mul", "shape": [1, 256, 1, 1], "dtype": "float32"}, {"name": "BatchNormalization_28/mul", "shape": [1, 144, 1, 1], "dtype": "float32"}, {"name": "ConstantFolding/split_18-folded-0", "shape": [3, 3, 1, 1], "dtype": "float32"}, {"name": "ConstantFolding/split_18-folded-1", "shape": [3, 3, 1, 1], "dtype": "float32"}, {"name": "ConstantFolding/split_18-folded-2", "shape": [3, 3, 1, 1], "dtype": "float32"}, {"name": "ConstantFolding/split_18-folded-3", "shape": [3, 3, 1, 1], "dtype": "float32"}, {"name": "ConstantFolding/split_18-folded-4", "shape": [3, 3, 1, 1], "dtype": "float32"}, {"name": "ConstantFolding/split_18-folded-5", "shape": [3, 3, 1, 1], "dtype": "float32"}, {"name": "ConstantFolding/split_18-folded-6", "shape": [3, 3, 1, 1], "dtype": "float32"}, {"name": "ConstantFolding/split_18-folded-7", "shape": [3, 3, 1, 1], "dtype": "float32"}, {"name": "ConstantFolding/split_18-folded-8", "shape": [3, 3, 1, 1], "dtype": "float32"}, {"name": "ConstantFolding/split_18-folded-9", "shape": [3, 3, 1, 1], "dtype": "float32"}, {"name": "ConstantFolding/split_18-folded-10", "shape": [3, 3, 1, 1], "dtype": "float32"}, {"name": "ConstantFolding/split_18-folded-11", "shape": [3, 3, 1, 1], "dtype": "float32"}, {"name": "ConstantFolding/split_18-folded-12", "shape": [3, 3, 1, 1], "dtype": "float32"}, {"name": "ConstantFolding/split_18-folded-13", "shape": [3, 3, 1, 1], "dtype": "float32"}, {"name": "ConstantFolding/split_18-folded-14", "shape": [3, 3, 1, 1], "dtype": "float32"}, {"name": "ConstantFolding/split_18-folded-15", "shape": [3, 3, 1, 1], "dtype": "float32"}, {"name": "ConstantFolding/split_18-folded-16", "shape": [3, 3, 1, 1], "dtype": "float32"}, {"name": "ConstantFolding/split_18-folded-17", "shape": [3, 3, 1, 1], "dtype": "float32"}, {"name": "ConstantFolding/split_18-folded-18", "shape": [3, 3, 1, 1], "dtype": "float32"}, {"name": "ConstantFolding/split_18-folded-19", "shape": [3, 3, 1, 1], "dtype": "float32"}, {"name": "ConstantFolding/split_18-folded-20", "shape": [3, 3, 1, 1], "dtype": "float32"}, {"name": "ConstantFolding/split_18-folded-21", "shape": [3, 3, 1, 1], "dtype": "float32"}, {"name": "ConstantFolding/split_18-folded-22", "shape": [3, 3, 1, 1], "dtype": "float32"}, {"name": "ConstantFolding/split_18-folded-23", "shape": [3, 3, 1, 1], "dtype": "float32"}, {"name": "ConstantFolding/split_18-folded-24", "shape": [3, 3, 1, 1], "dtype": "float32"}, {"name": "ConstantFolding/split_18-folded-25", "shape": [3, 3, 1, 1], "dtype": "float32"}, {"name": "ConstantFolding/split_18-folded-26", "shape": [3, 3, 1, 1], "dtype": "float32"}, {"name": "ConstantFolding/split_18-folded-27", "shape": [3, 3, 1, 1], "dtype": "float32"}, {"name": "ConstantFolding/split_18-folded-28", "shape": [3, 3, 1, 1], "dtype": "float32"}, {"name": "ConstantFolding/split_18-folded-29", "shape": [3, 3, 1, 1], "dtype": "float32"}, {"name": "ConstantFolding/split_18-folded-30", "shape": [3, 3, 1, 1], "dtype": "float32"}, {"name": "ConstantFolding/split_18-folded-31", "shape": [3, 3, 1, 1], "dtype": "float32"}, {"name": "ConstantFolding/split_18-folded-32", "shape": [3, 3, 1, 1], "dtype": "float32"}, {"name": "ConstantFolding/split_18-folded-33", "shape": [3, 3, 1, 1], "dtype": "float32"}, {"name": "ConstantFolding/split_18-folded-34", "shape": [3, 3, 1, 1], "dtype": "float32"}, {"name": "ConstantFolding/split_18-folded-35", "shape": [3, 3, 1, 1], "dtype": "float32"}, {"name": "ConstantFolding/split_18-folded-36", "shape": [3, 3, 1, 1], "dtype": "float32"}, {"name": "ConstantFolding/split_18-folded-37", "shape": [3, 3, 1, 1], "dtype": "float32"}, {"name": "ConstantFolding/split_18-folded-38", "shape": [3, 3, 1, 1], "dtype": "float32"}, {"name": "ConstantFolding/split_18-folded-39", "shape": [3, 3, 1, 1], "dtype": "float32"}, {"name": "ConstantFolding/split_18-folded-40", "shape": [3, 3, 1, 1], "dtype": "float32"}, {"name": "ConstantFolding/split_18-folded-41", "shape": [3, 3, 1, 1], "dtype": "float32"}, {"name": "ConstantFolding/split_18-folded-42", "shape": [3, 3, 1, 1], "dtype": "float32"}, {"name": "ConstantFolding/split_18-folded-43", "shape": [3, 3, 1, 1], "dtype": "float32"}, {"name": "ConstantFolding/split_18-folded-44", "shape": [3, 3, 1, 1], "dtype": "float32"}, {"name": "ConstantFolding/split_18-folded-45", "shape": [3, 3, 1, 1], "dtype": "float32"}, {"name": "ConstantFolding/split_18-folded-46", "shape": [3, 3, 1, 1], "dtype": "float32"}, {"name": "ConstantFolding/split_18-folded-47", "shape": [3, 3, 1, 1], "dtype": "float32"}, {"name": "ConstantFolding/split_18-folded-48", "shape": [3, 3, 1, 1], "dtype": "float32"}, {"name": "ConstantFolding/split_18-folded-49", "shape": [3, 3, 1, 1], "dtype": "float32"}, {"name": "ConstantFolding/split_18-folded-50", "shape": [3, 3, 1, 1], "dtype": "float32"}, {"name": "ConstantFolding/split_18-folded-51", "shape": [3, 3, 1, 1], "dtype": "float32"}, {"name": "ConstantFolding/split_18-folded-52", "shape": [3, 3, 1, 1], "dtype": "float32"}, {"name": "ConstantFolding/split_18-folded-53", "shape": [3, 3, 1, 1], "dtype": "float32"}, {"name": "ConstantFolding/split_18-folded-54", "shape": [3, 3, 1, 1], "dtype": "float32"}, {"name": "ConstantFolding/split_18-folded-55", "shape": [3, 3, 1, 1], "dtype": "float32"}, {"name": "ConstantFolding/split_18-folded-56", "shape": [3, 3, 1, 1], "dtype": "float32"}, {"name": "ConstantFolding/split_18-folded-57", "shape": [3, 3, 1, 1], "dtype": "float32"}, {"name": "ConstantFolding/split_18-folded-58", "shape": [3, 3, 1, 1], "dtype": "float32"}, {"name": "ConstantFolding/split_18-folded-59", "shape": [3, 3, 1, 1], "dtype": "float32"}, {"name": "ConstantFolding/split_18-folded-60", "shape": [3, 3, 1, 1], "dtype": "float32"}, {"name": "ConstantFolding/split_18-folded-61", "shape": [3, 3, 1, 1], "dtype": "float32"}, {"name": "ConstantFolding/split_18-folded-62", "shape": [3, 3, 1, 1], "dtype": "float32"}, {"name": "ConstantFolding/split_18-folded-63", "shape": [3, 3, 1, 1], "dtype": "float32"}, {"name": "ConstantFolding/split_18-folded-64", "shape": [3, 3, 1, 1], "dtype": "float32"}, {"name": "ConstantFolding/split_18-folded-65", "shape": [3, 3, 1, 1], "dtype": "float32"}, {"name": "ConstantFolding/split_18-folded-66", "shape": [3, 3, 1, 1], "dtype": "float32"}, {"name": "ConstantFolding/split_18-folded-67", "shape": [3, 3, 1, 1], "dtype": "float32"}, {"name": "ConstantFolding/split_18-folded-68", "shape": [3, 3, 1, 1], "dtype": "float32"}, {"name": "ConstantFolding/split_18-folded-69", "shape": [3, 3, 1, 1], "dtype": "float32"}, {"name": "ConstantFolding/split_18-folded-70", "shape": [3, 3, 1, 1], "dtype": "float32"}, {"name": "ConstantFolding/split_18-folded-71", "shape": [3, 3, 1, 1], "dtype": "float32"}, {"name": "ConstantFolding/split_18-folded-72", "shape": [3, 3, 1, 1], "dtype": "float32"}, {"name": "ConstantFolding/split_18-folded-73", "shape": [3, 3, 1, 1], "dtype": "float32"}, {"name": "ConstantFolding/split_18-folded-74", "shape": [3, 3, 1, 1], "dtype": "float32"}, {"name": "ConstantFolding/split_18-folded-75", "shape": [3, 3, 1, 1], "dtype": "float32"}, {"name": "ConstantFolding/split_18-folded-76", "shape": [3, 3, 1, 1], "dtype": "float32"}, {"name": "ConstantFolding/split_18-folded-77", "shape": [3, 3, 1, 1], "dtype": "float32"}, {"name": "ConstantFolding/split_18-folded-78", "shape": [3, 3, 1, 1], "dtype": "float32"}, {"name": "ConstantFolding/split_18-folded-79", "shape": [3, 3, 1, 1], "dtype": "float32"}, {"name": "ConstantFolding/split_18-folded-80", "shape": [3, 3, 1, 1], "dtype": "float32"}, {"name": "ConstantFolding/split_18-folded-81", "shape": [3, 3, 1, 1], "dtype": "float32"}, {"name": "ConstantFolding/split_18-folded-82", "shape": [3, 3, 1, 1], "dtype": "float32"}, {"name": "ConstantFolding/split_18-folded-83", "shape": [3, 3, 1, 1], "dtype": "float32"}, {"name": "ConstantFolding/split_18-folded-84", "shape": [3, 3, 1, 1], "dtype": "float32"}, {"name": "ConstantFolding/split_18-folded-85", "shape": [3, 3, 1, 1], "dtype": "float32"}, {"name": "ConstantFolding/split_18-folded-86", "shape": [3, 3, 1, 1], "dtype": "float32"}, {"name": "ConstantFolding/split_18-folded-87", "shape": [3, 3, 1, 1], "dtype": "float32"}, {"name": "ConstantFolding/split_18-folded-88", "shape": [3, 3, 1, 1], "dtype": "float32"}, {"name": "ConstantFolding/split_18-folded-89", "shape": [3, 3, 1, 1], "dtype": "float32"}, {"name": "ConstantFolding/split_18-folded-90", "shape": [3, 3, 1, 1], "dtype": "float32"}, {"name": "ConstantFolding/split_18-folded-91", "shape": [3, 3, 1, 1], "dtype": "float32"}, {"name": "ConstantFolding/split_18-folded-92", "shape": [3, 3, 1, 1], "dtype": "float32"}, {"name": "ConstantFolding/split_18-folded-93", "shape": [3, 3, 1, 1], "dtype": "float32"}, {"name": "ConstantFolding/split_18-folded-94", "shape": [3, 3, 1, 1], "dtype": "float32"}, {"name": "ConstantFolding/split_18-folded-95", "shape": [3, 3, 1, 1], "dtype": "float32"}, {"name": "ConstantFolding/split_18-folded-96", "shape": [3, 3, 1, 1], "dtype": "float32"}, {"name": "ConstantFolding/split_18-folded-97", "shape": [3, 3, 1, 1], "dtype": "float32"}, {"name": "ConstantFolding/split_18-folded-98", "shape": [3, 3, 1, 1], "dtype": "float32"}, {"name": "ConstantFolding/split_18-folded-99", "shape": [3, 3, 1, 1], "dtype": "float32"}, {"name": "ConstantFolding/split_18-folded-100", "shape": [3, 3, 1, 1], "dtype": "float32"}, {"name": "ConstantFolding/split_18-folded-101", "shape": [3, 3, 1, 1], "dtype": "float32"}, {"name": "ConstantFolding/split_18-folded-102", "shape": [3, 3, 1, 1], "dtype": "float32"}, {"name": "ConstantFolding/split_18-folded-103", "shape": [3, 3, 1, 1], "dtype": "float32"}, {"name": "ConstantFolding/split_18-folded-104", "shape": [3, 3, 1, 1], "dtype": "float32"}, {"name": "ConstantFolding/split_18-folded-105", "shape": [3, 3, 1, 1], "dtype": "float32"}, {"name": "ConstantFolding/split_18-folded-106", "shape": [3, 3, 1, 1], "dtype": "float32"}, {"name": "ConstantFolding/split_18-folded-107", "shape": [3, 3, 1, 1], "dtype": "float32"}, {"name": "ConstantFolding/split_18-folded-108", "shape": [3, 3, 1, 1], "dtype": "float32"}, {"name": "ConstantFolding/split_18-folded-109", "shape": [3, 3, 1, 1], "dtype": "float32"}, {"name": "ConstantFolding/split_18-folded-110", "shape": [3, 3, 1, 1], "dtype": "float32"}, {"name": "ConstantFolding/split_18-folded-111", "shape": [3, 3, 1, 1], "dtype": "float32"}, {"name": "ConstantFolding/split_18-folded-112", "shape": [3, 3, 1, 1], "dtype": "float32"}, {"name": "ConstantFolding/split_18-folded-113", "shape": [3, 3, 1, 1], "dtype": "float32"}, {"name": "ConstantFolding/split_18-folded-114", "shape": [3, 3, 1, 1], "dtype": "float32"}, {"name": "ConstantFolding/split_18-folded-115", "shape": [3, 3, 1, 1], "dtype": "float32"}, {"name": "ConstantFolding/split_18-folded-116", "shape": [3, 3, 1, 1], "dtype": "float32"}, {"name": "ConstantFolding/split_18-folded-117", "shape": [3, 3, 1, 1], "dtype": "float32"}, {"name": "ConstantFolding/split_18-folded-118", "shape": [3, 3, 1, 1], "dtype": "float32"}, {"name": "ConstantFolding/split_18-folded-119", "shape": [3, 3, 1, 1], "dtype": "float32"}, {"name": "ConstantFolding/split_18-folded-120", "shape": [3, 3, 1, 1], "dtype": "float32"}, {"name": "ConstantFolding/split_18-folded-121", "shape": [3, 3, 1, 1], "dtype": "float32"}, {"name": "ConstantFolding/split_18-folded-122", "shape": [3, 3, 1, 1], "dtype": "float32"}, {"name": "ConstantFolding/split_18-folded-123", "shape": [3, 3, 1, 1], "dtype": "float32"}, {"name": "ConstantFolding/split_18-folded-124", "shape": [3, 3, 1, 1], "dtype": "float32"}, {"name": "ConstantFolding/split_18-folded-125", "shape": [3, 3, 1, 1], "dtype": "float32"}, {"name": "ConstantFolding/split_18-folded-126", "shape": [3, 3, 1, 1], "dtype": "float32"}, {"name": "ConstantFolding/split_18-folded-127", "shape": [3, 3, 1, 1], "dtype": "float32"}, {"name": "ConstantFolding/split_18-folded-128", "shape": [3, 3, 1, 1], "dtype": "float32"}, {"name": "ConstantFolding/split_18-folded-129", "shape": [3, 3, 1, 1], "dtype": "float32"}, {"name": "ConstantFolding/split_18-folded-130", "shape": [3, 3, 1, 1], "dtype": "float32"}, {"name": "ConstantFolding/split_18-folded-131", "shape": [3, 3, 1, 1], "dtype": "float32"}, {"name": "ConstantFolding/split_18-folded-132", "shape": [3, 3, 1, 1], "dtype": "float32"}, {"name": "ConstantFolding/split_18-folded-133", "shape": [3, 3, 1, 1], "dtype": "float32"}, {"name": "ConstantFolding/split_18-folded-134", "shape": [3, 3, 1, 1], "dtype": "float32"}, {"name": "ConstantFolding/split_18-folded-135", "shape": [3, 3, 1, 1], "dtype": "float32"}, {"name": "ConstantFolding/split_18-folded-136", "shape": [3, 3, 1, 1], "dtype": "float32"}, {"name": "ConstantFolding/split_18-folded-137", "shape": [3, 3, 1, 1], "dtype": "float32"}, {"name": "ConstantFolding/split_18-folded-138", "shape": [3, 3, 1, 1], "dtype": "float32"}, {"name": "ConstantFolding/split_18-folded-139", "shape": [3, 3, 1, 1], "dtype": "float32"}, {"name": "ConstantFolding/split_18-folded-140", "shape": [3, 3, 1, 1], "dtype": "float32"}, {"name": "ConstantFolding/split_18-folded-141", "shape": [3, 3, 1, 1], "dtype": "float32"}, {"name": "ConstantFolding/split_18-folded-142", "shape": [3, 3, 1, 1], "dtype": "float32"}, {"name": "BatchNormalization_25/mul", "shape": [1, 144, 1, 1], "dtype": "float32"}, {"name": "BatchNormalization_22/mul", "shape": [1, 120, 1, 1], "dtype": "float32"}, {"name": "ConstantFolding/split_14-folded-0", "shape": [3, 3, 1, 1], "dtype": "float32"}, {"name": "ConstantFolding/split_14-folded-1", "shape": [3, 3, 1, 1], "dtype": "float32"}, {"name": "ConstantFolding/split_14-folded-2", "shape": [3, 3, 1, 1], "dtype": "float32"}, {"name": "ConstantFolding/split_14-folded-3", "shape": [3, 3, 1, 1], "dtype": "float32"}, {"name": "ConstantFolding/split_14-folded-4", "shape": [3, 3, 1, 1], "dtype": "float32"}, {"name": "ConstantFolding/split_14-folded-5", "shape": [3, 3, 1, 1], "dtype": "float32"}, {"name": "ConstantFolding/split_14-folded-6", "shape": [3, 3, 1, 1], "dtype": "float32"}, {"name": "ConstantFolding/split_14-folded-7", "shape": [3, 3, 1, 1], "dtype": "float32"}, {"name": "ConstantFolding/split_14-folded-8", "shape": [3, 3, 1, 1], "dtype": "float32"}, {"name": "ConstantFolding/split_14-folded-9", "shape": [3, 3, 1, 1], "dtype": "float32"}, {"name": "ConstantFolding/split_14-folded-10", "shape": [3, 3, 1, 1], "dtype": "float32"}, {"name": "ConstantFolding/split_14-folded-11", "shape": [3, 3, 1, 1], "dtype": "float32"}, {"name": "ConstantFolding/split_14-folded-12", "shape": [3, 3, 1, 1], "dtype": "float32"}, {"name": "ConstantFolding/split_14-folded-13", "shape": [3, 3, 1, 1], "dtype": "float32"}, {"name": "ConstantFolding/split_14-folded-14", "shape": [3, 3, 1, 1], "dtype": "float32"}, {"name": "ConstantFolding/split_14-folded-15", "shape": [3, 3, 1, 1], "dtype": "float32"}, {"name": "ConstantFolding/split_14-folded-16", "shape": [3, 3, 1, 1], "dtype": "float32"}, {"name": "ConstantFolding/split_14-folded-17", "shape": [3, 3, 1, 1], "dtype": "float32"}, {"name": "ConstantFolding/split_14-folded-18", "shape": [3, 3, 1, 1], "dtype": "float32"}, {"name": "ConstantFolding/split_14-folded-19", "shape": [3, 3, 1, 1], "dtype": "float32"}, {"name": "ConstantFolding/split_14-folded-20", "shape": [3, 3, 1, 1], "dtype": "float32"}, {"name": "ConstantFolding/split_14-folded-21", "shape": [3, 3, 1, 1], "dtype": "float32"}, {"name": "ConstantFolding/split_14-folded-22", "shape": [3, 3, 1, 1], "dtype": "float32"}, {"name": "ConstantFolding/split_14-folded-23", "shape": [3, 3, 1, 1], "dtype": "float32"}, {"name": "ConstantFolding/split_14-folded-24", "shape": [3, 3, 1, 1], "dtype": "float32"}, {"name": "ConstantFolding/split_14-folded-25", "shape": [3, 3, 1, 1], "dtype": "float32"}, {"name": "ConstantFolding/split_14-folded-26", "shape": [3, 3, 1, 1], "dtype": "float32"}, {"name": "ConstantFolding/split_14-folded-27", "shape": [3, 3, 1, 1], "dtype": "float32"}, {"name": "ConstantFolding/split_14-folded-28", "shape": [3, 3, 1, 1], "dtype": "float32"}, {"name": "ConstantFolding/split_14-folded-29", "shape": [3, 3, 1, 1], "dtype": "float32"}, {"name": "ConstantFolding/split_14-folded-30", "shape": [3, 3, 1, 1], "dtype": "float32"}, {"name": "ConstantFolding/split_14-folded-31", "shape": [3, 3, 1, 1], "dtype": "float32"}, {"name": "ConstantFolding/split_14-folded-32", "shape": [3, 3, 1, 1], "dtype": "float32"}, {"name": "ConstantFolding/split_14-folded-33", "shape": [3, 3, 1, 1], "dtype": "float32"}, {"name": "ConstantFolding/split_14-folded-34", "shape": [3, 3, 1, 1], "dtype": "float32"}, {"name": "ConstantFolding/split_14-folded-35", "shape": [3, 3, 1, 1], "dtype": "float32"}, {"name": "ConstantFolding/split_14-folded-36", "shape": [3, 3, 1, 1], "dtype": "float32"}, {"name": "ConstantFolding/split_14-folded-37", "shape": [3, 3, 1, 1], "dtype": "float32"}, {"name": "ConstantFolding/split_14-folded-38", "shape": [3, 3, 1, 1], "dtype": "float32"}, {"name": "ConstantFolding/split_14-folded-39", "shape": [3, 3, 1, 1], "dtype": "float32"}, {"name": "ConstantFolding/split_14-folded-40", "shape": [3, 3, 1, 1], "dtype": "float32"}, {"name": "ConstantFolding/split_14-folded-41", "shape": [3, 3, 1, 1], "dtype": "float32"}, {"name": "ConstantFolding/split_14-folded-42", "shape": [3, 3, 1, 1], "dtype": "float32"}, {"name": "ConstantFolding/split_14-folded-43", "shape": [3, 3, 1, 1], "dtype": "float32"}, {"name": "ConstantFolding/split_14-folded-44", "shape": [3, 3, 1, 1], "dtype": "float32"}, {"name": "ConstantFolding/split_14-folded-45", "shape": [3, 3, 1, 1], "dtype": "float32"}, {"name": "ConstantFolding/split_14-folded-46", "shape": [3, 3, 1, 1], "dtype": "float32"}, {"name": "ConstantFolding/split_14-folded-47", "shape": [3, 3, 1, 1], "dtype": "float32"}, {"name": "ConstantFolding/split_14-folded-48", "shape": [3, 3, 1, 1], "dtype": "float32"}, {"name": "ConstantFolding/split_14-folded-49", "shape": [3, 3, 1, 1], "dtype": "float32"}, {"name": "ConstantFolding/split_14-folded-50", "shape": [3, 3, 1, 1], "dtype": "float32"}, {"name": "ConstantFolding/split_14-folded-51", "shape": [3, 3, 1, 1], "dtype": "float32"}, {"name": "ConstantFolding/split_14-folded-52", "shape": [3, 3, 1, 1], "dtype": "float32"}, {"name": "ConstantFolding/split_14-folded-53", "shape": [3, 3, 1, 1], "dtype": "float32"}, {"name": "ConstantFolding/split_14-folded-54", "shape": [3, 3, 1, 1], "dtype": "float32"}, {"name": "ConstantFolding/split_14-folded-55", "shape": [3, 3, 1, 1], "dtype": "float32"}, {"name": "ConstantFolding/split_14-folded-56", "shape": [3, 3, 1, 1], "dtype": "float32"}, {"name": "ConstantFolding/split_14-folded-57", "shape": [3, 3, 1, 1], "dtype": "float32"}, {"name": "ConstantFolding/split_14-folded-58", "shape": [3, 3, 1, 1], "dtype": "float32"}, {"name": "ConstantFolding/split_14-folded-59", "shape": [3, 3, 1, 1], "dtype": "float32"}, {"name": "ConstantFolding/split_14-folded-60", "shape": [3, 3, 1, 1], "dtype": "float32"}, {"name": "ConstantFolding/split_14-folded-61", "shape": [3, 3, 1, 1], "dtype": "float32"}, {"name": "ConstantFolding/split_14-folded-62", "shape": [3, 3, 1, 1], "dtype": "float32"}, {"name": "ConstantFolding/split_14-folded-63", "shape": [3, 3, 1, 1], "dtype": "float32"}, {"name": "ConstantFolding/split_14-folded-64", "shape": [3, 3, 1, 1], "dtype": "float32"}, {"name": "ConstantFolding/split_14-folded-65", "shape": [3, 3, 1, 1], "dtype": "float32"}, {"name": "ConstantFolding/split_14-folded-66", "shape": [3, 3, 1, 1], "dtype": "float32"}, {"name": "ConstantFolding/split_14-folded-67", "shape": [3, 3, 1, 1], "dtype": "float32"}, {"name": "ConstantFolding/split_14-folded-68", "shape": [3, 3, 1, 1], "dtype": "float32"}, {"name": "ConstantFolding/split_14-folded-69", "shape": [3, 3, 1, 1], "dtype": "float32"}, {"name": "ConstantFolding/split_14-folded-70", "shape": [3, 3, 1, 1], "dtype": "float32"}, {"name": "ConstantFolding/split_14-folded-71", "shape": [3, 3, 1, 1], "dtype": "float32"}, {"name": "ConstantFolding/split_14-folded-72", "shape": [3, 3, 1, 1], "dtype": "float32"}, {"name": "ConstantFolding/split_14-folded-73", "shape": [3, 3, 1, 1], "dtype": "float32"}, {"name": "ConstantFolding/split_14-folded-74", "shape": [3, 3, 1, 1], "dtype": "float32"}, {"name": "ConstantFolding/split_14-folded-75", "shape": [3, 3, 1, 1], "dtype": "float32"}, {"name": "ConstantFolding/split_14-folded-76", "shape": [3, 3, 1, 1], "dtype": "float32"}, {"name": "ConstantFolding/split_14-folded-77", "shape": [3, 3, 1, 1], "dtype": "float32"}, {"name": "ConstantFolding/split_14-folded-78", "shape": [3, 3, 1, 1], "dtype": "float32"}, {"name": "ConstantFolding/split_14-folded-79", "shape": [3, 3, 1, 1], "dtype": "float32"}, {"name": "ConstantFolding/split_14-folded-80", "shape": [3, 3, 1, 1], "dtype": "float32"}, {"name": "ConstantFolding/split_14-folded-81", "shape": [3, 3, 1, 1], "dtype": "float32"}, {"name": "ConstantFolding/split_14-folded-82", "shape": [3, 3, 1, 1], "dtype": "float32"}, {"name": "ConstantFolding/split_14-folded-83", "shape": [3, 3, 1, 1], "dtype": "float32"}, {"name": "ConstantFolding/split_14-folded-84", "shape": [3, 3, 1, 1], "dtype": "float32"}, {"name": "ConstantFolding/split_14-folded-85", "shape": [3, 3, 1, 1], "dtype": "float32"}, {"name": "ConstantFolding/split_14-folded-86", "shape": [3, 3, 1, 1], "dtype": "float32"}, {"name": "ConstantFolding/split_14-folded-87", "shape": [3, 3, 1, 1], "dtype": "float32"}, {"name": "ConstantFolding/split_14-folded-88", "shape": [3, 3, 1, 1], "dtype": "float32"}, {"name": "ConstantFolding/split_14-folded-89", "shape": [3, 3, 1, 1], "dtype": "float32"}, {"name": "ConstantFolding/split_14-folded-90", "shape": [3, 3, 1, 1], "dtype": "float32"}, {"name": "ConstantFolding/split_14-folded-91", "shape": [3, 3, 1, 1], "dtype": "float32"}, {"name": "ConstantFolding/split_14-folded-92", "shape": [3, 3, 1, 1], "dtype": "float32"}, {"name": "ConstantFolding/split_14-folded-93", "shape": [3, 3, 1, 1], "dtype": "float32"}, {"name": "ConstantFolding/split_14-folded-94", "shape": [3, 3, 1, 1], "dtype": "float32"}, {"name": "ConstantFolding/split_14-folded-95", "shape": [3, 3, 1, 1], "dtype": "float32"}, {"name": "ConstantFolding/split_14-folded-96", "shape": [3, 3, 1, 1], "dtype": "float32"}, {"name": "ConstantFolding/split_14-folded-97", "shape": [3, 3, 1, 1], "dtype": "float32"}, {"name": "ConstantFolding/split_14-folded-98", "shape": [3, 3, 1, 1], "dtype": "float32"}, {"name": "ConstantFolding/split_14-folded-99", "shape": [3, 3, 1, 1], "dtype": "float32"}, {"name": "ConstantFolding/split_14-folded-100", "shape": [3, 3, 1, 1], "dtype": "float32"}, {"name": "ConstantFolding/split_14-folded-101", "shape": [3, 3, 1, 1], "dtype": "float32"}, {"name": "ConstantFolding/split_14-folded-102", "shape": [3, 3, 1, 1], "dtype": "float32"}, {"name": "ConstantFolding/split_14-folded-103", "shape": [3, 3, 1, 1], "dtype": "float32"}, {"name": "ConstantFolding/split_14-folded-104", "shape": [3, 3, 1, 1], "dtype": "float32"}, {"name": "ConstantFolding/split_14-folded-105", "shape": [3, 3, 1, 1], "dtype": "float32"}, {"name": "ConstantFolding/split_14-folded-106", "shape": [3, 3, 1, 1], "dtype": "float32"}, {"name": "ConstantFolding/split_14-folded-107", "shape": [3, 3, 1, 1], "dtype": "float32"}, {"name": "ConstantFolding/split_14-folded-108", "shape": [3, 3, 1, 1], "dtype": "float32"}, {"name": "ConstantFolding/split_14-folded-109", "shape": [3, 3, 1, 1], "dtype": "float32"}, {"name": "ConstantFolding/split_14-folded-110", "shape": [3, 3, 1, 1], "dtype": "float32"}, {"name": "ConstantFolding/split_14-folded-111", "shape": [3, 3, 1, 1], "dtype": "float32"}, {"name": "ConstantFolding/split_14-folded-112", "shape": [3, 3, 1, 1], "dtype": "float32"}, {"name": "ConstantFolding/split_14-folded-113", "shape": [3, 3, 1, 1], "dtype": "float32"}, {"name": "ConstantFolding/split_14-folded-114", "shape": [3, 3, 1, 1], "dtype": "float32"}, {"name": "ConstantFolding/split_14-folded-115", "shape": [3, 3, 1, 1], "dtype": "float32"}, {"name": "ConstantFolding/split_14-folded-116", "shape": [3, 3, 1, 1], "dtype": "float32"}, {"name": "ConstantFolding/split_14-folded-117", "shape": [3, 3, 1, 1], "dtype": "float32"}, {"name": "ConstantFolding/split_14-folded-118", "shape": [3, 3, 1, 1], "dtype": "float32"}, {"name": "BatchNormalization_19/mul", "shape": [1, 120, 1, 1], "dtype": "float32"}, {"name": "BatchNormalization_16/mul", "shape": [1, 88, 1, 1], "dtype": "float32"}, {"name": "ConstantFolding/split_10-folded-0", "shape": [3, 3, 1, 1], "dtype": "float32"}, {"name": "ConstantFolding/split_10-folded-1", "shape": [3, 3, 1, 1], "dtype": "float32"}, {"name": "ConstantFolding/split_10-folded-2", "shape": [3, 3, 1, 1], "dtype": "float32"}, {"name": "ConstantFolding/split_10-folded-3", "shape": [3, 3, 1, 1], "dtype": "float32"}, {"name": "ConstantFolding/split_10-folded-4", "shape": [3, 3, 1, 1], "dtype": "float32"}, {"name": "ConstantFolding/split_10-folded-5", "shape": [3, 3, 1, 1], "dtype": "float32"}, {"name": "ConstantFolding/split_10-folded-6", "shape": [3, 3, 1, 1], "dtype": "float32"}, {"name": "ConstantFolding/split_10-folded-7", "shape": [3, 3, 1, 1], "dtype": "float32"}, {"name": "ConstantFolding/split_10-folded-8", "shape": [3, 3, 1, 1], "dtype": "float32"}, {"name": "ConstantFolding/split_10-folded-9", "shape": [3, 3, 1, 1], "dtype": "float32"}, {"name": "ConstantFolding/split_10-folded-10", "shape": [3, 3, 1, 1], "dtype": "float32"}, {"name": "ConstantFolding/split_10-folded-11", "shape": [3, 3, 1, 1], "dtype": "float32"}, {"name": "ConstantFolding/split_10-folded-12", "shape": [3, 3, 1, 1], "dtype": "float32"}, {"name": "ConstantFolding/split_10-folded-13", "shape": [3, 3, 1, 1], "dtype": "float32"}, {"name": "ConstantFolding/split_10-folded-14", "shape": [3, 3, 1, 1], "dtype": "float32"}, {"name": "ConstantFolding/split_10-folded-15", "shape": [3, 3, 1, 1], "dtype": "float32"}, {"name": "ConstantFolding/split_10-folded-16", "shape": [3, 3, 1, 1], "dtype": "float32"}, {"name": "ConstantFolding/split_10-folded-17", "shape": [3, 3, 1, 1], "dtype": "float32"}, {"name": "ConstantFolding/split_10-folded-18", "shape": [3, 3, 1, 1], "dtype": "float32"}, {"name": "ConstantFolding/split_10-folded-19", "shape": [3, 3, 1, 1], "dtype": "float32"}, {"name": "ConstantFolding/split_10-folded-20", "shape": [3, 3, 1, 1], "dtype": "float32"}, {"name": "ConstantFolding/split_10-folded-21", "shape": [3, 3, 1, 1], "dtype": "float32"}, {"name": "ConstantFolding/split_10-folded-22", "shape": [3, 3, 1, 1], "dtype": "float32"}, {"name": "ConstantFolding/split_10-folded-23", "shape": [3, 3, 1, 1], "dtype": "float32"}, {"name": "ConstantFolding/split_10-folded-24", "shape": [3, 3, 1, 1], "dtype": "float32"}, {"name": "ConstantFolding/split_10-folded-25", "shape": [3, 3, 1, 1], "dtype": "float32"}, {"name": "ConstantFolding/split_10-folded-26", "shape": [3, 3, 1, 1], "dtype": "float32"}, {"name": "ConstantFolding/split_10-folded-27", "shape": [3, 3, 1, 1], "dtype": "float32"}, {"name": "ConstantFolding/split_10-folded-28", "shape": [3, 3, 1, 1], "dtype": "float32"}, {"name": "ConstantFolding/split_10-folded-29", "shape": [3, 3, 1, 1], "dtype": "float32"}, {"name": "ConstantFolding/split_10-folded-30", "shape": [3, 3, 1, 1], "dtype": "float32"}, {"name": "ConstantFolding/split_10-folded-31", "shape": [3, 3, 1, 1], "dtype": "float32"}, {"name": "ConstantFolding/split_10-folded-32", "shape": [3, 3, 1, 1], "dtype": "float32"}, {"name": "ConstantFolding/split_10-folded-33", "shape": [3, 3, 1, 1], "dtype": "float32"}, {"name": "ConstantFolding/split_10-folded-34", "shape": [3, 3, 1, 1], "dtype": "float32"}, {"name": "ConstantFolding/split_10-folded-35", "shape": [3, 3, 1, 1], "dtype": "float32"}, {"name": "ConstantFolding/split_10-folded-36", "shape": [3, 3, 1, 1], "dtype": "float32"}, {"name": "ConstantFolding/split_10-folded-37", "shape": [3, 3, 1, 1], "dtype": "float32"}, {"name": "ConstantFolding/split_10-folded-38", "shape": [3, 3, 1, 1], "dtype": "float32"}, {"name": "ConstantFolding/split_10-folded-39", "shape": [3, 3, 1, 1], "dtype": "float32"}, {"name": "ConstantFolding/split_10-folded-40", "shape": [3, 3, 1, 1], "dtype": "float32"}, {"name": "ConstantFolding/split_10-folded-41", "shape": [3, 3, 1, 1], "dtype": "float32"}, {"name": "ConstantFolding/split_10-folded-42", "shape": [3, 3, 1, 1], "dtype": "float32"}, {"name": "ConstantFolding/split_10-folded-43", "shape": [3, 3, 1, 1], "dtype": "float32"}, {"name": "ConstantFolding/split_10-folded-44", "shape": [3, 3, 1, 1], "dtype": "float32"}, {"name": "ConstantFolding/split_10-folded-45", "shape": [3, 3, 1, 1], "dtype": "float32"}, {"name": "ConstantFolding/split_10-folded-46", "shape": [3, 3, 1, 1], "dtype": "float32"}, {"name": "ConstantFolding/split_10-folded-47", "shape": [3, 3, 1, 1], "dtype": "float32"}, {"name": "ConstantFolding/split_10-folded-48", "shape": [3, 3, 1, 1], "dtype": "float32"}, {"name": "ConstantFolding/split_10-folded-49", "shape": [3, 3, 1, 1], "dtype": "float32"}, {"name": "ConstantFolding/split_10-folded-50", "shape": [3, 3, 1, 1], "dtype": "float32"}, {"name": "ConstantFolding/split_10-folded-51", "shape": [3, 3, 1, 1], "dtype": "float32"}, {"name": "ConstantFolding/split_10-folded-52", "shape": [3, 3, 1, 1], "dtype": "float32"}, {"name": "ConstantFolding/split_10-folded-53", "shape": [3, 3, 1, 1], "dtype": "float32"}, {"name": "ConstantFolding/split_10-folded-54", "shape": [3, 3, 1, 1], "dtype": "float32"}, {"name": "ConstantFolding/split_10-folded-55", "shape": [3, 3, 1, 1], "dtype": "float32"}, {"name": "ConstantFolding/split_10-folded-56", "shape": [3, 3, 1, 1], "dtype": "float32"}, {"name": "ConstantFolding/split_10-folded-57", "shape": [3, 3, 1, 1], "dtype": "float32"}, {"name": "ConstantFolding/split_10-folded-58", "shape": [3, 3, 1, 1], "dtype": "float32"}, {"name": "ConstantFolding/split_10-folded-59", "shape": [3, 3, 1, 1], "dtype": "float32"}, {"name": "ConstantFolding/split_10-folded-60", "shape": [3, 3, 1, 1], "dtype": "float32"}, {"name": "ConstantFolding/split_10-folded-61", "shape": [3, 3, 1, 1], "dtype": "float32"}, {"name": "ConstantFolding/split_10-folded-62", "shape": [3, 3, 1, 1], "dtype": "float32"}, {"name": "ConstantFolding/split_10-folded-63", "shape": [3, 3, 1, 1], "dtype": "float32"}, {"name": "ConstantFolding/split_10-folded-64", "shape": [3, 3, 1, 1], "dtype": "float32"}, {"name": "ConstantFolding/split_10-folded-65", "shape": [3, 3, 1, 1], "dtype": "float32"}, {"name": "ConstantFolding/split_10-folded-66", "shape": [3, 3, 1, 1], "dtype": "float32"}, {"name": "ConstantFolding/split_10-folded-67", "shape": [3, 3, 1, 1], "dtype": "float32"}, {"name": "ConstantFolding/split_10-folded-68", "shape": [3, 3, 1, 1], "dtype": "float32"}, {"name": "ConstantFolding/split_10-folded-69", "shape": [3, 3, 1, 1], "dtype": "float32"}, {"name": "ConstantFolding/split_10-folded-70", "shape": [3, 3, 1, 1], "dtype": "float32"}, {"name": "ConstantFolding/split_10-folded-71", "shape": [3, 3, 1, 1], "dtype": "float32"}, {"name": "ConstantFolding/split_10-folded-72", "shape": [3, 3, 1, 1], "dtype": "float32"}, {"name": "ConstantFolding/split_10-folded-73", "shape": [3, 3, 1, 1], "dtype": "float32"}, {"name": "ConstantFolding/split_10-folded-74", "shape": [3, 3, 1, 1], "dtype": "float32"}, {"name": "ConstantFolding/split_10-folded-75", "shape": [3, 3, 1, 1], "dtype": "float32"}, {"name": "ConstantFolding/split_10-folded-76", "shape": [3, 3, 1, 1], "dtype": "float32"}, {"name": "ConstantFolding/split_10-folded-77", "shape": [3, 3, 1, 1], "dtype": "float32"}, {"name": "ConstantFolding/split_10-folded-78", "shape": [3, 3, 1, 1], "dtype": "float32"}, {"name": "ConstantFolding/split_10-folded-79", "shape": [3, 3, 1, 1], "dtype": "float32"}, {"name": "ConstantFolding/split_10-folded-80", "shape": [3, 3, 1, 1], "dtype": "float32"}, {"name": "ConstantFolding/split_10-folded-81", "shape": [3, 3, 1, 1], "dtype": "float32"}, {"name": "ConstantFolding/split_10-folded-82", "shape": [3, 3, 1, 1], "dtype": "float32"}, {"name": "ConstantFolding/split_10-folded-83", "shape": [3, 3, 1, 1], "dtype": "float32"}, {"name": "ConstantFolding/split_10-folded-84", "shape": [3, 3, 1, 1], "dtype": "float32"}, {"name": "ConstantFolding/split_10-folded-85", "shape": [3, 3, 1, 1], "dtype": "float32"}, {"name": "ConstantFolding/split_10-folded-86", "shape": [3, 3, 1, 1], "dtype": "float32"}, {"name": "BatchNormalization_13/mul", "shape": [1, 88, 1, 1], "dtype": "float32"}, {"name": "BatchNormalization_10/mul", "shape": [1, 56, 1, 1], "dtype": "float32"}, {"name": "ConstantFolding/split_6-folded-0", "shape": [3, 3, 1, 1], "dtype": "float32"}, {"name": "ConstantFolding/split_6-folded-1", "shape": [3, 3, 1, 1], "dtype": "float32"}, {"name": "ConstantFolding/split_6-folded-2", "shape": [3, 3, 1, 1], "dtype": "float32"}, {"name": "ConstantFolding/split_6-folded-3", "shape": [3, 3, 1, 1], "dtype": "float32"}, {"name": "ConstantFolding/split_6-folded-4", "shape": [3, 3, 1, 1], "dtype": "float32"}, {"name": "ConstantFolding/split_6-folded-5", "shape": [3, 3, 1, 1], "dtype": "float32"}, {"name": "ConstantFolding/split_6-folded-6", "shape": [3, 3, 1, 1], "dtype": "float32"}, {"name": "ConstantFolding/split_6-folded-7", "shape": [3, 3, 1, 1], "dtype": "float32"}, {"name": "ConstantFolding/split_6-folded-8", "shape": [3, 3, 1, 1], "dtype": "float32"}, {"name": "ConstantFolding/split_6-folded-9", "shape": [3, 3, 1, 1], "dtype": "float32"}, {"name": "ConstantFolding/split_6-folded-10", "shape": [3, 3, 1, 1], "dtype": "float32"}, {"name": "ConstantFolding/split_6-folded-11", "shape": [3, 3, 1, 1], "dtype": "float32"}, {"name": "ConstantFolding/split_6-folded-12", "shape": [3, 3, 1, 1], "dtype": "float32"}, {"name": "ConstantFolding/split_6-folded-13", "shape": [3, 3, 1, 1], "dtype": "float32"}, {"name": "ConstantFolding/split_6-folded-14", "shape": [3, 3, 1, 1], "dtype": "float32"}, {"name": "ConstantFolding/split_6-folded-15", "shape": [3, 3, 1, 1], "dtype": "float32"}, {"name": "ConstantFolding/split_6-folded-16", "shape": [3, 3, 1, 1], "dtype": "float32"}, {"name": "ConstantFolding/split_6-folded-17", "shape": [3, 3, 1, 1], "dtype": "float32"}, {"name": "ConstantFolding/split_6-folded-18", "shape": [3, 3, 1, 1], "dtype": "float32"}, {"name": "ConstantFolding/split_6-folded-19", "shape": [3, 3, 1, 1], "dtype": "float32"}, {"name": "ConstantFolding/split_6-folded-20", "shape": [3, 3, 1, 1], "dtype": "float32"}, {"name": "ConstantFolding/split_6-folded-21", "shape": [3, 3, 1, 1], "dtype": "float32"}, {"name": "ConstantFolding/split_6-folded-22", "shape": [3, 3, 1, 1], "dtype": "float32"}, {"name": "ConstantFolding/split_6-folded-23", "shape": [3, 3, 1, 1], "dtype": "float32"}, {"name": "ConstantFolding/split_6-folded-24", "shape": [3, 3, 1, 1], "dtype": "float32"}, {"name": "ConstantFolding/split_6-folded-25", "shape": [3, 3, 1, 1], "dtype": "float32"}, {"name": "ConstantFolding/split_6-folded-26", "shape": [3, 3, 1, 1], "dtype": "float32"}, {"name": "ConstantFolding/split_6-folded-27", "shape": [3, 3, 1, 1], "dtype": "float32"}, {"name": "ConstantFolding/split_6-folded-28", "shape": [3, 3, 1, 1], "dtype": "float32"}, {"name": "ConstantFolding/split_6-folded-29", "shape": [3, 3, 1, 1], "dtype": "float32"}, {"name": "ConstantFolding/split_6-folded-30", "shape": [3, 3, 1, 1], "dtype": "float32"}, {"name": "ConstantFolding/split_6-folded-31", "shape": [3, 3, 1, 1], "dtype": "float32"}, {"name": "ConstantFolding/split_6-folded-32", "shape": [3, 3, 1, 1], "dtype": "float32"}, {"name": "ConstantFolding/split_6-folded-33", "shape": [3, 3, 1, 1], "dtype": "float32"}, {"name": "ConstantFolding/split_6-folded-34", "shape": [3, 3, 1, 1], "dtype": "float32"}, {"name": "ConstantFolding/split_6-folded-35", "shape": [3, 3, 1, 1], "dtype": "float32"}, {"name": "ConstantFolding/split_6-folded-36", "shape": [3, 3, 1, 1], "dtype": "float32"}, {"name": "ConstantFolding/split_6-folded-37", "shape": [3, 3, 1, 1], "dtype": "float32"}, {"name": "ConstantFolding/split_6-folded-38", "shape": [3, 3, 1, 1], "dtype": "float32"}, {"name": "ConstantFolding/split_6-folded-39", "shape": [3, 3, 1, 1], "dtype": "float32"}, {"name": "ConstantFolding/split_6-folded-40", "shape": [3, 3, 1, 1], "dtype": "float32"}, {"name": "ConstantFolding/split_6-folded-41", "shape": [3, 3, 1, 1], "dtype": "float32"}, {"name": "ConstantFolding/split_6-folded-42", "shape": [3, 3, 1, 1], "dtype": "float32"}, {"name": "ConstantFolding/split_6-folded-43", "shape": [3, 3, 1, 1], "dtype": "float32"}, {"name": "ConstantFolding/split_6-folded-44", "shape": [3, 3, 1, 1], "dtype": "float32"}, {"name": "ConstantFolding/split_6-folded-45", "shape": [3, 3, 1, 1], "dtype": "float32"}, {"name": "ConstantFolding/split_6-folded-46", "shape": [3, 3, 1, 1], "dtype": "float32"}, {"name": "ConstantFolding/split_6-folded-47", "shape": [3, 3, 1, 1], "dtype": "float32"}, {"name": "ConstantFolding/split_6-folded-48", "shape": [3, 3, 1, 1], "dtype": "float32"}, {"name": "ConstantFolding/split_6-folded-49", "shape": [3, 3, 1, 1], "dtype": "float32"}, {"name": "ConstantFolding/split_6-folded-50", "shape": [3, 3, 1, 1], "dtype": "float32"}, {"name": "ConstantFolding/split_6-folded-51", "shape": [3, 3, 1, 1], "dtype": "float32"}, {"name": "ConstantFolding/split_6-folded-52", "shape": [3, 3, 1, 1], "dtype": "float32"}, {"name": "ConstantFolding/split_6-folded-53", "shape": [3, 3, 1, 1], "dtype": "float32"}, {"name": "ConstantFolding/split_6-folded-54", "shape": [3, 3, 1, 1], "dtype": "float32"}, {"name": "BatchNormalization_7/mul", "shape": [1, 56, 1, 1], "dtype": "float32"}, {"name": "BatchNormalization_4/mul", "shape": [1, 16, 1, 1], "dtype": "float32"}, {"name": "ConstantFolding/split_2-folded-0", "shape": [3, 3, 1, 1], "dtype": "float32"}, {"name": "ConstantFolding/split_2-folded-1", "shape": [3, 3, 1, 1], "dtype": "float32"}, {"name": "ConstantFolding/split_2-folded-2", "shape": [3, 3, 1, 1], "dtype": "float32"}, {"name": "ConstantFolding/split_2-folded-3", "shape": [3, 3, 1, 1], "dtype": "float32"}, {"name": "ConstantFolding/split_2-folded-4", "shape": [3, 3, 1, 1], "dtype": "float32"}, {"name": "ConstantFolding/split_2-folded-5", "shape": [3, 3, 1, 1], "dtype": "float32"}, {"name": "ConstantFolding/split_2-folded-6", "shape": [3, 3, 1, 1], "dtype": "float32"}, {"name": "ConstantFolding/split_2-folded-7", "shape": [3, 3, 1, 1], "dtype": "float32"}, {"name": "ConstantFolding/split_2-folded-8", "shape": [3, 3, 1, 1], "dtype": "float32"}, {"name": "ConstantFolding/split_2-folded-9", "shape": [3, 3, 1, 1], "dtype": "float32"}, {"name": "ConstantFolding/split_2-folded-10", "shape": [3, 3, 1, 1], "dtype": "float32"}, {"name": "ConstantFolding/split_2-folded-11", "shape": [3, 3, 1, 1], "dtype": "float32"}, {"name": "ConstantFolding/split_2-folded-12", "shape": [3, 3, 1, 1], "dtype": "float32"}, {"name": "ConstantFolding/split_2-folded-13", "shape": [3, 3, 1, 1], "dtype": "float32"}, {"name": "ConstantFolding/split_2-folded-14", "shape": [3, 3, 1, 1], "dtype": "float32"}, {"name": "BatchNormalization_1/mul", "shape": [1, 16, 1, 1], "dtype": "float32"}, {"name": "split", "shape": [3, 3, 3, 16], "dtype": "float32"}, {"name": "BatchNormalization_1/sub", "shape": [1, 16, 1, 1], "dtype": "float32"}, {"name": "ConstantFolding/split_2-folded-15", "shape": [3, 3, 1, 1], "dtype": "float32"}, {"name": "BatchNormalization_4/sub", "shape": [1, 16, 1, 1], "dtype": "float32"}, {"name": "split_4", "shape": [1, 1, 16, 56], "dtype": "float32"}, {"name": "BatchNormalization_7/sub", "shape": [1, 56, 1, 1], "dtype": "float32"}, {"name": "ConstantFolding/split_6-folded-55", "shape": [3, 3, 1, 1], "dtype": "float32"}, {"name": "BatchNormalization_10/sub", "shape": [1, 56, 1, 1], "dtype": "float32"}, {"name": "split_8", "shape": [1, 1, 56, 88], "dtype": "float32"}, {"name": "BatchNormalization_13/sub", "shape": [1, 88, 1, 1], "dtype": "float32"}, {"name": "ConstantFolding/split_10-folded-87", "shape": [3, 3, 1, 1], "dtype": "float32"}, {"name": "BatchNormalization_16/sub", "shape": [1, 88, 1, 1], "dtype": "float32"}, {"name": "split_12", "shape": [1, 1, 88, 120], "dtype": "float32"}, {"name": "BatchNormalization_19/sub", "shape": [1, 120, 1, 1], "dtype": "float32"}, {"name": "ConstantFolding/split_14-folded-119", "shape": [3, 3, 1, 1], "dtype": "float32"}, {"name": "BatchNormalization_22/sub", "shape": [1, 120, 1, 1], "dtype": "float32"}, {"name": "split_16", "shape": [1, 1, 120, 144], "dtype": "float32"}, {"name": "BatchNormalization_25/sub", "shape": [1, 144, 1, 1], "dtype": "float32"}, {"name": "ConstantFolding/split_18-folded-143", "shape": [3, 3, 1, 1], "dtype": "float32"}, {"name": "BatchNormalization_28/sub", "shape": [1, 144, 1, 1], "dtype": "float32"}, {"name": "split_20", "shape": [1, 1, 144, 256], "dtype": "float32"}, {"name": "BatchNormalization_31/sub", "shape": [1, 256, 1, 1], "dtype": "float32"}, {"name": "ConstantFolding/split_22-folded-255", "shape": [3, 3, 1, 1], "dtype": "float32"}, {"name": "BatchNormalization_34/sub", "shape": [1, 256, 1, 1], "dtype": "float32"}, {"name": "split_24", "shape": [1, 1, 256, 408], "dtype": "float32"}, {"name": "BatchNormalization_37/sub", "shape": [1, 408, 1, 1], "dtype": "float32"}, {"name": "ConstantFolding/split_26-folded-407", "shape": [3, 3, 1, 1], "dtype": "float32"}, {"name": "BatchNormalization_40/sub", "shape": [1, 408, 1, 1], "dtype": "float32"}, {"name": "split_28", "shape": [1, 1, 408, 376], "dtype": "float32"}, {"name": "BatchNormalization_43/sub", "shape": [1, 376, 1, 1], "dtype": "float32"}, {"name": "ConstantFolding/split_30-folded-375", "shape": [3, 3, 1, 1], "dtype": "float32"}, {"name": "BatchNormalization_46/sub", "shape": [1, 376, 1, 1], "dtype": "float32"}, {"name": "split_32", "shape": [1, 1, 376, 272], "dtype": "float32"}, {"name": "BatchNormalization_49/sub", "shape": [1, 272, 1, 1], "dtype": "float32"}, {"name": "ConstantFolding/split_34-folded-271", "shape": [3, 3, 1, 1], "dtype": "float32"}, {"name": "BatchNormalization_52/sub", "shape": [1, 272, 1, 1], "dtype": "float32"}, {"name": "split_36", "shape": [1, 1, 272, 288], "dtype": "float32"}, {"name": "BatchNormalization_55/sub", "shape": [1, 288, 1, 1], "dtype": "float32"}, {"name": "ConstantFolding/split_38-folded-287", "shape": [3, 3, 1, 1], "dtype": "float32"}, {"name": "BatchNormalization_58/sub", "shape": [1, 288, 1, 1], "dtype": "float32"}, {"name": "split_40", "shape": [1, 1, 288, 296], "dtype": "float32"}, {"name": "BatchNormalization_61/sub", "shape": [1, 296, 1, 1], "dtype": "float32"}, {"name": "ConstantFolding/split_42-folded-295", "shape": [3, 3, 1, 1], "dtype": "float32"}, {"name": "BatchNormalization_64/sub", "shape": [1, 296, 1, 1], "dtype": "float32"}, {"name": "split_44", "shape": [1, 1, 296, 328], "dtype": "float32"}, {"name": "BatchNormalization_67/sub", "shape": [1, 328, 1, 1], "dtype": "float32"}, {"name": "ConstantFolding/split_46-folded-327", "shape": [3, 3, 1, 1], "dtype": "float32"}, {"name": "BatchNormalization_70/sub", "shape": [1, 328, 1, 1], "dtype": "float32"}, {"name": "split_48", "shape": [1, 1, 328, 480], "dtype": "float32"}, {"name": "BatchNormalization_73/sub", "shape": [1, 480, 1, 1], "dtype": "float32"}, {"name": "Const_50", "shape": [4, 2], "dtype": "int32"}, {"name": "ConstantFolding/split_50-folded-479", "shape": [3, 3, 1, 1], "dtype": "float32"}, {"name": "BatchNormalization_76/sub", "shape": [1, 480, 1, 1], "dtype": "float32"}, {"name": "split_52", "shape": [1, 1, 480, 512], "dtype": "float32"}, {"name": "BatchNormalization_79/sub", "shape": [1, 512, 1, 1], "dtype": "float32"}, {"name": "clip_by_value_11/Minimum/y", "shape": [], "dtype": "float32"}, {"name": "clip_by_value_11/y", "shape": [], "dtype": "float32"}, {"name": "ConstantFolding/split_54-folded-511", "shape": [5, 5, 1, 1], "dtype": "float32"}, {"name": "BatchNormalization_82/sub", "shape": [1, 512, 1, 1], "dtype": "float32"}, {"name": "split_56", "shape": [1, 1, 512, 200], "dtype": "float32"}, {"name": "BatchNormalization_85/sub", "shape": [1, 200, 1, 1], "dtype": "float32"}, {"name": "ConstantFolding/split_58-folded-199", "shape": [5, 5, 1, 1], "dtype": "float32"}, {"name": "BatchNormalization_115/sub", "shape": [1, 200, 1, 1], "dtype": "float32"}, {"name": "split_60", "shape": [1, 1, 200, 256], "dtype": "float32"}, {"name": "BatchNormalization_118/sub", "shape": [1, 256, 1, 1], "dtype": "float32"}, {"name": "ConstantFolding/split_62-folded-255", "shape": [5, 5, 1, 1], "dtype": "float32"}, {"name": "BatchNormalization_149/sub", "shape": [1, 256, 1, 1], "dtype": "float32"}, {"name": "split_64", "shape": [1, 1, 256, 120], "dtype": "float32"}, {"name": "BatchNormalization_152/sub", "shape": [1, 120, 1, 1], "dtype": "float32"}, {"name": "ConstantFolding/split_66-folded-119", "shape": [5, 5, 1, 1], "dtype": "float32"}, {"name": "BatchNormalization_183/sub", "shape": [1, 120, 1, 1], "dtype": "float32"}, {"name": "split_68", "shape": [1, 1, 120, 56], "dtype": "float32"}, {"name": "BatchNormalization_186/sub", "shape": [1, 56, 1, 1], "dtype": "float32"}, {"name": "Const_122", "shape": [4, 2], "dtype": "int32"}, {"name": "ConstantFolding/split_70-folded-55", "shape": [5, 5, 1, 1], "dtype": "float32"}, {"name": "split_75/split_dim", "shape": [], "dtype": "int32"}, {"name": "BatchNormalization_217/sub", "shape": [1, 56, 1, 1], "dtype": "float32"}, {"name": "transpose_34/perm", "shape": [4], "dtype": "int32"}, {"name": "split_72", "shape": [1, 1, 56, 16], "dtype": "float32"}, {"name": "BatchNormalization_220/sub", "shape": [1, 16, 1, 1], "dtype": "float32"}, {"name": "LogicalAnd", "shape": [], "dtype": "bool"}, {"name": "Concat_112", "shape": [4], "dtype": "float32"}, {"name": "split_74", "shape": [1, 1, 16, 1], "dtype": "float32"}, {"name": "transpose_35/perm", "shape": [4], "dtype": "int32"}, {"name": "BatchNormalization_250/sub", "shape": [1, 1, 1, 1], "dtype": "float32"}, {"name": "transpose_87/perm", "shape": [4], "dtype": "int32"}, {"name": "Cast", "shape": [2], "dtype": "int32"}, {"name": "transpose_88/perm", "shape": [4], "dtype": "int32"}, {"name": "transpose_95/perm", "shape": [4], "dtype": "int32"}, {"name": "Cast_1", "shape": [2], "dtype": "int32"}, {"name": "transpose_96/perm", "shape": [4], "dtype": "int32"}, {"name": "transpose_103/perm", "shape": [4], "dtype": "int32"}, {"name": "Cast_2", "shape": [2], "dtype": "int32"}, {"name": "transpose_104/perm", "shape": [4], "dtype": "int32"}, {"name": "transpose_111/perm", "shape": [4], "dtype": "int32"}, {"name": "Cast_3", "shape": [2], "dtype": "int32"}, {"name": "transpose_112/perm", "shape": [4], "dtype": "int32"}, {"name": "transpose_119/perm", "shape": [4], "dtype": "int32"}, {"name": "Cast_4", "shape": [2], "dtype": "int32"}]}]}